saved_models/feedforward_nn_hd_64_nl_2_lr_0.001.pth (torch, 32598 bytes, 5 tensors)

network.0.weight f4 [64, 48]
00000000: a7dd 2d3e 90d1 75bc 6508 a03d 22c2 08be
00000010: f599 343e 5051 6a3e 290a 453c 1f51 acbd
00000020: a4dc 39be 69a7 2dbd f419 4f3d 7f00 26bd
00000030: dd3b 77be 5dc4 c0bd 4613 143d aec0 0cbd
00000040: f7c4 1dbc f400 d1bc 8b1e 9fbd 05dd a63d
00000050: 33cf 5abe 413e 8dbc 00d0 7c3d 5457 e43d
00000060: 4d96 3a3e 47e7 463e 79cd 033d 58f8 4dbd
00000070: e92e 1dbd 16bb bfbc 7a86 0c3e f6c0 e5bc
00000080: 378d f23d f4f6 1d3e 02fc ab3c a390 713e
00000090: 0980 af3d e453 233d 189e 713d 5ac9 a13d
000000a0: fd3b edbd 93f9 193b b803 ea3d c5cf 353e
000000b0: d6e0 39bc 57e7 f5bb aed7 5d3e 7d88 e8bc
000000c0: 1c61 9f3d c6f4 e53d 203d 10be 7e70 623c
000000d0: 7649 7dbd c2bc 523e 8053 f33d 6100 03be
000000e0: 8e0a 92bd 8752 e1bd 2fe3 d33c 843e 5f3d
000000f0: 3985 213e 9cef 363e 01cb 2c3e ad15 11be
00000100: 49ab 3abe bec8 9b3d b070 693b 0455 673d
00000110: a431 0a3e 191e 41be 3a95 ffbc 3c5a ea3c
00000120: 5a65 d7bc 6d1d 29be 573d 13bd 99b1 043e
00000130: e559 5c3e d419 7b3e 121f efbc 1391 723d
00000140: acd2 0a3e e365 52be 0335 1cbe 21a2 cb3d
00000150: abe2 cabd 88a0 bb3d 8b51 e2bd 2aab 2dbd
00000160: 76e3 65be 150f 0d3e 511d 223e f9c5 123e
00000170: 5aae 5f3d f016 04be 748c 193d 9f00 ec3d
00000180: 77ff cebd c0d9 ae3c d0e0 933d 857e 633e
00000190: 7394 b7bd eb69 6bbd 3683 0e3c 20fa 52be
000001a0: 2d15 b23d 561f 1eba fa9b e0bd 44ce ae3d
000001b0: 28b7 9a3d 4d57 5dbd 6f27 50be d53d 67be
000001c0: 473f 03be f704 f1bd cd91 90ba 0f76 debd
000001d0: 1075 e9bc 4418 4d3d 84b4 c5bd 1ebb 3f3c
000001e0: 5758 8f3d 49ce 13bd 5ff0 023e b831 bd3d
000001f0: f802 dfbd 52f7 493e 5646 7ebd 37ae 20be
00000200: 6884 60be ab56 1ebe 90b2 003e 3b71 da3d
00000210: 0dd8 393e da41 15bd 2b23 93bd df5b 6dbd
00000220: 75ff 3abd abbf 963d 07d2 e63d 31a6 e93d
00000230: 1a87 22be 5f08 3b3e aec7 5dbe 55f0 c23c
00000240: 34e1 1d3e 6a27 50bd 066e 53bd 1df5 babd
00000250: 4f7c 803d ea8a 20be 24c1 2b3c d6ab a73d
00000260: cce4 43be 96c8 98bc f34e caba 9f6d b13d
00000270: 095b 8abd 9679 aa3d 904e d43d ddf9 e53d
00000280: 266e 713d b092 41bd 9345 903d 2038 653e
00000290: 449e 6cbe 184f 5d3c eae4 c4bd 2ab7 913b
000002a0: 0289 00be c853 033e e8b8 273d da8b a8ba
000002b0: 70d4 573a 9cf6 773e cceb e83c ac28 0bbe
000002c0: 870e ca3d 31ac 813e 8a61 603e baa3 213e
000002d0: 19e6 31be 9d11 debd 96e5 0fbe fb8a 0dbe
000002e0: 8a13 63be 8303 2c3e 91bf 033d 39fd 873e
000002f0: e917 2a3e c06c 2f3e f93a 513a 7f93 0cbe
00000300: c45b ab3d 869e ce3d 2658 d83d e7e9 a6bd
00000310: 1d62 a23c f69f 923d ae3f 2cbd 73ac e43d
00000320: 7022 8a3d 86f0 f73d afe8 3b3b 950b 1bbc
00000330: 7563 963c d448 6c3e 0ae3 143e c881 b73d
00000340: 575a 523d e773 8dbd 9b93 34bc 2527 a13d
00000350: 8d28 253e 80bf dabd 4401 c9bc c14d d1bd
00000360: 9e51 043e b3a2 e33d 89ad ffbd 3b9c 15be
00000370: 2c8c 1b3e 6ca5 38be 79d1 85bd af46 863d
00000380: f091 493e e0cf d0bd 5272 0a3e 0460 793c
00000390: 3707 23bd 487d 27be 07de 42ba 0618 b3bd
000003a0: 2edb 2a3c 66bd 00be 56d5 edbd dd60 2f3e
000003b0: 41e9 a6bd 61d8 963d 24ae 253d fb90 183e
000003c0: 6fe9 0e3e ad53 a8bd 6be6 85bd 56b6 de3d
000003d0: 8768 23bd 964e 2cbd 636a b63c 6c3a 3b3e
000003e0: 0dc4 923d 5faa edbd 6972 05be 3963 d0bd
000003f0: 3640 b03d 1182 ccbd b287 26be f9bb dc3d
0.16979085 -0.015003577 0.07814101 -0.13355306 0.17636855 0.22882581 0.012026348 -0.0841391
-0.18150574 -0.042395983 0.05056186 -0.040527817 -0.2414393 -0.09412453 0.036151193 -0.03436344
-0.00962948 -0.02551315 -0.077694975 0.08147625 -0.21368103 -0.017241599 0.0617218 0.11149469
0.18221398 0.19424163 0.032178376 -0.050285667 -0.038374815 -0.02340464 0.13723174 -0.028046113
0.11843341 0.15426236 0.02099419 0.23590331 0.08569343 0.039874926 0.05898866 0.07899733
-0.115837075 0.0023494705 0.114264905 0.17755039 -0.011345109 -0.0075043845 0.21664307 -0.028385395
0.07782194 0.112283275 -0.14085817 0.013820766 -0.061837636 0.20579818 0.11881161 -0.12793113
-0.071309194 -0.11002069 0.025865166 0.05450298 0.15773477 0.17864841 0.16874315 -0.14168425
-0.18229403 0.07606648 0.0035620145 0.05647756 0.13495499 -0.18859138 -0.031199086 0.02860748
-0.026293445 -0.16515131 -0.03594717 0.12958373 0.21518667 0.24521571 -0.02918962 0.059220385
0.13556927 -0.20546679 -0.15254597 0.09943033 -0.09906515 0.09161478 -0.11050709 -0.042399563
-0.2245005 0.13775285 0.15831496 0.14333333 0.054609634 -0.12899375 0.037487462 0.11523556
-0.1010732 0.021344066 0.07220614 0.22216232 -0.08963861 -0.057474058 0.008698275 -0.20603228
0.08695445 -0.0006031891 -0.1096725 0.08535436 0.075544655 -0.054038335 -0.20327543 -0.22582181
-0.12817107 -0.11768525 -0.001102978 -0.10862362 -0.028498203 0.05007197 -0.09653571 0.011702327
0.06999271 -0.0360854 0.12787007 0.09237999 -0.10889238 0.19723251 -0.062078796 -0.15691458
-0.21925509 -0.15462749 0.12568116 0.10666128 0.18148823 -0.036439754 -0.07184442 -0.057948943
-0.04565378 0.073607765 0.11270528 0.114086516 -0.1587185 0.18264912 -0.21658203 0.02379624
0.1541794 -0.05081884 -0.0516186 -0.09128783 0.0627371 -0.15677992 0.01048306 0.08187072
-0.19130248 -0.018650334 -0.0015434906 0.08663487 -0.06755645 0.08323972 0.10366547 0.11229298
0.058942936 -0.047259033 0.0704452 0.22384691 -0.23107249 0.013507627 -0.096139744 0.0044468837
-0.12552264 0.12824929 0.040947825 -0.0012859062 0.0008233255 0.24215168 0.02843275 -0.13589734
0.09866052 0.25326684 0.21912208 0.15785113 -0.17372932 -0.10843203 -0.14052424 -0.13822548
-0.22175422 0.16798215 0.032165114 0.2656038 0.16610684 0.17131329 0.0007981505 -0.1372814
0.08367112 0.1008883 0.10563688 -0.08150082 0.019822175 0.071594164 -0.042052917 0.111657046
0.0674485 0.12106423 0.0028672626 -0.009463211 0.018357972 0.23074657 0.14539734 0.08960301
0.051355686 -0.06906872 -0.01102152 0.07868794 0.1612875 -0.10681057 -0.024536736 -0.102199085
0.1292176 0.11115017 -0.12484271 -0.14610378 0.1519019 -0.18031853 -0.06534094 0.065564506
0.19684577 -0.10195899 0.13520172 0.015220646 -0.039801802 -0.16356385 -0.00074335973 -0.087448165
0.010428233 -0.1257225 -0.11612956 0.17126794 -0.081499584 0.0736549 0.040449277 0.14899056
0.13956235 -0.08219085 -0.06538089 0.108746216 -0.039894607 -0.042067133 0.022267526 0.18284005
0.071663 -0.11604761 -0.13031925 -0.10175175 0.08605997 -0.09985746 -0.16262701 0.107780404

network.0.bias f4 [64]
00000000: 1da0 223d 6dcb 873c 70ea c4bb f3b8 413d
00000010: a142 183c 4e26 3abc 59ed 283d e796 cc3c
00000020: f077 093c 1c5e 373d 58bd 6b3c 404f b03d
00000030: 2ef5 e53c 0724 213c 6e92 a63c 5549 8b3c
00000040: 2b41 123c 9786 243c 1826 9b3c d95d 5cbc
00000050: 5ab0 98bc 6b91 963d 0e51 253d 6809 45bc
00000060: e20c 29bc 2674 1bbc 4b86 fd3b 384a 38bb
00000070: f08b a33c 071e 443d 2e31 d23c 5618 9a3d
00000080: 4be1 813c 4409 363d c47b a53c 7876 53bb
00000090: e4f8 543d f4fe c63a 2cbc 043d 4030 4e3d
000000a0: 66ee a73d db4f 243d 8d00 493d 0388 283d
000000b0: 02ef 15bc d543 273d b062 91bc d3a3 643d
000000c0: 4ce2 323d 17e0 b9bb 261e 733d 547d 6a3c
000000d0: e520 593c 1fed 663d e290 413d b0bb 85bc
000000e0: 224c 1a3d 5918 063d bfd8 333d 12bd 8c3a
000000f0: f6b6 24bb 173d 9ebb 8a59 ebbb 53da 4a3d
0.039703477 0.016576493 -0.0060093924 0.047295522 0.009293229 -0.011361672 0.041241977 0.0249743
0.008390412 0.044767484 0.014388405 0.08608866 0.028071012 0.00983525 0.020333495 0.01700274
0.00892667 0.010041854 0.018939063 -0.013450109 -0.018638778 0.07351955 0.040360503 -0.012026168
-0.010318013 -0.009488141 0.0077369562 -0.002812041 0.019964188 0.0478802 0.025658216 0.07524173
0.015854498 0.04444243 0.020200618 -0.0032266658 0.051995173 0.0015182183 0.032406017 0.050338984
0.08199768 0.04011522 0.04907279 0.041145336 -0.009151222 0.040836174 -0.017747253 0.055820297
0.043672845 -0.0056724655 0.059354924 0.014312107 0.013252472 0.05637848 0.04725731 -0.016324848
0.037670262 0.032738063 0.043907877 0.00107375 -0.0025133467 -0.00482906 -0.0071823047 0.049524616

network.2.weight f4 [64, 64]
00000000: ed30 4ebd f6a3 79bd 0b88 843d d8f6 acbd
00000010: 4090 663d 916c 923d 3012 0a3d b546 d3bd
00000020: bb65 8d3d 0f32 94bc 5626 143e fc66 3f3d
00000030: 0fb4 26be 45a3 5dbe b002 bfbd ec38 ef3c
00000040: 324b 3c3e 28a6 8bbd 4ccb 943a 4099 a0bd
00000050: b61b 36be 1a53 fabd 208d 093e 5378 133d
00000060: d996 1f3e cd23 29be de46 4b3e 2a96 183e
00000070: e73d 143e 4fb2 2cbe aa32 60be c29c ce3d
00000080: 8cbd 07be 28f8 813d 8bf0 cf3d 70ee 963d
00000090: 8994 373d 3b86 ab3d dccc c9bd 548c 273e
000000a0: 801e febd 1eaa 12be 587d 5f3c 65bf 8d3c
000000b0: 16ca 81bd cb38 ac3d 374a 123e 7497 41be
000000c0: 1592 63be 8b5c 53bd 9677 dabd 9ea2 6dbc
000000d0: e3cc e0bc 5247 7abd 41aa aabc 118c 003d
000000e0: f33d 29be f827 b83d f020 30be fe93 6dbd
000000f0: 077b c7bd 8c3e 38be 0fe6 2ebe f695 4d3d
00000100: cfc6 633d 1e4c 68bc 3a29 5b3d 72d8 42bd
00000110: 14a0 0d3d 3b88 9c3d 41c5 aabd 9761 8d3d
00000120: fc3b 17be 1544 40be 8d40 413e 3f3a c63b
00000130: 9678 c3bd 3bde 3c3d b043 c5bd fc48 133d
00000140: f904 2a3e 90ef 3d3e 5e32 c23c 0fb0 e9bd
00000150: e3a8 6c3d 0d38 453e bcf4 43bd 90a0 323e
00000160: df4a 503d 4547 ef3d ff02 663d 02ca 443c
00000170: a4f4 33bd 075c 663d f6d8 533e 1584 15be
00000180: 3969 0ebd 13ba 403d 6556 56be cb1a f03d
00000190: 0bc2 94bc e584 4e3e 40fb 8f3d 2b94 393e
000001a0: cea5 613d 0ff7 0cbe c5a4 c0bd 4ae1 aa3d
000001b0: 32e6 36be ac0c 653c 83bc aebb e8c0 833c
000001c0: 6446 533e 9621 3a3b 218d ee3d 41ec 8ebd
000001d0: 55dd 8c3d a5a4 bd3d ea80 e03d 02c2 3fbe
000001e0: 45b3 ddbc 7129 04be f910 33be 1fc0 413e
000001f0: db14 74bd 5769 103e 6e98 933d bf0a eb3d
00000200: 86ae 453e 8296 c73d 0b4f 4fbe c4ff d63d
00000210: 6d16 1bbd 46ac 02bd 98c3 1d3c 84cf 4c3e
00000220: d264 d23d b1ab ecbd c5a6 2dbe 261e 01be
00000230: bb69 1dbe 3bf3 553e 6a35 9e3d 018e e1bd
00000240: e779 113e 1ecc 43be 0c16 57be 1e59 da3d
00000250: c7cb f9bd f0b2 323d 440c 98bb c4ec c43c
00000260: 71dc 09be 3b4e cc3d 7edc 013e 036b cf3d
00000270: 0cdb 033e 664e 6c3c 2f1b 053e db03 d63d
00000280: 8c7f bc3d 1e0d 893d d5ba c7bd b8d7 483c
00000290: 931c b6bd a48d 0fbe adae e4bd f26c ca3c
000002a0: e665 02be 0c91 fc3c a3a8 993d c5b1 203e
000002b0: fd5f e03d de1e 00be 94a3 01bd 400e 8f3d
000002c0: d84e eabd d5f0 36bd 193e 2e3e 0344 1f3d
000002d0: 1155 d3bc 7260 193e 5a94 143e e9c8 943b
000002e0: c3cb e2bd 3fde d7bd 884e acbd 93be ff3d
000002f0: b9e9 d83c 87bb b6bd 2877 78bd 8c87 4fbd
00000300: c63d b03c 54a2 3b3e e19b ba3d 49c0 443e
00000310: b271 c13d bbb3 c53d 3002 f43c ecb6 cdbd
00000320: 7032 4d3e a54f e6bd 050f 1cbe d305 82bd
00000330: ea4b 303e 2269 44bd afc2 ffbd 543b 333e
00000340: 4d4b 71bb a840 2e3d 55d7 3abe 27c6 94bd
00000350: 221a bd3d 9c5f 263e 49df 15bd 4fce 43be
00000360: 6862 623e 78e3 1a3e d653 363e 2c91 5e3e
00000370: 1cf6 d33d bc44 003e 228c a13d e994 61be
00000380: e84f 1cbe 1520 31be 418a cb3b a0b2 333e
00000390: 9a38 6e3d 08c8 20bd d9ff 2a3e 20fc 4e3e
000003a0: 60f6 e23c 5c63 da3d ef7e f8bd 5ac1 edbd
000003b0: 3e71 1ebe 5985 3fbe d6e8 66be 42f9 a23d
000003c0: feb7 ef3d 440b c2bd 7e7e 5cbe 4ad5 443e
000003d0: 6704 1bbe 5cb8 a83d e552 2fbe 9d42 b13d
000003e0: 388a d23d 8ca8 943d c545 ba3d f958 993d
000003f0: 5ac4 d73d 1440 9bbd 76d9 323d 1939 5bbd
-0.050339628 -0.06094738 0.06471261 -0.08445519 0.05628991 0.07149614 0.03370875 -0.10316221
0.06904169 -0.018090276 0.14467749 0.046729073 -0.16279624 -0.21644314 -0.093266845 0.029201947
0.1838806 -0.06818801 0.0011352091 -0.0784173 -0.17784008 -0.122228816 0.13432741 0.036003422
0.15584888 -0.16517563 0.19851252 0.14901033 0.14476739 -0.16864894 -0.21894327 0.10088493
-0.132559 0.0634616 0.10153302 0.07369697 0.04481939 0.08375212 -0.09853527 0.16362125
-0.12408161 -0.14322707 0.013640724 0.017303178 -0.06337373 0.0840927 0.14286123 -0.18905431
-0.22223695 -0.051601928 -0.106673405 -0.014504103 -0.027441448 -0.061103173 -0.020833137 0.031383578
-0.16527538 0.089919984 -0.17200065 -0.058002464 -0.097402625 -0.1799261 -0.17079948 0.050191842
0.05560952 -0.014178304 0.053506114 -0.0475697 0.03457649 0.076431714 -0.083384044 0.069033794
-0.14768976 -0.18775971 0.1887228 0.006049424 -0.09544484 0.046110373 -0.09632051 0.035958275
0.1660346 0.18548417 0.023705658 -0.11410534 0.05777825 0.19259663 -0.04784082 0.17444062
0.050852653 0.116835155 0.0561552 0.012011053 -0.04393448 0.056240108 0.20688233 -0.14601167
-0.034768317 0.047052454 -0.20931394 0.1172386 -0.018158933 0.20167883 0.07030344 0.18122928
0.055089764 -0.1376612 -0.09406427 0.08343752 -0.1786125 0.013980072 -0.005332531 0.016083196
0.2063232 0.0028401366 0.11648012 -0.069786556 0.06878153 0.09259919 0.109620884 -0.18726352
-0.027063021 -0.12906434 -0.17486943 0.18920945 -0.0595902 0.14102684 0.07206808 0.11476659
0.19304857 0.09745504 -0.20244996 0.10498002 -0.037863184 -0.031902574 0.009629153 0.20001036
0.10273136 -0.11556185 -0.16958149 -0.12609157 -0.15372364 0.20893566 0.07725032 -0.11013413
0.14206658 -0.19120833 -0.21004504 0.10661529 -0.121970706 0.04362768 -0.004640134 0.02403868
-0.13462998 0.09975859 0.12681767 0.10127833 0.12876529 0.0144229885 0.12998651 0.10449954
0.09204015 0.06691955 -0.09752432 0.012258463 -0.08892169 -0.14018875 -0.11166129 0.024710152
-0.12734184 0.030830882 0.07502868 0.15692814 0.10955808 -0.12511775 -0.03165014 0.0698514
-0.114408195 -0.04466327 0.17015876 0.03888322 -0.025797399 0.14978197 0.14509717 0.004540552
-0.11074021 -0.10540437 -0.08413416 0.12487521 0.026478635 -0.08922487 -0.06066051 -0.050666377
0.02151383 0.18323642 0.09111763 0.19213976 0.09445514 0.096534215 0.0297862 -0.10044655
0.20038772 -0.1124566 -0.15240104 -0.06348767 0.17216459 -0.047951825 -0.12488305 0.175031
-0.0036818564 0.04254213 -0.18246205 -0.07264357 0.092335 0.1624741 -0.036589894 -0.19121669
0.22107852 0.15125835 0.17805418 0.21735066 0.10349676 0.1252622 0.07888056 -0.22029461
-0.15264857 -0.17297395 0.0062115495 0.17548609 0.05815945 -0.039253265 0.1669916 0.20213366
0.027705371 0.106634825 -0.12133586 -0.116091445 -0.15472886 -0.18703212 -0.22549757 0.079576984
0.117050156 -0.09474805 -0.21532628 0.19221988 -0.15138398 0.08238289 -0.17121466 0.086552836
0.102802694 0.0725871 0.09095339 0.07487673 0.10535498 -0.07580581 0.04366442 -0.05352125

network.2.bias f4 [64]
00000000: 6db0 45bc eeff 313c e94f d3bb c753 6bbb
00000010: 0c23 58bc 8948 03bc ba8b 963c 0d0e 713b
00000020: 5e70 b33c 9533 ddbb 2f76 a93b d034 fbbb
00000030: af54 7abc 9316 88bc f49e ceba 3a40 94bb
00000040: 54fd 833c ee7f 2c3d 837c 143d 31d3 4bbc
00000050: d050 d63c 73fe f9bb 5ee3 153d 1632 153b
00000060: a325 d3bb 7e11 a33c 2b60 bbbb ecfd f83b
00000070: cfdc 7a3c a49f ed3b f34f 71bc 092c 5d3c
00000080: 0132 91bc 00b9 c53c 431d 1e3d 4d7a 7e3c
00000090: 4494 4c3c 0567 853b 0f31 f43b c6c3 db3c
000000a0: 804a 07bc 4a0a c93b 8d1e 803c 49f5 6c3d
000000b0: bf19 ea3c b380 183d 96aa 153c 66d4 ddbb
000000c0: 116d a73b bf84 1c3d ecd4 4c3d d9a3 4fbc
000000d0: 3efc 1dbc 171a 37bc 4613 03bc 3e10 7abb
000000e0: 30ca d13b 0346 ff3c cfcb 133d 41f9 05bc
000000f0: 66e4 9ebc c9c1 b4bc 26f3 c23c 5791 6fbc
-0.012065989 0.010864241 -0.006448735 -0.003590809 -0.01319195 -0.008012899 0.018377174 0.0036782057
0.021904167 -0.006750534 0.0051715593 -0.007666208 -0.015278979 -0.016612327 -0.0015763924 -0.004524258
0.016112007 0.04211419 0.036251556 -0.012440489 0.026161581 -0.0076292097 0.036593787 0.002276545
-0.0064436956 0.019905802 -0.005718251 0.007598629 0.015311434 0.0072516967 -0.014728534 0.013499268
-0.017724039 0.024136066 0.038602125 0.0155320885 0.012486521 0.004071119 0.0074521373 0.02682675
-0.008257508 0.0061352598 0.015639568 0.05785111 0.02857673 0.037232112 0.009134909 -0.0067697046
0.0051094373 0.038212534 0.050007746 -0.012673342 -0.009642659 -0.011175654 -0.008000201 -0.0038156654
0.0064022765 0.031161314 0.03608304 -0.008177103 -0.019396018 -0.02206506 0.023797583 -0.014622054

network.4.weight f4 [1, 64]
00000000: ed9d 47be 4399 383e 90ca 523d f3bf b53d
00000010: 56f0 043e 2379 1fbc 484b 49bd 6312 423e
00000020: f29b 443e 56ab 1a3c 6ac6 b9bd fcff 973c
00000030: 1d7c bebd 08f0 7c3e 192b c2bd cfab a93d
00000040: b73b 173e f48d fabc acd2 57be 7a2f 8a3d
00000050: 0abf 1ebe 8838 5d3e c0b8 6ebe 317f eb3d
00000060: 1544 39be 5ff6 11be 674b 263e b376 633e
00000070: 0728 43bd c804 cb3d e942 683d 50fb aabd
00000080: 3587 4a3e cd77 1e3e 3b06 8fbe 381e 143e
00000090: 65ba 2dbe 6b79 963d 7cf5 a03d e1d0 05be
000000a0: 9a14 8f3c 0797 143d efe8 7e3e a691 0dbd
000000b0: 1351 97bd c7f1 74be b939 3fbe f431 d53c
000000c0: a32b 9d3d da02 74be c119 9cbd f02c 853e
000000d0: 7c7d 193e 0808 f93c b9e9 503e 235c 853e
000000e0: b5b4 1dbd acb2 72be 3e4f 22be 81c5 363e
000000f0: af8f bc3c 446a 153e 50f6 54be 03f6 733e
-0.19493838 0.18027215 0.05146271 0.08874502 0.12982306 -0.009733471 -0.04914406 0.18952326
0.19200113 0.009440264 -0.090710476 0.01855468 -0.093010165 0.2470094 -0.094808765 0.08284723
0.14768873 -0.030585267 -0.21076459 0.06747337 -0.15502563 0.21603596 -0.23312664 0.11498869
-0.18092377 -0.1425414 0.16239701 0.22213249 -0.047645595 0.09913021 0.056704435 -0.08348715
0.1977814 0.15475388 -0.2793444 0.14464653 -0.16965635 0.073473774 0.078593224 -0.13067962
0.017465878 0.036276843 0.24893545 -0.03456273 -0.073885106 -0.23920356 -0.18674363 0.026024796
0.07674339 -0.23829213 -0.076221 0.26010847 0.14989275 0.030399337 0.20401658 0.26046857
-0.038502414 -0.2370097 -0.15850541 0.1784878 0.023017732 0.14591318 -0.20797086 0.23824315
