saved_models/feedforward_nn_hd_64_nl_2_lr_0.001.pth (torch, 32598 bytes, 5 tensors)

network.0.weight f4 [64, 48]
000000 28 1c f4 3d ab 3e 90 bc 98 7c d8 bb 2f 52 74 3d
       0.11919433 -0.017608007 -0.0066066496 0.05964869
000010 f6 f6 2a bd 81 97 10 3e b1 17 aa bc ff e9 35 bd
       -0.041739427 0.14120294 -0.02076325 -0.04441261
000020 c2 88 cb bd a2 9a 51 bd 23 5c a6 bd 5d 00 b1 3c
       -0.09938194 -0.05117286 -0.081230424 0.021606619
000030 f1 1f 70 bd 76 c3 68 3e fa 38 9b 3d 9e cc 75 bd
       -0.05862421 0.22730812 0.07579227 -0.06000959
000040 59 90 14 be ff d3 3c bd c7 39 da bd eb 24 fd 3d
       -0.1450819 -0.046100613 -0.106555514 0.12360557
000050 a1 3b 03 3e be 53 97 bd 8b 3e 7c 3e 11 97 39 3c
       0.12815715 -0.073890194 0.24633233 0.011327521
000060 1a ee f3 3d 8a 80 41 3e f7 7c 7b bb df 34 15 3e
       0.11910649 0.1889669 -0.0038374045 0.1457095
000070 eb 3b b6 bd 13 88 aa bd 5e 82 ad 3d eb 2c 8d 3d
       -0.08898147 -0.08326735 0.08472131 0.06893333
000080 60 f5 3d bd 31 d9 18 3e 85 42 65 3e ba 62 8f bd
       -0.046376586 0.14926602 0.22388656 -0.070012525
000090 3e 46 5a 3e bf 8b d5 bd 0b f7 7d bd 9a 02 1d bd
       0.21315858 -0.10427045 -0.062003177 -0.03833256
0000a0 f1 c1 15 be 14 18 83 3d 3e 5c 6a 3e 1a 5b 20 3e
       -0.14624764 0.06401077 0.2288675 0.15659752
0000b0 30 87 c2 bc 44 e9 50 be 3d 76 ee 3d 1c 35 14 be
       -0.023746103 -0.20401484 0.11643646 -0.14473385
0000c0 53 14 f9 3d 00 94 8b 3d f6 65 e4 bd e9 a0 f4 bd
       0.1216208 0.06815338 -0.1115226 -0.11944754
0000d0 d5 ab 0f 3e f2 5c a4 3b 18 d1 3c bc 27 fb 0a be
       0.14030392 0.0050159628 -0.011524461 -0.1357237
0000e0 00 4d d1 bc f9 46 11 be f3 5d 77 3d 8f 31 3b 3c
       -0.025549412 -0.1418723 0.06039233 0.01142539
0000f0 11 ad fc 3d 2b 1e 2b bd 1c c1 0d 3e 96 30 9f bc
       0.12337697 -0.041776817 0.13843197 -0.019432347
000100 a9 c7 1f bc 27 21 2d 3c a3 eb 7d 3c 19 17 ee 3d
       -0.009752193 0.010566986 0.015498075 0.11625499
000110 dc d7 03 3e 16 40 6c bc 95 7d 4d 3e 0b ad e9 bd
       0.12875313 -0.014419576 0.20067437 -0.114099585
000120 d8 ae a7 bd 98 45 4d 3e b3 57 1f be 93 2a 3b bd
       -0.08187646 0.20046079 -0.15560798 -0.0456949
000130 7f d7 3c be 26 90 88 bc ae d1 b9 bd 02 3c 94 3c
       -0.1844158 -0.016670298 -0.09073196 0.01809502
000140 8c e5 94 3d 61 68 48 be 3c d8 2a bc 20 cc b9 bc
       0.07270345 -0.19571067 -0.010427531 -0.022680342
000150 90 fc 4f be 76 dc 30 be d5 b1 81 3c 45 e3 1f 3e
       -0.20311189 -0.17271599 0.015831867 0.1561404
000160 2a 61 43 3e 0c 3f dc 3d 8b ed ec bd d3 8f 76 3d
       0.19080034 0.10754213 -0.11568745 0.060195755
000170 98 49 e4 bd b5 d1 2d be d5 79 c7 bd 7a f1 15 be
       -0.111468494 -0.16974528 -0.097400345 -0.14642897
000180 eb e5 18 3c f7 c3 86 3d e3 81 1f 3e 2c 15 e5 bd
       0.00933216 0.06580346 0.15576892 -0.11185679
000190 be 56 5b 3d f5 97 38 be 91 89 d4 3c 31 96 01 3e
       0.05354952 -0.18026717 0.025944503 0.1265495
0001a0 48 53 d2 3d 23 58 ff 3d fc d5 95 bd 15 85 c7 b9
       0.10269791 0.124679826 -0.07316205 -0.00038055392
0001b0 0b 9f 2e 3d 99 01 21 be 3b 55 02 3e 60 6b d9 3d
       0.042632144 -0.15723266 0.12727825 0.10616183
0001c0 1e 1a 0c 3d 74 ce e7 3d e5 13 46 3e a1 eb 30 be
       0.034204595 0.11318675 0.19343527 -0.17277385
0001d0 df 37 90 bd ee d2 ba 3d 4d c6 47 be 20 65 f2 bd
       -0.070419066 0.09122263 -0.1950924 -0.11835694
0001e0 bc c3 88 39 09 57 97 bd 15 27 0c 3e 2a e1 df 3a
       0.00026085775 -0.073896475 0.13686784 0.0017080654
0001f0 1f f2 3d bd b4 1a 87 3c 14 22 fa 3c 53 ac a9 3d
       -0.046373483 0.016492225 0.030533828 0.08284821
000200 13 f2 51 bd 05 90 5c 3e e3 06 20 3d ba 01 10 3e
       -0.05125625 0.21539314 0.039069068 0.14063159
000210 6c 31 d2 bc e8 cf ec 3d 30 5f 39 3e a0 68 e7 bd
       -0.025658332 0.115630925 0.18102717 -0.112992525
000220 a7 5a 97 3d 7b 61 7a bd fa 0c 1c be fc eb 30 bd
       0.073903374 -0.06112812 -0.15239325 -0.043193802
000230 c5 e6 81 3d 7f 21 a7 3e 16 73 e7 3d 75 1b 5e 3e
       0.06342844 0.32642743 0.11301248 0.21690162
000240 36 3f 7b bd db 2a c9 bd 7c 94 b7 3d 62 eb 33 bc
       -0.06133958 -0.09822627 0.08963868 -0.010981413
000250 4a 36 ce bd 5f cd e0 3d cb 7a 72 bb b7 48 fa bc
       -0.100689486 0.109766714 -0.003699946 -0.030552251
000260 9f 72 1d 3e 99 75 fa 3d 3c 84 d1 bd e4 1e 2d be
       0.15375756 0.12229461 -0.102303 -0.16906315
000270 f0 70 31 3e 29 6b 91 bd cc 79 44 be 9d ec 82 3d
       0.17328238 -0.07100517 -0.19187087 0.06392787
000280 0b a6 2a 3e ff e1 0b be 62 26 d2 3d 46 ad fb bd
       0.16664903 -0.1366043 0.10261227 -0.12288909
000290 95 dd 16 be 92 17 10 3e b0 75 37 3e 25 22 46 be
       -0.14732964 0.14071491 0.17915988 -0.19348963
0002a0 f1 1c 9f bd 5b 22 50 bd bb 00 37 bd f1 f9 94 3c
       -0.07769192 -0.050814014 -0.04467843 0.018185588
0002b0 21 bc 77 bd 67 2f 69 3c b2 05 9f bd 01 11 44 be
       -0.060482148 0.014232493 -0.07764758 -0.19147111
0002c0 99 c4 28 be 78 b6 79 be 0f 96 fd 3d 7c 4f ec 3d
       -0.16481246 -0.24386013 0.12382137 0.11538598
0002d0 9f dd ab 3d ec 71 fc bd 39 e4 42 3d ea bf c6 bd
       0.0839188 -0.123264164 0.04758093 -0.097045735
0002e0 74 60 86 bd 97 c2 8f 3c 9a 12 5b bc b7 86 13 3e
       -0.06561366 0.017548842 -0.013371134 0.14406858
0002f0 ae 86 fb bc 1e 99 fc 3b 3a a0 1d bd 47 cc 35 be
       -0.030703869 0.0077086827 -0.038482882 -0.17753707
000300 d0 42 02 bd 42 5d f3 3d 0f 21 99 3d f1 5d 78 bd
       -0.031802 0.11883022 0.074770086 -0.060636465
000310 82 f0 1d 3e 1d 78 1a 3e ad 20 da bd e5 9f 4e bd
       0.15423778 0.15084882 -0.10650764 -0.050445456
000320 93 fc 06 3e 9e b5 15 bd 88 7c 89 bc a6 46 4b 3d
       0.13182287 -0.036550157 -0.016783014 0.049627922
000330 f7 8b 24 3e a9 b7 69 3e 5d 7d 41 bd d3 6d 81 3d
       0.16069017 0.22823967 -0.047238696 0.063197754
000340 c0 84 db bd 6e 85 97 bd 23 c6 03 bb 31 90 a9 bd
       -0.107186794 -0.073984966 -0.0020107112 -0.082794555
000350 08 1d b1 bd 3c 50 01 3d dc b4 01 3e 3c b5 0c 3e
       -0.086481154 0.031570658 0.12666649 0.1374101
000360 46 43 de 3d d7 2d 85 3e 7f 30 73 3e d4 37 b6 3d
       0.10852675 0.26011536 0.23748969 0.08897367
000370 6f 2b 64 bd 02 a5 b2 bc 75 64 50 3e d8 b9 c1 bb
       -0.055705484 -0.021807197 0.20350821 -0.005912047
000380 f8 cf 16 3d ab df 1a 3e 52 45 ba bd 18 59 b1 bd
       0.03681943 0.15124385 -0.09095253 -0.086595714
000390 58 9b ae bd 3b 4b cf 3d 3a 00 6d bd a7 3b 18 be
       -0.08525723 0.10121771 -0.057861544 -0.14866506
0003a0 54 9f 58 bd 57 68 a9 bc 3d 6d 65 3e 01 83 02 be
       -0.052886322 -0.020679636 0.22404952 -0.12745287
0003b0 01 a2 6d 3e 08 4c 9d 3d 47 2b 17 3e ac 8d 2a 3c
       0.23206331 0.076805174 0.14762603 0.010409754
0003c0 b3 f7 41 3e 42 1d 0e be 25 d1 d6 3d d2 c8 3a 3e
       0.18942146 -0.13878348 0.1048911 0.1824067
0003d0 b2 46 15 be b2 99 d3 3d 9e e9 a7 bd 7f d3 7b bc
       -0.1457775 0.103320494 -0.08198856 -0.015370249
0003e0 1c 45 6c 3d d3 c0 f2 bd 23 b6 77 be 95 f7 b8 bd
       0.057683095 -0.118531846 -0.24190573 -0.090315975
0003f0 f9 31 97 bc 7a 7d af 3d 74 30 77 bd 0a 17 56 3d
       -0.018456446 0.08568855 -0.060348943 0.052268066

network.0.bias f4 [64]
000000 f4 bf 21 3c f4 d7 62 bb 69 76 05 3d 29 61 03 bb
       0.009872425 -0.0034613581 0.032583628 -0.0020046926
000010 34 93 77 3d 09 c1 12 3d 6e c7 05 3d 01 8d 80 3d
       0.06044312 0.035828624 0.032660894 0.06276894
000020 4e 9b 76 bc 8b 44 b5 bc 73 03 b0 3c 54 1e c2 3d
       -0.015051676 -0.02212741 0.02148602 0.09478441
000030 b9 d6 8a 3d 0b ba ef 3c dc 6b 3b 3d 71 65 b6 3b
       0.06779236 0.029263517 0.04575716 0.005566292
000040 ff b6 18 3d 62 b9 a7 bc 86 7c a7 3d 8e 02 9c 3b
       0.037283894 -0.02047414 0.08178048 0.0047610467
000050 78 eb 59 3c 6d 16 86 3d 6b af 18 3d 9e bf db 3c
       0.013300769 0.06547246 0.037276667 0.026824769
000060 ca f3 0a 3d 34 95 2f 3d 3b b6 9a 3d 37 33 47 3d
       0.0339239 0.0428669 0.07554289 0.048632827
000070 aa 1e 53 3d 6d 7b ac 3d b5 70 79 3d 55 7b 94 3d
       0.051542915 0.08421979 0.0608985 0.07250086
000080 48 87 c0 bc 90 96 a6 bc 8f af 90 bc 91 dc 16 3d
       -0.023502007 -0.020335466 -0.017661838 0.036831442
000090 d2 c0 a0 bc 9c f2 f0 bc 80 17 8a 3d 59 ae a9 3d
       -0.019623194 -0.02941256 0.067427635 0.08285207
0000a0 fc d0 e6 bc 43 5b 1c 3d e1 00 80 3b 3d 7f 5e 3d
       -0.028175823 0.03817297 0.003906355 0.054320563
0000b0 f0 a1 6e bc 36 ce 44 3d 8c 9e 7a 3d 57 7d c0 3d
       -0.014564976 0.04804822 0.06118636 0.09398907
0000c0 d4 cc b1 bc e0 ab d0 3c 2c 01 36 bc f2 ee 40 bc
       -0.021704115 0.025472581 -0.011108678 -0.011775719
0000d0 8c 8f 38 ba 4e c7 83 3d 51 29 2a 3d 86 99 b9 3c
       -0.0007040433 0.06434499 0.04154331 0.022656213
0000e0 7c d1 35 bc 90 c9 25 3d 12 df fc 3c 2d 1f b4 3d
       -0.011097308 0.040475428 0.030868087 0.08795009
0000f0 ec 34 72 3d c5 16 66 bc 0a a8 77 3d fb 3d 41 3d
       0.0591325 -0.014043515 0.06046299 0.04717825

network.2.weight f4 [64, 64]
000000 0e 6c ab bd 18 a4 7b 3d 23 29 98 3d 21 21 fb 3d
       -0.08370219 0.06143579 0.07429721 0.12262178
000010 65 89 a0 bc a5 f5 36 be 5f 54 13 bd 31 ba 35 bd
       -0.019596765 -0.17867143 -0.035969134 -0.04436702
000020 9f bd 88 3d 73 fb 52 3e f0 e2 9a bc 01 37 a3 bd
       0.06676792 0.20603733 -0.01890704 -0.079694755
000030 d6 9c 8e bd 8d 4b 67 3e 9d 08 f8 bd 4e 24 ce 3d
       -0.06963508 0.22587414 -0.12111018 0.10065518
000040 f1 77 4a 3c 8d ce 07 be d7 e2 c6 3d a6 a3 1a 3e
       0.012357698 -0.13262387 0.09711235 0.1510149
000050 45 0b 40 3e 12 75 1f bd 4a 9b 52 be ad 8f 5e bd
       0.18754299 -0.038930006 -0.2056705 -0.05433624
000060 fc 49 18 be fa c9 27 be 9d 80 49 be 32 9d 21 3e
       -0.14871973 -0.16385642 -0.19677968 0.15782622
000070 c5 64 0e 3e fa 72 a5 bd 1a 64 8d ba 5c e4 51 3c
       0.13905628 -0.08078571 -0.0010787279 0.012810793
000080 cb 86 e9 bd 61 57 e9 3c e9 98 8f bd 0f de b1 3d
       -0.11402663 0.028484048 -0.07011587 0.086849324
000090 b9 6c 20 3e 77 39 02 3e 84 cf 77 3d c1 c3 5c 3c
       0.15666474 0.12717234 0.060500637 0.013474406
0000a0 0f 9b 03 3e 89 52 57 bd d2 eb d9 bd b9 d8 c0 bd
       0.12852119 -0.052568946 -0.10640682 -0.094163366
0000b0 27 f1 d9 3d 12 c9 1e 3c 19 67 0e be 69 bf df bc
       0.10641699 0.009691494 -0.13906516 -0.027312951
0000c0 b6 92 20 be 36 d1 ca 3b 5f f2 25 3e aa 5c a1 3d
       -0.15680966 0.0061894907 0.16205738 0.078790024
0000d0 0d e8 32 3d 51 0d 52 be f9 4f 95 3d 46 56 0b be
       0.043678332 -0.20512892 0.07290644 -0.1360713
0000e0 c0 cd 97 bd a5 1f 54 3e a8 31 89 3d b3 83 4a 3e
       -0.074122906 0.20715196 0.06698924 0.19776802
0000f0 25 3b 6d bc e2 50 2c 3e 55 51 90 3d 52 b5 02 be
       -0.014479433 0.1682773 0.07046763 -0.1276448
000100 89 24 39 3e 7a 4c 2e 3d 7c f2 35 be 9a c6 b6 bd
       0.18080343 0.042553402 -0.17768282 -0.08924599
000110 03 93 53 3e 22 81 8a 3d a4 34 af bd 6f f6 21 3d
       0.2066155 0.067629114 -0.08554962 0.039541658
000120 0c 7f 47 3e 47 fa 0a bd 44 fc 2f be cc 55 2a 3e
       0.19482058 -0.03393009 -0.17186075 0.16634291
000130 29 a7 03 3c 8f b5 a7 3d 4d 68 cf bd b4 b5 c3 3d
       0.00803546 0.081889264 -0.10127316 0.095561415
000140 1a 38 3f 3e e1 17 da bd a5 b3 15 be 0e fe 09 3e
       0.18673745 -0.10649086 -0.1461931 0.1347582
000150 d1 61 03 3e 41 b3 b8 3c a6 e2 0b 3e 2a 5b 0e 3e
       0.12830283 0.022546412 0.13660678 0.13901964
000160 3f 6e 24 be 12 cb f8 bd e4 a8 c1 bd 7f 5a 07 be
       -0.1605768 -0.121481076 -0.094560415 -0.13218115
000170 42 dc 51 be 7c da 7c be 95 5c 42 be b6 b2 3c 3e
       -0.20494178 -0.2469272 -0.1898063 0.18427548
000180 92 9d 93 bd be ba 23 3e cf b5 4b bb 05 18 fb 3d
       -0.072077885 0.15989205 -0.0031083708 0.12260441
000190 2e 22 10 3e 47 f3 b6 ba 33 40 77 3d c9 58 78 3e
       0.14075539 -0.0013958 0.06036396 0.24252619
0001a0 42 9b 90 3c 20 54 90 3d 00 2c 11 3e c4 75 3a bd
       0.017652158 0.070472956 0.14176941 -0.045522466
0001b0 94 93 c0 bd 4b 64 a9 3d fe 7d d1 3d 0c 83 10 3e
       -0.09403148 0.082710825 0.10229109 0.1411249
0001c0 07 98 9f bc 81 be 12 be c1 c4 bd 3d be d5 58 bc
       -0.019481672 -0.14330484 0.092660435 -0.013234554
0001d0 22 ba 1f 3d 7d 9e ed 3d b4 96 ac bc 18 38 88 3e
       0.03899587 0.11602495 -0.021067955 0.26605296
0001e0 8b a4 a6 bd e5 cd e6 3d 97 93 d6 bd 19 cf cb 3c
       -0.08136853 0.1126974 -0.10477369 0.024879025
0001f0 50 c2 75 3c 72 2f 5e bc d4 76 07 3e 6f 05 d2 bd
       0.014999941 -0.0135611165 0.13228923 -0.102549426
000200 3a 44 34 3e 3c a3 1e be 80 1c b2 bd 31 41 22 3b
       0.17604151 -0.15491956 -0.08696842 0.0024758095
000210 18 59 43 bd 69 f0 fd bd 50 a6 5e 3e a2 d4 3f 3d
       -0.04769239 -0.1239937 0.2174313 0.04683364
000220 73 df 30 3e 3d cf 60 be 36 00 03 bd cb 43 03 be
       0.17272739 -0.21954055 -0.031982623 -0.1281883
000230 6c c0 6c be 76 d0 a3 3d be 17 f8 bd 02 a9 89 bd
       -0.23120278 0.07998745 -0.121139035 -0.06721689
000240 90 9f 16 be 39 78 7c 3b c0 3a 7a bd f4 36 a6 bd
       -0.14709306 0.0038523807 -0.061091185 -0.0811595
000250 9b 9d 1d 3e 19 04 ef bc a8 17 67 be 76 ca 32 3e
       0.15392153 -0.029176759 -0.22567618 0.17460045
000260 db 0d 12 be f9 a1 41 3d 8b 55 68 be ab cd 17 3e
       -0.14263098 0.04727361 -0.22688882 0.1482455
000270 f3 a6 54 be 78 95 5e bd 26 8b 08 3d 6f 0f b8 bd
       -0.20766811 -0.054341763 0.033335827 -0.08987319
000280 a6 16 41 be 70 2a 21 be 31 6e 43 3d b0 7e 2d bd
       -0.18856296 -0.15738845 0.04771251 -0.042357147
000290 58 7a 36 3d 9d d3 3d be ae 36 1e be 53 72 54 be
       0.04455027 -0.18537755 -0.15450546 -0.20746736
0002a0 b6 72 34 3e 67 eb 20 be 4b d8 4d 3c 9f c3 bd bd
       0.17621884 -0.15714799 0.012563775 -0.092658274
0002b0 82 90 2e 3e 23 b9 4f be 49 ec e9 3d e2 ff 6c be
       0.17047313 -0.20285468 0.11422021 -0.23144487
0002c0 d4 8f 96 bc 91 f5 73 be ad 8c a5 3d a4 f3 84 bb
       -0.01837913 -0.23824145 0.080834724 -0.0040573645
0002d0 a1 bd e5 3a e1 16 c0 3d 71 77 9f 3d ef d4 3e 3e
       0.0017527827 0.09379364 0.077864535 0.18635915
0002e0 20 22 0f 3e 87 e1 9c bd a0 20 8e bd 1a d8 fa bd
       0.13977861 -0.076602034 -0.069398165 -0.12248249
0002f0 00 ff 99 bd ed 7f 5e 3d f4 3a a2 3d 40 2b 4a 3d
       -0.075193405 0.05432122 0.07921401 0.049357653
000300 6d 23 c6 bd b9 a6 0e 3e 4b fe 20 be 1b 27 03 be
       -0.09674726 0.13930787 -0.15722005 -0.12807886
000310 44 09 20 3d 44 c0 7b 3d 5a 98 d7 3d 9b bd 24 3e
       0.039071336 0.061462656 0.10527106 0.16087954
000320 4a 20 87 3d 28 09 08 be 35 ca 10 be 4c 16 a8 3d
       0.065979555 -0.13284743 -0.14139636 0.08207378
000330 6f 65 3a 3e 14 59 c4 bd 4f 72 34 3e d7 3e 35 3e
       0.18202756 -0.09587303 0.1762173 0.17699753
000340 bf 0b 9b bc 31 c2 bb bc c4 7f 45 3d 15 45 44 bd
       -0.0189265 -0.022919746 0.04821755 -0.047917444
000350 1f 70 2f bc be 57 4c 3e de 25 68 3e af 96 e9 bb
       -0.010707884 0.19955346 0.22670695 -0.0071285586
000360 0f fc 1a bc 15 86 3c 3e 4e 17 60 3e 9a 6d 0f 3d
       -0.0094595095 0.18410523 0.2188389 0.035016634
000370 29 e8 69 3e b9 01 19 3e aa c7 53 3e ef 69 96 3d
       0.22842468 0.14942063 0.20681635 0.07344424
000380 ad 09 24 be 20 99 5d bd 5e 05 46 be 5f b2 59 3e
       -0.16019316 -0.05410111 -0.19337985 0.2125945
000390 a0 1c 45 3e f6 5b 84 3d 7d 7a bb 3c b3 0e 49 be
       0.19249201 0.06462853 0.022885555 -0.19634514
0003a0 ce 9e 16 be 5c 21 0d be 0a ba 1a 3c 54 1b 8a 3d
       -0.14709017 -0.13782257 0.009443769 0.06743494
0003b0 5e 87 f8 bd e2 f7 4f ba 59 5a bf bb fd c0 62 bd
       -0.12135194 -0.0007933361 -0.0058396277 -0.05535983
0003c0 fe 4f ff bc 02 10 21 3e 54 a8 b4 3d 3d 7c 86 bd
       -0.031166073 0.15728763 0.088211685 -0.06566665
0003d0 fb 99 71 bb b7 ee 95 3d b7 fc 1e 3e 7d 03 cb bc
       -0.003686546 0.07320922 0.1552609 -0.024781937
0003e0 48 e5 ec 3b 2c c2 e4 bd e0 c5 ca 3d 06 34 52 be
       0.007229481 -0.11169848 0.09901023 -0.20527658
0003f0 65 77 02 3e 0d 4e d3 bc 26 9c 19 3e 89 42 f2 3d
       0.12740858 -0.025794053 0.15000972 0.11829097

network.2.bias f4 [64]
000000 00 38 ae bc a7 8d 0f 3c 67 04 5a bc 21 e2 3a 3d
       -0.021266937 0.0087618 -0.013306714 0.04562581
000010 44 3b e7 3c ea 4d 2a 3d d3 76 e3 3c 2e fc 80 bc
       0.028226502 0.04157821 0.02776662 -0.015745249
000020 c9 15 7f bb 8b fb 35 3d 95 9a be bb 4d be 16 3c
       -0.0038922897 0.044429343 -0.0058167675 0.009200645
000030 ea 75 12 3d 8d 27 61 3c a6 40 bd 3c 70 be b0 bc
       0.035756983 0.01374234 0.023102116 -0.021575183
000040 a1 8b 2c 3d f5 d1 f3 3c 90 29 67 3c ec c3 35 3d
       0.042125348 0.029763201 0.01410903 0.0443763
000050 9d bf df bc 63 c3 06 3d 7f 4a 14 3d e2 47 bf bc
       -0.027313048 0.03290118 0.036203858 -0.023349706
000060 6b d0 54 bc a7 5d 02 3e ce ca 12 3d 29 bf 83 3c
       -0.012989144 0.12731038 0.03583794 0.016082363
000070 df ea 3c 3d 22 22 9c bb 80 04 84 bb 07 c1 91 3c
       0.046122428 -0.004764811 -0.0040288568 0.017792238
000080 38 9f 1f 3d f3 db cc bc 54 a2 d0 bb ea c6 be 3c
       0.038970202 -0.025007224 -0.0063670073 0.023288209
000090 06 34 cb 3c dd fa ad bb 0a c8 74 bc 59 48 95 3c
       0.02480508 -0.0053094462 -0.014940271 0.018222975
0000a0 8c b9 1d bc be c6 3c 3d 8c 1f ae bc 54 a9 9d bc
       -0.009626757 0.046087973 -0.021255277 -0.019245781
0000b0 90 99 8e 3d 22 e3 d6 3c d7 d4 24 3d 8f fe 4f 3c
       0.069628835 0.026231352 0.040242042 0.012694969
0000c0 39 9b 37 bc ed c5 8d bc 87 e7 b4 3c 9d 70 18 bc
       -0.011206442 -0.017306292 0.022083057 -0.009304193
0000d0 6b 4c c5 3c 81 63 e3 3c 3e 24 96 3c 53 78 84 3b
       0.02408429 0.027757408 0.018327828 0.004042664
0000e0 d1 be d6 bc 9f 58 b0 3b d7 20 8d bc eb 21 71 3c
       -0.026214035 0.005381658 -0.017227573 0.014717559
0000f0 45 84 84 3d 11 92 35 bc 53 4d 6b 3d 19 d3 ee 3c
       0.06470541 -0.011082188 0.05744679 0.029153394

network.4.weight f4 [1, 64]
000000 31 f3 65 3e 41 4e 53 3d fb a8 76 3e 88 0e 8e be
       0.22456051 0.0515883 0.24087898 -0.2774546
000010 22 52 53 3e 91 7d aa 3d 3c 51 fc bd 17 08 e9 3c
       0.206368 0.08324731 -0.12320182 0.02844624
000020 2a 28 bd 3d b7 0d 32 3e 0e cb bc 3d 7d 77 53 3e
       0.09236176 0.17388044 0.09218417 0.2065105
000030 6b bd 1e be cb 42 79 be 41 6e 7d be 71 4d 7a be
       -0.15501945 -0.24341886 -0.2474909 -0.24443604
000040 f1 d5 0d 3e d2 b9 7b bd 57 08 cf 3d 9d d3 f6 bc
       0.13851143 -0.06145651 0.101090126 -0.030130202
000050 fe e3 61 be 2e c4 8e 3d 59 43 64 be 73 e7 26 bd
       -0.22059628 0.06971012 -0.22291316 -0.04074807
000060 d9 88 24 be c9 42 24 bd 96 b0 37 be 90 35 de bd
       -0.16067828 -0.040102754 -0.17938456 -0.1085006
000070 c4 5d be 3d 19 84 89 3d b5 6b 44 3d 78 9b 93 bd
       0.09295228 0.06714649 0.04795428 -0.07207388
000080 02 a8 3e bd 0e 81 7f 3e c7 42 04 3e 9b f5 92 bd
       -0.046546943 0.24951574 0.12916099 -0.07175752
000090 4b 65 71 3d 14 55 98 3c dc 77 e1 3d 5e b1 cf bd
       0.05893449 0.018595256 0.110091895 -0.10141252
0000a0 12 d9 0d bd cf e8 4b bd 48 bb 6f 3e 7f 36 80 be
       -0.034630843 -0.04978257 0.23411286 -0.25041577
0000b0 8b a5 47 bd 8c 6e 79 bd 6a 34 4f 3e 0a a3 a1 bc
       -0.04874186 -0.06089644 0.20234838 -0.019731063
0000c0 4b ec e2 3d de ff 22 3e 7c 66 49 be 02 b6 5d 3c
       0.110802256 0.15917918 -0.19668001 0.013532164
0000d0 56 c3 d2 3d 9c 56 5a 3e 15 84 52 be 58 dc d0 bd
       0.102911636 0.21322101 -0.20558198 -0.10198277
0000e0 a4 49 04 3e 03 fe 65 3d b3 5c f1 3d 67 d4 c7 bd
       0.12918717 0.056150448 0.11785259 -0.097573094
0000f0 cd de 8b bd fb 74 87 3e cd c4 d7 bc 69 80 68 3e
       -0.06829605 0.26456437 -0.02633896 0.22705235
