saved_models/feedforward_nn_hd_64_nl_3_lr_0.001.pth (torch, 49860 bytes, 7 tensors)

network.0.weight f4 [64, 48]
000000 74 13 f4 3c cd b8 c0 3d 5c 3c 38 3e e6 89 1a 3e
       0.029794432 0.09410248 0.17991775 0.15091667
000010 25 2a c0 3a 21 fa f7 bd 20 cd 47 be 97 3b c8 3d
       0.0014660998 -0.12108255 -0.19511843 0.09776991
000020 62 43 39 bd 7d 7e b5 3d cb 1b 14 3e ef b7 08 3d
       -0.045230277 0.08862016 0.14463727 0.033378538
000030 f7 79 62 3e 46 d5 74 be 15 d2 23 3e 77 d6 1c be
       0.22116838 -0.23909482 0.15998109 -0.15316187
000040 4c 97 14 be 04 24 04 3e 6d c0 f8 bd 35 88 ee 3d
       -0.1451084 0.12904364 -0.12146077 0.11647073
000050 c1 05 1a bc 2d e7 0f 3e f2 e6 39 be 3a 72 86 bd
       -0.009400786 0.1405303 -0.18154505 -0.06564756
000060 b3 d0 08 3e 5d d5 cd bd 74 13 c7 3c 71 b3 2d 3e
       0.13360862 -0.100504614 0.024301268 0.16962983
000070 69 5f a2 bd d6 f1 f3 3d ef 46 a5 bc 38 d3 95 bd
       -0.07928354 0.11911361 -0.020175425 -0.073156774
000080 3b 6e 04 3e 36 09 0b be ec 9f d6 3b ff 87 a8 3d
       0.12932675 -0.13577732 0.006549826 0.08229064
000090 ea 98 95 3e 62 a6 35 3d 1d 9e 82 3e 9d 09 0f bd
       0.29218227 0.04434813 0.25511256 -0.034921277
0000a0 bf 66 98 3e a7 69 1c 3e 67 4e 87 bd f0 7b 5d 3d
       0.2976589 0.15274678 -0.06606751 0.054073274
0000b0 a9 58 75 3e 35 67 30 3d 04 b7 8e 3e 23 2a d0 3d
       0.23959602 0.043067176 0.27874005 0.10164287
0000c0 2a bb f8 bc 8d ad d8 bd 6c 09 ae bd 01 4a 9b bd
       -0.030362684 -0.10579977 -0.08497891 -0.075824745
0000d0 12 b7 9f 3c fc f1 0a bd 96 aa 12 3c 59 b5 a0 bd
       0.019496474 -0.03392218 0.008951804 -0.07847089
0000e0 c4 91 d7 3d d0 3f 63 3d 8e 41 ca 3d 85 54 28 bd
       0.105258495 0.05548078 0.09875785 -0.04109623
0000f0 75 c1 44 bd c0 49 21 3e ab bb 11 bd 32 76 b1 bd
       -0.048036058 0.1575079 -0.035579365 -0.08665122
000100 84 7e f6 3d 3a d1 22 bd 01 64 5e bd 1c 80 ec 3c
       0.1203585 -0.039750315 -0.05429459 0.028869681
000110 9f b2 33 bd 2b c0 a2 3d 76 b2 93 3e d4 3f 24 bc
       -0.04387152 0.079468094 0.28847092 -0.010024983
000120 5a d1 d6 3d 05 1f 1b 3e 4f 6e 6d 3e ff 07 aa 3d
       0.104891494 0.15148552 0.2318661 0.083023064
000130 02 bb 8f bd 6d 0f 17 3c 84 04 ce bd 2c df 94 bc
       -0.07018091 0.009219986 -0.10059455 -0.018172823
000140 07 00 74 3d 7a 97 31 3e 8f 1b 5d bd 26 cc 86 bc
       0.05957034 0.1734294 -0.05398136 -0.016454767
000150 48 37 86 3d 84 1f 19 3e f4 97 55 3e 27 a1 4f 3e
       0.06553513 0.14953429 0.20858747 0.20276318
000160 35 18 10 3c 18 8f 5a 3e 65 16 8e 3e bb 42 5f 3c
       0.008794834 0.21343648 0.2775146 0.01362675
000170 0c 6d 6b 3e 35 b6 7d 3d af b3 bc 3d 45 c6 0a 3d
       0.22990817 0.061941344 0.092139594 0.03388049
000180 c3 3b e8 3d be 31 1c be cc b7 1e be 19 9d 5a bd
       0.11339524 -0.1525335 -0.154998 -0.053372476
000190 69 43 87 bd 79 17 0f be 9b 28 64 bd 6b 60 c8 bd
       -0.06604654 -0.13973798 -0.055702787 -0.09784015
0001a0 59 2f ca bc 7a 24 10 3d bf 83 05 3e 1b d4 ab bd
       -0.02468078 0.035191037 0.13038538 -0.08390065
0001b0 18 4e 28 3e 1a 2a 45 be 75 df 32 bd 22 8e 2f 3e
       0.1643604 -0.19254342 -0.043670136 0.17144063
0001c0 24 7c 3e 3c 3a bf 45 be a7 03 96 bd 5a 71 ac bd
       0.011626277 -0.19311228 -0.073249154 -0.084200576
0001d0 a9 a9 92 bc 20 a7 32 3d c5 2d 59 3d 96 53 da 3d
       -0.017903166 0.043616414 0.053022165 0.10660474
0001e0 76 ae 94 bd 0c 8d 84 bd a8 6f 68 3c a9 60 55 be
       -0.07259838 -0.06472215 0.014186777 -0.20837654
0001f0 77 db 17 bd ff 3c f5 bd ee 64 59 bd 0e 32 b2 3d
       -0.037074532 -0.11974525 -0.05307477 0.087009534
000200 b0 36 96 3c 2b 45 2d be 1f 70 68 3d 72 71 95 3d
       0.018336624 -0.16920917 0.056747552 0.072970286
000210 a5 34 45 be ba df 8c 3b c8 f7 e6 3d b6 ef be 3d
       -0.19258364 0.004299131 0.11277729 0.09323065
000220 8e cd 1d 3e 92 f0 b0 bc ca 55 6b 3d 21 f6 f4 bd
       0.15410444 -0.021599088 0.05745486 -0.11961008
000230 59 e5 5f 3e 27 7a f5 3d 82 da 4a 3e 58 11 26 3e
       0.21864833 0.11986189 0.19809917 0.16217554
000240 3e 7f 2a be 96 57 50 3e 7c 97 94 3c 59 6d 9d bd
       -0.16650102 0.20345911 0.01813864 -0.07686872
000250 0d 16 56 bd d1 b5 89 3d 3a 00 b8 3d 59 dd 7b be
       -0.052267123 0.06724132 0.08984418 -0.24596156
000260 28 c8 04 3e 7c 53 2d 3e ec 05 96 3d 21 a8 09 be
       0.12966979 0.16926378 0.07325348 -0.13443042
000270 83 5f 6b 3e 50 3d 6b 3d 19 5f 05 bd 99 bc 4e be
       0.22985654 0.05743152 -0.032561395 -0.20189132
000280 6a 97 05 be 59 b5 a2 3c 3b 10 74 bc bc a9 4f 3d
       -0.13046041 0.019861864 -0.014896448 0.05069898
000290 37 c2 66 be 90 47 4e 3e 6b 30 b4 3d c4 7a d5 bb
       -0.22535025 0.20144486 0.087982975 -0.006514879
0002a0 ed 60 cf 3d af 26 dc 3d 0b 66 bd 3d 26 4e 4a be
       0.10125909 0.10749566 0.09247979 -0.19756374
0002b0 5f 50 f8 3d a3 f1 4e 3d 99 6c fd 3c 6b 65 05 3d
       0.121247046 0.05052341 0.030935572 0.032567423
0002c0 19 6e d5 bd 73 7b 1e 3e ab 1a 0c 3d ac 6e 74 bd
       -0.1042139 0.1547678 0.03420512 -0.059675857
0002d0 35 c4 de 3b 9e d2 31 3e f8 84 03 be dc 0e 38 be
       0.006798292 0.173655 -0.12843692 -0.17974418
0002e0 d4 5f 30 be 12 25 d0 bd 65 fb 02 bd 30 49 47 3e
       -0.17224056 -0.101633206 -0.03197803 0.19461513
0002f0 28 02 a0 3d 03 9d 95 bd d1 1f 5f 3d 2d 03 53 3d
       0.07812911 -0.07305338 0.054473702 0.0515167
000300 96 af b5 3c 96 70 47 be b8 45 44 3c 39 94 a7 3d
       0.022178452 -0.19476542 0.011979513 0.08182568
000310 56 cc 1a 3e c1 0c 42 3e 09 66 16 3e 12 59 03 3d
       0.1511701 0.18950178 0.14687361 0.032067366
000320 b8 a9 ce bd d8 33 ee bc c3 a9 d7 bd a5 21 83 3d
       -0.10090965 -0.029077455 -0.10530426 0.064029016
000330 84 fd 80 bd ce 99 76 bd 67 15 8d bc 46 ed 30 be
       -0.06298354 -0.060205273 -0.01722212 -0.17278013
000340 94 5a e6 bd 6f 96 2c 3e 9e 65 20 3e 8f 85 e0 3d
       -0.11247745 0.16854261 0.15663764 0.10962974
000350 2f ce 8c 3d 8b 40 38 3e c0 3b 79 3c 6a 19 2c be
       0.06875264 0.17993371 0.015211999 -0.1680657
000360 a4 6a 29 be ba bf 64 3e 13 6f 72 be 37 80 0c 3e
       -0.16544586 0.22338763 -0.23675184 0.13720785
000370 17 a1 67 be 4a f6 b4 bd e8 18 24 bd 61 3b 2a bc
       -0.22620045 -0.088360384 -0.040062815 -0.010390134
000380 ed db dc 3d 5f f9 87 be 05 f0 19 3e c4 e4 e5 bc
       0.10784135 -0.26557443 0.15032966 -0.028063186
000390 6a 6c 96 3d 2b 21 d1 bd e0 76 17 3e ae f7 92 3d
       0.07344897 -0.102114044 0.14791441 0.071761474
0003a0 5d c7 0f bd dd 20 09 3e 29 b2 cf 3d 3c 3c 76 be
       -0.035102237 0.13391443 0.10141403 -0.24046415
0003b0 8e fb 15 3e 17 0a f6 bd 30 89 25 3d 68 c2 00 bd
       0.14646742 -0.12013643 0.040414035 -0.0314354
0003c0 1c f6 35 3d d0 e6 f5 3d bc 0f 24 3e e0 90 a7 3d
       0.04442416 0.120069146 0.16021627 0.081819296
0003d0 0a d3 e6 bc c3 71 d7 3d 4f 0b 4e 3e 4f ba 17 be
       -0.028176803 0.10519745 0.20121501 -0.14817165
0003e0 e9 02 b4 bd d0 11 d3 bc b4 67 3f be 3d 5e 9c bc
       -0.087896176 -0.02576533 -0.18691903 -0.019087905
0003f0 c7 cc 14 3e 02 07 8c be 36 4a 23 bb 32 f7 bd 3c
       0.14531241 -0.27349097 -0.002491606 0.023189161

network.0.bias f4 [64]
000000 83 f1 cc 3d 1f 13 cf 3d 34 bd 46 3c eb 5e e8 3c
       0.10007002 0.10111069 0.0121300705 0.028365573
000010 51 0c 07 bd 1f b4 7e 3d d9 4d b5 3a fd 02 bc 3c
       -0.03297073 0.062183496 0.0013832405 0.022950644
000020 70 16 78 3b 99 c3 88 3b 41 52 39 3d cb 83 12 3d
       0.003785517 0.0041737077 0.04524446 0.03577022
000030 39 3c 48 3d 1e a3 89 3d 6e 86 37 3d 5b c3 7a bc
       0.048885558 0.06720565 0.044805937 -0.015305365
000040 53 da b4 3d 72 e3 2b 3d 68 72 b4 3d 72 e2 e3 3b
       0.088307045 0.041964956 0.08810884 0.0069544846
000050 10 eb fc 3d 2a 3b c1 bb e9 ca 0b 3d bd b0 94 bb
       0.12349522 -0.0058969455 0.034129057 -0.0045376704
000060 bb 82 6c 3c 49 ae 03 bc 47 89 7b 3d 77 0d 36 3d
       0.014435465 -0.008037158 0.061410215 0.044446435
000070 ed f0 5f 39 dc 9c bc bc 30 02 ee bc b9 30 21 3d
       0.00021356689 -0.023024015 -0.029053777 0.039353106
000080 4f 23 2d 3d 17 9b 72 3b 68 7d 84 3c e9 df 95 3c
       0.04227 0.003701871 0.01617308 0.018295245
000090 29 3f e9 3c 98 6d 14 3d 4e 5f 30 3d d1 e1 59 3c
       0.0284725 0.03623733 0.04305964 0.013298468
0000a0 bc 50 4f 3c a4 77 1b 3d b7 7a 43 3d 1b 9a 42 3c
       0.012653526 0.037955895 0.047724452 0.011877562
0000b0 e7 d7 83 bc e3 ab e2 bc 3a 54 83 3c c5 5c 88 bc
       -0.016094161 -0.027669853 0.016031373 -0.016645798
0000c0 47 97 90 3b f4 c2 95 3d 86 32 71 3d b1 24 19 3e
       0.004412565 0.07312575 0.058886074 0.14955403
0000d0 69 13 9d 3d 7b b7 56 3d 33 8f 15 bd 39 a4 e8 3d
       0.07669718 0.052421074 -0.03651352 0.11359448
0000e0 2b 0a 72 3d 4c f0 2a 3b a6 89 e1 3c 02 99 83 3d
       0.05909173 0.002608317 0.027531456 0.06425668
0000f0 48 7b 85 3d 2e a1 27 3b 28 cc 23 3d da 84 41 3d
       0.06517655 0.0025578248 0.03998962 0.047245838

network.2.weight f4 [64, 64]
000000 a1 02 e6 bc 39 f1 c3 bd 58 04 45 bd 2b 74 8b 3c
       -0.028077425 -0.09567494 -0.048099846 0.017023167
000010 be c8 eb 3d 41 ed af bc f8 28 07 3e 73 88 28 3e
       0.11512898 -0.021475436 0.13199222 0.16458301
000020 b0 9d 53 3d 1e 26 bf 3d 21 8f df 3c 79 e0 f7 3c
       0.051664054 0.09333442 0.027289929 0.030258404
000030 4d c9 f1 3d bf 10 92 bd 66 78 4e be 13 74 b5 3d
       0.11805973 -0.071321 -0.20163116 0.0886003
000040 d3 9e 32 be 97 e6 02 3e 5d 4c 5f 3d 8e cb b4 3d
       -0.17443399 0.12783276 0.054516185 0.088278875
000050 d0 27 17 3e 76 9f 4a 3c cb 24 6a bd 0c 18 7c bd
       0.14761281 0.01236712 -0.057163995 -0.06154637
000060 52 23 06 bc a0 b6 a2 3d ca e4 c1 3d 29 bc 12 3d
       -0.008187132 0.07944989 0.09467466 0.035823975
000070 f8 42 34 3d 56 45 b2 bd 2d 97 d5 bd c2 92 6e 3e
       0.04400918 -0.08704631 -0.10429225 0.23298171
000080 3b bb bb bd 59 ad 36 be 92 62 15 be 2e 86 f4 bd
       -0.09166571 -0.17839564 -0.14588383 -0.11939655
000090 0c d8 77 be c0 78 01 3d ba 4b 30 be f5 6e 3b 3d
       -0.24203509 0.031609297 -0.17216387 0.045760114
0000a0 8a 8f a6 bd 03 b5 1e be 38 79 42 be a0 53 06 3d
       -0.08132847 -0.15498738 -0.18991554 0.032794595
0000b0 9c 2c 17 3e 30 92 a0 bc 87 c6 eb bd 80 88 e3 3d
       0.14763111 -0.019600958 -0.115124755 0.1111002
0000c0 43 d2 0b bd c0 f3 fa bd e5 e8 d6 bc 67 6a 2f be
       -0.034136068 -0.12253523 -0.0262341 -0.17130433
0000d0 c8 e1 14 3e 49 5e 36 be ec 1f 24 3e 68 e8 c8 3c
       0.14539254 -0.17809404 0.16027802 0.024524882
0000e0 49 c5 5d 3c 79 db 1f bd 08 cd b3 bd 86 a7 9f bd
       0.013535806 -0.039027665 -0.08779341 -0.077956244
0000f0 97 04 8c 3d a5 7f 9e 3d a7 68 2c be fb a5 b8 bd
       0.06836813 0.0773919 -0.16836797 -0.09016033
000100 61 11 3a bd 6b da b0 bd a3 5c 43 bd 49 8c 92 3b
       -0.04542673 -0.0863541 -0.047695767 0.0044722897
000110 ac 91 f2 bd 75 da 1a 3e 85 78 42 3d 37 83 3a be
       -0.11844191 0.15122397 0.047478218 -0.18214117
000120 b0 ce 9a 3d f4 5c 22 3e 5f 20 89 3d 7a 7f 8f 3d
       0.07558954 0.15855771 0.066956274 0.07006736
000130 1a 7b 1e be c1 47 26 3e 8b 93 2d 3d d5 20 62 3d
       -0.15476647 0.1623831 0.042377036 0.055207092
000140 9f 4c d1 3d 54 5d 12 bc 32 e2 3e bd af de e3 bd
       0.102196924 -0.008933384 -0.046602435 -0.11126458
000150 2e 25 8a 3d cf d7 39 3e c1 cc 15 be 78 49 e1 bd
       0.06745373 0.1814873 -0.14628889 -0.11000341
000160 b3 df 4b be 60 14 b7 3d 63 b3 28 be 08 2a c0 bd
       -0.19909553 0.08939433 -0.1647468 -0.09383017
000170 ea 94 d1 bc eb 10 e6 3d bf bb 29 3e 8d cf 4b bd
       -0.025583703 0.112336956 0.16575526 -0.049758483
000180 70 f1 4e 3e 63 97 fc bd 16 fe c9 3d 11 af 09 3e
       0.20209289 -0.12333562 0.09862916 0.13445689
000190 88 7e 16 be aa 5b 6e be 2d b4 7a be 75 21 25 3e
       -0.14696705 -0.23277155 -0.24482794 0.16126044
0001a0 ad df f1 bd 5a 4a 5a bd ce 79 00 be 33 f2 2f 3e
       -0.11810241 -0.053293563 -0.12546465 0.17182235
0001b0 76 e3 46 3e a4 07 a3 3d 0c 51 ed bd da f5 12 be
       0.19422707 0.07960442 -0.11587724 -0.14351597
0001c0 af 6a 30 3d 50 c5 ec 3d 6e 5b 11 3d 9c 4e 20 3e
       0.04307049 0.11561072 0.035487585 0.15654987
0001d0 61 5a 3c 3d 15 eb b8 bc 19 a6 43 3d e7 62 e8 3d
       0.04598463 -0.022573033 0.047765825 0.11346989
0001e0 70 30 62 3e 46 f6 de bd 61 1e 0f bd ec 37 0e 3c
       0.2208879 -0.10886817 -0.03494108 0.008680325
0001f0 cf 2c 6a bc 58 ed 01 be 37 cb 39 3e 64 13 2b 3d
       -0.01429291 -0.12688196 0.18143927 0.04176654
000200 3d 34 65 be 46 b1 0c be e7 48 a1 bd 14 e3 42 be
       -0.22383209 -0.137395 -0.07875233 -0.19031936
000210 b6 62 c2 bd 45 fb d5 3d ce a8 d9 3d 6a b9 1b 3e
       -0.09491484 0.104483165 0.106279 0.15207449
000220 bd e0 b0 3d 09 bc 86 bd ec f1 02 3e e6 b2 d8 bc
       0.086366154 -0.065788336 0.12787598 -0.026452493
000230 6d dc 13 3e 14 1c 26 be 8d 9a 4b be 70 7f 20 3e
       0.14439555 -0.16221648 -0.19883175 0.15673614
000240 9b 14 f7 bd 22 f7 08 3e d7 b6 3e bd 6c fc e4 3d
       -0.12064477 0.13375524 -0.04656109 0.11180958
000250 9d ec 9d bc d4 0b 33 be 69 c1 18 3d ac db 75 be
       -0.019277865 -0.17484981 0.037293825 -0.2400958
000260 78 40 64 bd 68 ce 4a bc ad b1 2b be b6 3e 4d be
       -0.055725545 -0.012378313 -0.16766997 -0.20043454
000270 42 3a 0f 3e c1 97 e4 3d b8 99 c0 bd 44 e7 e4 3d
       0.13987067 0.11161757 -0.094043195 0.11176923
000280 61 ef 8e bd c6 84 37 3e 75 b0 c5 3d 03 67 1c bd
       -0.06979252 0.17921743 0.09652797 -0.038184177
000290 bb 1d af bd 35 9a 3f be 1a 31 ca 3d dd 2c 0a bd
       -0.085505925 -0.18711169 0.09872647 -0.03373419
0002a0 4f 3f ca bc 3b 7d d1 3d 10 e6 e1 3d d7 6d 4c be
       -0.024688391 0.10228964 0.11030209 -0.19963776
0002b0 38 46 70 be 50 71 64 3d 63 84 52 bc 35 b4 5b be
       -0.23464286 0.055772126 -0.012848946 -0.21455462
0002c0 a8 a3 50 bd c8 b1 04 3e fd 20 a7 3d 1e c5 f8 bd
       -0.050937325 0.12958443 0.08160589 -0.12146972
0002d0 8d ed b9 3c ab c5 26 3e ea b4 a0 bc fb e7 e3 bd
       0.02269628 0.16286342 -0.019617517 -0.11128231
0002e0 29 ef 09 be 53 a2 59 be 01 f3 53 3d fe 7c 2d bc
       -0.13470139 -0.21253328 0.05174542 -0.0105888825
0002f0 70 b4 71 bc 33 6b c0 3d b0 92 2f 3e d9 ef 2e be
       -0.014752492 0.09395447 0.171458 -0.17083682
000300 2e 4e 21 3d 14 7b b4 3d ee f1 bd 3d 37 4f 03 be
       0.0393812 0.08812538 0.0927466 -0.12823187
000310 c6 b8 38 3d ca ce 31 3e 6c 6e b4 3d 8f b0 52 3e
       0.04509809 0.1736404 0.08810124 0.20575164
000320 0c a2 06 bd 94 b3 91 3d 21 65 d3 3c ff d9 5c be
       -0.032869384 0.0711433 0.025805058 -0.21567534
000330 99 10 4c be bb f4 d4 3d ae b9 4a 3d 22 f1 a2 bd
       -0.19928207 0.10398241 0.049493484 -0.07956149
000340 ed 73 d7 3c 74 6b ed bc fc 7e ae 3d 73 47 2b be
       0.026300395 -0.028981902 0.08520314 -0.16726474
000350 ac 35 bc bd d0 db 75 3d 4d de 65 3d 03 94 89 3d
       -0.091899246 0.060024083 0.056120206 0.06717684
000360 8e ed e8 3c 55 61 87 3d 11 1a 1a bd 52 ae 90 bc
       0.028433587 0.066103615 -0.037622515 -0.017661247
000370 32 32 b6 3d 2a f2 31 be 7d 11 01 3e 29 34 b0 bc
       0.08896293 -0.17377535 0.12604327 -0.021509247
000380 e3 df 4b be 3f df 11 3e 8e a8 5f 3e 9d b5 39 be
       -0.19909625 0.14245318 0.21841642 -0.18135686
000390 85 ff 55 3e ef 9d c7 ba 94 d9 a4 3d bd 70 19 3e
       0.20898254 -0.0015229563 0.08049312 0.14984412
0003a0 5a 64 cd bc ee 5b 6f 3d e5 0b 8c 3c c9 dd 0e 3e
       -0.025072265 0.05843728 0.017095516 0.13951792
0003b0 37 23 a3 bd 41 c5 2d 3d ca 5e 53 be 3c 68 9f bd
       -0.07965701 0.042424444 -0.20641628 -0.07783553
0003c0 7f 95 2b be 4e ac c0 b9 45 e8 1f 3e 6c ab 24 3e
       -0.16756247 -0.0003674947 0.15615948 0.16081017
0003d0 96 72 f9 3d 77 f0 b6 3b 9d 65 ee 3c be cb 4a be
       0.12180059 0.005582865 0.029101187 -0.19804284
0003e0 3b a8 a4 bc 97 ba 4f bd 41 ab 46 3e 07 42 36 be
       -0.02009975 -0.050715055 0.19401266 -0.17798625
0003f0 ff 2c 11 3e 4a 41 48 3c 1f 23 55 be b6 3a 4c be
       0.14177321 0.012222597 -0.20814179 -0.19944271

network.2.bias f4 [64]
000000 0f 63 92 bc e4 0d 8f bc d4 78 0e bd 15 a3 66 3c
       -0.0178695 -0.017462678 -0.0347832 0.014076968
000010 0a 3b e6 3c 1e eb a4 bb 7a bc 04 bc e0 a6 29 bc
       0.028104324 -0.005032911 -0.008101577 -0.0103547275
000020 57 8b 05 bb 92 57 be 3c 09 dd c1 bb 05 4c 86 3d
       -0.0020377242 0.023235116 -0.005916242 0.06557468
000030 19 24 57 bb f4 90 6f 3d d1 2f 20 bc b5 b2 88 3c
       -0.0032827912 0.058487847 -0.009777025 0.016686777
000040 55 ea d0 3c cd e7 00 bd ba 6e 8f 3d 20 06 a8 3a
       0.025502363 -0.031471062 0.07003541 0.0012819208
000050 e2 e0 7f 3c 12 63 aa b7 2c fb 03 bd 75 ba 38 3d
       0.015617581 -2.0311712e-05 -0.032221958 0.045099694
000060 34 44 ab 3c 09 54 42 3b da dc c2 bc f2 e5 2b 3d
       0.020906545 0.002965214 -0.02378695 0.04196734
000070 44 95 a6 3c 88 6d 94 bc ee 84 81 3c 47 c5 61 3c
       0.020334847 -0.018118635 0.015810456 0.013779945
000080 aa 1e 34 bd f5 81 dc ba 1e 79 4b bc 9c 17 38 3c
       -0.043974556 -0.0016823398 -0.012419013 0.011236098
000090 52 e6 67 3c 61 0e b3 3c c5 ff ea 3c 55 fe 18 3c
       0.014154034 0.021857442 0.028686414 0.009337981
0000a0 60 49 26 3d 61 2a 6d 3d 2b 41 9d ba df 93 b1 bb
       0.04059732 0.057901744 -0.0011997571 -0.005419239
0000b0 c7 34 57 3d 02 49 0f bc 78 3d 29 bc 20 4d 1e bc
       0.052540567 -0.008745434 -0.010329597 -0.009661943
0000c0 6e b8 a1 3c ec e0 14 3d 8b 8e 33 3d 8e d7 2a 3a
       0.019741263 0.036347315 0.04383711 0.00065171055
0000d0 d2 6c b7 bb 67 6c db bc f7 80 41 3d 7e 13 24 bc
       -0.005597689 -0.026785089 0.04724213 -0.010014413
0000e0 2c 47 81 bc ab eb 7b 3c 00 cd 5a 3d e9 50 c9 3d
       -0.015781008 0.015376012 0.05341816 0.098298855
0000f0 8a c8 7e 3b e6 da 14 3c d6 78 36 3d 63 14 02 3d
       0.0038876855 0.009085393 0.044548832 0.031757724

network.4.weight f4 [64, 64]
000000 72 26 ae 3d 9c 82 db 3d d4 56 a7 bb f2 d9 0e bd
       0.085034266 0.10718271 -0.0051067863 -0.034875818
000010 32 de 1e be 4c 68 ec 3d 10 cc 28 3e 2f 92 d8 bd
       -0.15514448 0.115433306 0.16484094 -0.10574757
000020 7d 1e 27 3e 1d d8 af bd 0f 42 53 3e 9e cd 00 3d
       0.16320224 -0.08586142 0.20630668 0.03144609
000030 90 88 ac 3d 64 37 89 bd 3c a7 2a bd 4f 6e 28 3e
       0.08424485 -0.06700018 -0.041663393 0.1644833
000040 73 c4 13 3c a2 18 1f 3e 1c 78 40 3e 77 a2 1c be
       0.009019005 0.1553674 0.18795818 -0.1529635
000050 d5 8b d1 3d 28 69 01 3e f8 e6 50 bd e7 51 b1 bd
       0.10231749 0.1263777 -0.05100152 -0.086582
000060 25 a4 20 be 2a 89 e5 3d 57 46 eb bb ec 08 d1 3c
       -0.15687616 0.112078026 -0.007180016 0.02551695
000070 7b 63 52 be 29 e5 3b 3c 84 4b c6 bd 8a 5d 3e be
       -0.20545761 0.01146821 -0.09682372 -0.1859037
000080 27 7e 02 3e 50 fa 66 bc 60 70 60 bd 80 26 2d 3c
       0.12743436 -0.014097765 -0.05479467 0.010568261
000090 35 9a 07 3c 0c ff 88 bc a3 1e 59 3e 50 a8 ea bd
       0.008276512 -0.016723178 0.21203093 -0.11457884
0000a0 0f d1 14 3e 6e 60 20 bc 23 4d d1 3d 2d cc 71 bd
       0.14532875 -0.009788616 0.10219791 -0.059032608
0000b0 3d 18 3c bb a6 05 5f bd 0f 6c 5c be 4f 87 2b be
       -0.002870097 -0.054448746 -0.21525596 -0.16750835
0000c0 3d 3d 5a bd a4 3a 11 3e cd 53 5f be 08 1c 3d 3e
       -0.053281058 0.14182526 -0.21809311 0.18467724
0000d0 59 ae 8b 3c 6c c6 15 bd 9a 2d 93 3d 98 29 6f 3c
       0.017050909 -0.036566183 0.07186432 0.014597319
0000e0 6f ef 24 3d 99 bb 70 3c c5 e3 56 3d 05 db 78 bd
       0.040267404 0.014693164 0.05246331 -0.06075575
0000f0 64 aa 2f 3d e3 ee d3 3c 5d 8f bc bd d8 78 0b be
       0.042887107 0.025870746 -0.09207032 -0.13620317
000100 a4 1c 95 3d 81 8f fd 3d 2b 80 7a bd b2 eb 59 3d
       0.072808534 0.12380887 -0.061157387 0.053203292
000110 bf 96 29 be a5 fe 3e 3e 43 1b 3d 3d 0c 48 03 be
       -0.16561411 0.18651827 0.046168577 -0.12820452
000120 b5 7d 3f be 31 98 40 3e ce e7 f4 bd 05 c4 8e bc
       -0.18700297 0.18808056 -0.11958276 -0.017427454
000130 e4 ff 2b be b6 7a 02 be 01 94 fa 3d 38 ae 2b be
       -0.16796833 -0.12742123 0.12235261 -0.16765678
000140 7c 39 1f 3e a4 9a 1f be 00 90 97 3d 8b 68 88 3c
       0.15549272 -0.15586334 0.07400513 0.016651412
000150 65 bd 06 be 87 af 02 3e 7c ee 2c bc fb 8c 30 be
       -0.13158186 0.12762271 -0.010554906 -0.1724128
000160 ab 18 3a 3e 89 b2 26 be ef 10 a0 3d bb 61 a5 bd
       0.18173473 -0.16279043 0.0781573 -0.08075281
000170 89 3f 2d be d9 85 c5 3b b6 ed c6 3c 71 90 38 bd
       -0.16918768 0.006027919 0.024283271 -0.045059625
000180 02 fb 3a be 8c 27 91 bd 20 90 22 3e 78 65 85 be
       -0.18259814 -0.07087621 0.15875292 -0.26053977
000190 50 f8 14 3e 8a ef f3 bd d9 96 55 be 45 a3 64 be
       0.14547849 -0.11910923 -0.20858325 -0.22327907
0001a0 99 a5 24 be 44 6a c8 3d cc aa 20 3c 2d 55 5a 3d
       -0.16078795 0.097858936 0.009806346 0.053303886
0001b0 85 2b 9d bc b1 00 73 bd f6 e9 4a be 79 d2 17 3d
       -0.01918579 -0.05932683 -0.19815812 0.037065957
0001c0 5d 88 fb bd 3c bf 04 3e 47 d2 0a 3d 99 26 0b bd
       -0.122818686 0.12963575 0.033891942 -0.033972356
0001d0 ef 50 ec 3c f3 e2 fe 3d 10 e3 43 be 9e b8 8e 3c
       0.028847186 0.12445631 -0.19129586 0.017422017
0001e0 16 31 32 be c4 da ec bc 88 fc 39 be f4 1a c7 3d
       -0.17401537 -0.02891291 -0.1816274 0.09721938
0001f0 cf 93 43 be 81 b1 09 3e 5c 68 0d 3e 28 e5 8b bd
       -0.19099353 0.13446619 0.13809341 -0.068308175
000200 c7 64 a9 bd b0 83 12 3e 24 07 13 3d 0b 10 10 3c
       -0.08271175 0.14308047 0.03589548 0.008792887
000210 e9 b6 23 3c 89 a4 41 3e 28 6c bb bc 0a c8 e2 3d
       0.00999234 0.18910421 -0.022878721 0.11073311
000220 a8 4b 1f be 7c 64 26 bd 5e 51 7d 3d 36 d6 2b be
       -0.15556204 -0.040623173 0.061845176 -0.16780934
000230 89 ce 2b 3e 03 c0 c7 3c 9e 40 25 be cd 81 24 be
       0.16778006 0.02438355 -0.16137931 -0.1606514
000240 94 a3 0e be 78 68 8d 3d 02 30 fc bd 01 b2 b0 3c
       -0.13929588 0.069046915 -0.12313844 0.021569254
000250 d4 33 20 3e 60 99 06 bd 57 43 e9 bd 66 7d 3a 3e
       0.15644771 -0.032861114 -0.11389797 0.18211898
000260 10 2a e3 3d 40 31 8f b9 57 4a 59 3c 7b 4b 70 be
       0.11092007 -0.0002731178 0.013262353 -0.23466294
000270 fd 52 19 be 77 97 77 3d 2d 41 4f 3e af 50 d4 3d
       -0.14973064 0.060447183 0.20239706 0.10366952
000280 a2 32 68 bd 2d e3 f0 3d a5 b2 5b be d0 2e d8 bc
       -0.056688912 0.1176208 -0.21454866 -0.02638951
000290 c9 5f df bd 9e 75 01 be 48 41 c0 3c 51 d1 bb bd
       -0.109069414 -0.12642524 0.023468629 -0.09170783
0002a0 d7 eb 33 be c6 59 d2 3d 2d 75 43 3e f7 49 c4 bd
       -0.17570435 0.10271029 0.19087668 -0.0958442
0002b0 45 f2 90 3d 90 4b 68 bd b4 a5 1b 3e 47 97 55 3d
       0.07077459 -0.056712687 0.1519993 0.052146222
0002c0 e4 31 17 ba 09 34 28 be 24 47 cf bc 2b cd 74 bd
       -0.0005767627 -0.164261 -0.025302477 -0.059765976
0002d0 23 ec 2f bd a5 5b 90 3d 82 cc 27 be 54 ba bf 3d
       -0.042949807 0.0704873 -0.16386607 0.09361711
0002e0 61 3b 4b be a0 80 26 be d6 de 8b bd 37 46 93 bd
       -0.1984687 -0.16260004 -0.06829612 -0.07191127
0002f0 48 47 34 be d3 ea ab 3d 83 9e 8f 3b e2 b1 12 3d
       -0.17605317 0.083943985 0.0043829097 0.035814174
000300 32 5c 1f be 77 31 bb 3d 30 a9 89 3d aa 9e 11 be
       -0.15562513 0.09140294 0.06721723 -0.14220682
000310 9d a4 e7 3d 4d 58 1a 3e 38 8f e8 3d 0d c4 1d 3e
       0.11310694 0.15072747 0.11355442 0.15406819
000320 f4 eb a5 3d a9 32 e0 3c 46 1c 2d be 34 95 a8 3c
       0.08101645 0.027367907 -0.16905317 0.020578958
000330 ed bf 1c be 02 70 02 3e 7a 9b 4c be 65 ce 39 3e
       -0.15307589 0.1273804 -0.19981185 0.1814514
000340 ea 6b f7 bc b0 e2 12 be b3 ac b1 3d 33 1a 27 be
       -0.030202825 -0.14344287 0.08675518 -0.16318588
000350 1f 07 35 be 26 a9 aa 3a e1 36 aa 3d 15 3b 3a 3e
       -0.17678498 0.0013020381 0.083112486 0.181866
000360 82 4d 3e be 81 ac a4 bd 28 6a 74 3d d1 8c 8a 3d
       -0.18584254 -0.08040715 0.05967155 0.0676514
000370 c9 d8 81 3c 17 a4 92 3d cb 64 fa 3d ed 33 12 be
       0.015850442 0.07160204 0.12226256 -0.1427762
000380 6b 99 1a be d5 c9 50 3e a0 bf c6 bb 2f 3e 1d bd
       -0.15097587 0.20389493 -0.006065324 -0.03838938
000390 67 05 d5 3d 17 a5 48 bd b5 94 39 3e 05 15 fe bd
       0.10401421 -0.048985567 0.18123133 -0.12406353
0003a0 56 a2 f9 3b a4 4c 39 be 79 a1 ab bd 17 2f 99 bb
       0.007618229 -0.18095642 -0.08380408 -0.004674803
0003b0 6b 3e c2 3d 35 48 e8 3d b5 8e 8d bb fc 4a c3 bd
       0.094845615 0.113418974 -0.0043199905 -0.095357865
0003c0 db 62 23 3e 5e 03 26 be ba 28 1d 3e a3 87 ab bd
       0.15955679 -0.16212222 0.15347567 -0.0837548
0003d0 0d 18 49 be a0 0a 0a be 7b 7f 92 3d b0 f2 16 3e
       -0.19638081 -0.13480616 0.07153221 0.14741015
0003e0 6d 50 c6 3d 13 05 31 3d 43 89 05 3e e2 cf 5e be
       0.09683309 0.04321773 0.13040642 -0.21758988
0003f0 5c d4 3a bd b5 08 20 3e 32 40 42 3e 46 30 18 3e
       -0.045612678 0.15628321 0.18969801 0.14862165

network.4.bias f4 [64]
000000 95 4e 20 bc 58 47 73 bc d0 08 18 bc ff e9 e7 3c
       -0.00978436 -0.014848553 -0.009279445 0.02830982
000010 14 ba f5 3b 41 77 12 3d 56 99 ec 3b 8a 76 3c 3c
       0.007498989 0.03575826 0.0072204275 0.011502871
000020 bf b7 47 bc 80 ed f9 3c 07 72 a2 39 24 87 12 3d
       -0.012189805 0.030508757 0.00030984005 0.03577341
000030 6b a0 0b bc 28 44 fc bb b2 20 06 3c 08 b9 d6 3c
       -0.008522133 -0.0076985545 0.008186506 0.026211277
000040 cb 0f 92 bb b5 4f e3 3c e5 65 86 3c a4 2a 46 bc
       -0.004457449 0.027747968 0.016406009 -0.012095127
000050 90 d5 0e bc 78 41 37 bd 46 71 ce 3c 4e c9 27 3c
       -0.008717909 -0.04474017 0.025200497 0.010240866
000060 b6 ce 03 3d c6 3a b7 3b 59 06 ad 3b 5e 77 87 bb
       0.032179557 0.005591723 0.0052802977 -0.0041341027
000070 2d 28 ee 3c a2 17 6d bc 16 31 85 bc 3b 06 0e 3d
       0.029071892 -0.0144709665 -0.016258758 0.03467391
000080 cd bf 10 bc 4a 8a ec 3c 2a fe f1 3c 4f cc 15 3c
       -0.008834791 0.028874535 0.02954014 0.009142949
000090 8c 06 e2 3c 51 ae bd bc d3 71 82 be 1c f8 d7 3c
       0.027591012 -0.02315441 -0.25477466 0.026363425
0000a0 4b dd df bb 0f 09 bf bc 9f f3 12 3d 97 38 1e bc
       -0.0068318 -0.02331975 0.035876866 -0.009657047
0000b0 2c aa d5 bb bc 26 13 3d a5 77 01 3d d7 73 0e 3c
       -0.00652053 0.03592561 0.031608243 0.008694611
0000c0 75 9f af 3c d5 a5 36 bd ce 2b e2 3c b7 be 6c bb
       0.02143834 -0.044591743 0.027608778 -0.0036124417
0000d0 81 db c4 3c 89 40 17 bc 2c 45 e1 3c fd 83 4c bb
       0.024030449 -0.009231695 0.027498804 -0.00312066
0000e0 49 52 a6 bc 0e b1 05 3c 0a 01 d0 bc 7a 39 04 3d
       -0.020302908 0.008159889 -0.02539112 0.032281376
0000f0 7c 73 0a 3d 75 69 19 bc 35 45 39 bd 34 02 c9 bb
       0.03380154 -0.009363522 -0.045232017 -0.006134296

network.6.weight f4 [1, 64]
000000 eb 58 b1 bd 8d 38 64 bd b8 dd 74 3c dc 96 4c be
       -0.08659538 -0.055717994 0.01494544 -0.19979423
000010 05 16 dc 3d 9c 86 81 be f9 4b d1 bd d9 de a0 bd
       0.107463874 -0.2529801 -0.10219569 -0.07855005
000020 01 78 82 3e ff d9 8c 3e 2a 14 cb bd be ae e2 3d
       0.2548218 0.27510068 -0.09915955 0.11068486
000030 cf e8 83 be 05 f4 ee 3d 34 de 7c be fd f5 10 be
       -0.25763556 0.11667637 -0.24694139 -0.14156337
000040 e8 95 23 be 56 08 81 3e 2e dc 05 be e5 16 55 3e
       -0.15975153 0.25201672 -0.13072273 0.20809515
000050 07 44 90 3e 10 97 2f 3d e6 31 84 be e6 c7 9a bc
       0.281769 0.042868674 -0.2581932 -0.018894147
000060 7e 44 c1 3d ad 9b 5e 3e e8 27 57 3e 83 94 ae bd
       0.09436892 0.21739073 0.21011317 -0.0852442
000070 50 37 81 be 04 b7 11 be 72 2f bd 3d 86 7f 43 be
       -0.25237513 -0.14229971 0.09237565 -0.19091615
000080 4b 97 07 3d 53 65 a1 3d f3 2f 39 3e df 27 cc bd
       0.03310327 0.07880654 0.18084697 -0.09968542
000090 71 14 c2 3d 84 b3 0c 3e 49 8e 11 3e a4 13 15 be
       0.09476555 0.13740355 0.14214434 -0.14558274
0000a0 63 f1 d3 bd 25 3b 16 3e 4a 40 84 bd 29 3e 22 3e
       -0.10348775 0.14671 -0.06457575 0.15844025
0000b0 1b 29 88 3e 0f 4c f6 bb 40 09 4c bd a6 04 e8 bd
       0.2659386 -0.007516391 -0.04981351 -0.113290116
0000c0 1f 1e bf bd 50 c3 f9 bc ad a0 a2 bd 34 41 d7 bb
       -0.09331917 -0.03048864 -0.07940803 -0.006569052
0000d0 7c bc 80 bd f8 53 02 3e 59 52 bd bd f5 40 c0 bc
       -0.062859505 0.12727344 -0.09244222 -0.023468474
0000e0 fa 67 27 be 04 04 71 3e 41 32 a0 3d a7 5f 64 3e
       -0.16348258 0.23536688 0.07822085 0.22302113
0000f0 a1 87 91 bd 9d 2e b4 3c 3b ee 40 3e 64 4a 19 be
       -0.07105947 0.021994883 0.18840878 -0.14969784
