saved_models/gnn_hd_16_od_1_lr_0.01.pth (torch, 5640 bytes, 3 tensors)

conv1.bias f4 [16]
00000000: 2e5f 70bd 174f f23b 350c 8e3d 82e7 85bd
00000010: ea62 993d 5087 043d 60cc e7bc 4036 8dba
00000020: 6816 353d 0fa0 b23b 2da5 32bd 395b 013d
00000030: 8b64 c2bc 5d1a 8e3d 5b51 513d 1f12 c73c
-0.05868452 0.007394682 0.06935922 -0.06538297 0.074895695 0.032355607 -0.028295696 -0.0010773614
0.04421082 0.0054512094 -0.043614555 0.031581137 -0.023729583 0.06938622 0.051102977 0.024300633

conv1.lin.weight f4 [16, 48]
00000000: 77ba b03d f6ba 31be aa5c 3dbd 6d93 95bd
00000010: 178f 253c af74 d3bd 74f2 d03d 85fe 0dbe
00000020: bc34 2f3d 3b0d 9bbd 6c2f 26bd 6a96 80be
00000030: db07 34be ad7f 20be f812 a33d 808a 943c
00000040: 947d 103d f40c 5b3e a65d f43d e0b1 b8bd
00000050: fc35 473d 955a 673e b245 af3e ed83 41be
00000060: c5b8 24be 599d 063d 996e 3dbe 8e85 29bd
00000070: 73ab a3be 08cf 26be 228b 4f3e 5c2b de3d
00000080: 4c49 233e dcaa 99be d513 873d 3f29 103c
00000090: 8194 2b3e 25d9 9fbe 48ce adbe 35da 223e
000000a0: 60ed 5dbe bc81 8bbe c70f 99be 38d6 93be
000000b0: 9291 0b3e 87c5 65be cecd b5bc 546c 3e3d
000000c0: bc3d 853d 80b5 523d 56ec 6cbc 10c9 773d
000000d0: d236 973c 6f48 95be e011 0a3e 59fe edbb
000000e0: 6b2e 16be f427 723e 9f07 beba d10d 803d
000000f0: 4b74 6e3e 6497 aabe b100 1cbe b469 c43d
00000100: f4c9 3abe 76cb a33d 62ad 0abe 5041 d83d
00000110: 4bda 4ebe 70f8 de3d 98ac fe3c 350b abbd
00000120: e144 8a3d 5dce 723e 158a a2bd 700e 10be
00000130: a76f e23d a816 51be 6a8f 3dbe 7433 4c3e
00000140: 1fc2 d1bd 5dd3 febd 1565 72bd d8e8 d43d
00000150: 2248 0d3e af7b 5abc d48b 87bd 5e64 0a3e
00000160: 57cd 39be aec0 133e 769c ce3d df62 893e
00000170: 7115 c83c 309a 02bd 1fc2 50bd bdb7 40be
00000180: 529e b7bd 7476 f33d 481a acbd 34fa 08be
00000190: 9506 693d e0b9 3f3d 519d 20be d18f 54be
000001a0: b3ec 01be 9efd d13b e363 f0bd e558 70bd
000001b0: 155c 723e b911 653e 18df d23d b13e 023e
000001c0: 04ae 3f3d 367a 593e d399 623c 93e5 8dbd
000001d0: 38a8 01be 667c 413e 5745 c03e 9b7b 4a3d
000001e0: 3448 85bd 3f39 9ebd cf20 443e e10b 923e
000001f0: 8cc7 023d 23d6 393e 0dd2 8b3e 3f99 713e
00000200: 0295 8d3e d290 15be 1e1e fbbd 2ab6 63be
00000210: eda1 c2bd 4d68 973e e1c4 743e b4cc 22be
00000220: c685 35bc f4f3 a73d f060 8e3e dd14 7a3e
00000230: 7e9a 133e b715 773e 5ad2 9a3c b026 e4bd
00000240: 54b1 223e ddec e53c 3743 62be 367c 823e
00000250: 3de0 613e 0f23 06be 08df 913e d152 1fbe
00000260: 1c33 79be d069 60bc 6779 933c f903 fb3d
00000270: 36e7 473e f8cb 4f3e 72b0 d4bd 04e8 923e
00000280: 3bbc 423e e85a 563d 420b 883d 1210 e4bd
00000290: b398 753e 89fa f13c 8f06 963d 0aba 5d3a
000002a0: 68d8 de3d fd0e 5b3d 5e22 cebd aedd ffbd
000002b0: c3af 74be acf9 22be e5e0 02bd 75f9 813e
000002c0: c4cc 9dbc 934c 92bc 9e1a 86be 3ccd b83c
000002d0: f9c2 5cbe 7b20 16be d788 103e ddec a43d
000002e0: ad66 97be 435d 3e3e 0e92 acbd b47b 69bd
000002f0: 5f69 973e 4ce0 d0bd 57c1 863d 133e c5be
00000300: 13cf 12be 66c3 023e dd19 603d 848d d2bd
00000310: 098b 94bd 5219 a5bd 6ab0 b5bd d8ca 2e3e
00000320: 2f44 85bd f70a 32bd 736c bb3e 18dc 0a3e
00000330: befa 9abe 350c e2be 497e 95bd 2548 3fbe
00000340: 7b99 a33d c813 98be df85 21be b509 dbba
00000350: 4f5d 923d 21ca 90bc 4234 c3be b6f1 d83d
00000360: 7e60 cebd f14a 4d3e 8d0c 53bd ca17 2b3e
00000370: 0683 373e fef9 22be 54ad 8c3e 592a 573e
00000380: 1301 cd3d abef 17be 798a 37be 02be 8dbd
00000390: 72f9 3abd db1a 803c 929e 823e aad7 f8bd
000003a0: f37b 313d 9284 64bd faf7 4b3e c741 673d
000003b0: b4cc 98bc 7e41 01be 344a 7e3d ac72 ddbd
000003c0: 96a7 3b3c c27b 833d 312f 0f3e 39a2 803d
000003d0: 8f31 c3bd 739e 4abe 66b0 50bc d896 113c
000003e0: fe69 20be fe7f 473e 066f 023e f8f4 063e
000003f0: 8fab 853e 6d2d 00be e7fe 823e d94a 33be
0.08629315 -0.17356476 -0.04623095 -0.0730351 0.010104916 -0.1032499 0.10202494 -0.13866623
0.0427749 -0.07570883 -0.04057257 -0.25114757 -0.17581122 -0.15673704 0.079626024 0.018132448
0.03527601 0.2139166 0.119319245 -0.09018302 0.048635468 0.22593148 0.3423286 -0.18897982
-0.16086109 0.032864902 -0.18499221 -0.041387133 -0.31966743 -0.16289914 0.20267919 0.10848114
0.1594593 -0.30013168 0.065955795 0.008798896 0.16755868 -0.31220356 -0.33946443 0.15903552
-0.21672583 -0.27247417 -0.2989485 -0.28874373 0.1362975 -0.22438632 -0.022192862 0.04649003
0.065059155 0.051442623 -0.014460644 0.060494483 0.018458758 -0.29156825 0.13483381 -0.0072629866
-0.14666145 0.23648053 -0.0014498121 0.06252635 0.2328655 -0.33318627 -0.15234639 0.09590474
-0.18241102 0.079977915 -0.13542703 0.10559332 -0.2020046 0.108872294 0.031088158 -0.08351747
0.06751419 0.23711534 -0.07936493 -0.14068007 0.11056452 -0.20418799 -0.1851174 0.19941503
-0.10242104 -0.12442658 -0.05917843 0.10395974 0.13797048 -0.0133351525 -0.06618467 0.1351485
-0.18144737 0.1442897 0.10088436 0.26833245 0.024424287 -0.031885326 -0.05096638 -0.1882009
-0.08965744 0.118878275 -0.0840345 -0.13376695 0.056891043 0.046808124 -0.15685011 -0.20757987
-0.1268795 0.0064084074 -0.11737802 -0.058678526 0.23667939 0.22370042 0.10296458 0.12719227
0.046796814 0.21238026 0.01383062 -0.069285534 -0.12661827 0.1889511 0.37552902 0.049434286
-0.06507912 -0.077257626 0.1915314 0.28524688 0.031928584 0.18148093 0.27308694 0.23593615
0.27652746 -0.14606026 -0.12261604 -0.22237459 -0.09503541 0.29571763 0.23903228 -0.158984
-0.011079257 0.08200827 0.27808332 0.24422021 0.14414403 0.24129377 0.018899132 -0.111401916
0.15887958 0.028067047 -0.22095953 0.2548539 0.22058196 -0.13099311 0.28490472 -0.15558936
-0.24335903 -0.013697103 0.018002225 0.12256617 0.19521794 0.20292652 -0.10385217 0.2869264
0.19017117 0.05233279 0.06642772 -0.11135878 0.23984031 0.02953841 0.0732547 0.0008458203
0.1088112 0.05348109 -0.10065149 -0.12493454 -0.23895173 -0.15915555 -0.031952757 0.25385633
-0.019262679 -0.017858779 -0.26192182 0.0225588 -0.21558751 -0.14660828 0.141147 0.080529906
-0.29570523 0.18590264 -0.08426295 -0.057002738 0.2957258 -0.10199031 0.065798454 -0.3852392
-0.14336805 0.12769851 0.054712165 -0.10280898 -0.07253081 -0.0806147 -0.08871539 0.17069566
-0.065071456 -0.04346749 0.36606178 0.13560522 -0.30269426 -0.44149938 -0.072994776 -0.18679865
0.079882585 -0.29702592 -0.15773724 -0.0016711267 0.071467035 -0.017674508 -0.38125807 0.10592978
-0.10076998 0.20048119 -0.05152564 0.16708294 0.17921075 -0.15915677 0.2747599 0.21012248
0.100099705 -0.1483752 -0.17923917 -0.06921007 -0.045648046 0.015637806 0.25511605 -0.1215051
0.043331098 -0.05579049 0.19918814 0.056459215 -0.018652298 -0.1262264 0.062082484 -0.108128875
0.01145353 0.06420089 0.13982846 0.062809415 -0.09530937 -0.19787006 -0.012737369 0.008886062
-0.15665433 0.19482419 0.12737665 0.13179386 0.2610745 -0.12517329 0.255851 -0.17509021

conv2.lin.weight f4 [1, 16]
00000000: e2a5 983e e9ba b3bd c8bb 903e 0183 40be
00000010: 7358 40be 77a2 66be 804d 08be d494 903e
00000020: 3e86 85be acb9 7dbe 2ba1 143c 63dc 86be
00000030: 9ae5 9f3e 4771 b13e e044 c83d 69d6 e43e
0.2981406 -0.08775885 0.28268266 -0.18799974 -0.1878374 -0.22522913 -0.13310814 0.28238547
-0.2607898 -0.2477786 0.009071629 -0.26340017 0.3122986 0.34656736 0.09778762 0.44694832
