saved_models/gnn_hd_16_od_1_lr_0.01.pth (torch, 5640 bytes, 3 tensors)

conv1.bias f4 [16]
00000000: 72af 3fba cb19 0b3d 06ed d4bd f783 8abd
00000010: f06e 873d d7ab 403d 9290 a5bc ae23 0f3d
00000020: 1ed2 e8bd 822f bc3c 11b7 c5bd 3e41 803d
00000030: 7f16 efbc f454 18bc e4b1 4dbd 0a9d 83bd
-0.0007312215 0.033960145 -0.10396771 -0.067634515 0.066129565 0.04703888 -0.020210538 0.034946136
-0.11368202 0.022971872 -0.09654058 0.06262444 -0.029185532 -0.009297598 -0.050218478 -0.06426437

conv1.lin.weight f4 [16, 48]
00000000: 0d4e 7b3e dce6 983d a463 8bbd 9238 ae3e
00000010: d1a4 77bd 35cd 5c3e f7d6 4abe 6e75 983e
00000020: eb13 f53e 0e80 c53c fa90 6c3e 2599 c3be
00000030: 70ef 0e3e 7745 aebd e565 15be f2bd 00be
00000040: 3753 353e db0d a2bd ff3c 97be 8a48 7bba
00000050: da84 c6bc 7f93 b9be fe81 cbbe 25c8 023d
00000060: 7d1f 7f3c bcda 993c 01ef 33bd 4610 36be
00000070: 581f b0be b955 5d3e 9573 99bc 4df4 39be
00000080: d807 b53e 3640 5f3e 9fd7 413e 0685 8abd
00000090: 3369 fb3c cc39 0a3d a081 9bbe da03 bd3d
000000a0: 65bc 9f3e 9aed 54bc 4a5f db3d 89fa 1ebe
000000b0: 0fdc 393e fc17 bf3c c3dc 5b3c 720c 073e
000000c0: 5dc5 cebd d978 b9be 5a38 81be a4d4 eabc
000000d0: 4557 7dbd 385c 0b3e 1020 603e 4adf f3bd
000000e0: 944d 973d 60f6 143e 70a5 103e 67a4 a03d
000000f0: c207 c63e 2a0b e33e d4d0 0c3e a057 21bb
00000100: fe51 653d 17ef 0fbe 6f9b 183d 0985 0dbe
00000110: 2364 e5bd d7e4 9c3c 8b70 de3d 3582 283e
00000120: d5b9 13be ceb7 9b3e 9d27 ac3e 8f35 87be
00000130: 262a 2b3d e40d cf3d c18b 1bbe 7137 fabc
00000140: bfe7 9f3d 52b9 bcbe 32ec 3dbe 66de bcbd
00000150: fe8b 9dbd 39a9 56bd 2d30 01be d287 a93c
00000160: ac26 523e 6082 653e b7ee 813e 4472 893e
00000170: 7b6b 5cbb 6271 33be b8cc 473e 7319 a2be
00000180: 195b 52be d371 6abd 3c44 143d a81a 053e
00000190: e9f3 6bbe 622c c13e ca84 5d3d 55bc 8c3e
000001a0: 92ef fd3d 7dfa 603d cf24 62be d155 f5bc
000001b0: 60f7 273e 7397 fbbd ad71 0d3e b92a 4f3e
000001c0: 055e 703e ce9c 043e ae98 403e c954 47bd
000001d0: ccfa ddbd c154 53be 709d 50bd adf1 413e
000001e0: 2244 0abc 7430 8cbe dbd2 bcbe 97b7 c4be
000001f0: 4171 dd3d 4e96 c3be fe50 c1be 8b64 3b3d
00000200: ce6c 6fbe d449 d93d 0a4d 97be 0690 22bd
00000210: 6777 153b 3ba5 3cbe 10b1 69be a223 a43d
00000220: 0b06 0cbd 1a9b f1bb 1ecb 0b3e a486 4e3c
00000230: 0259 bcbe 14f8 69be b50f 91be e121 19bd
00000240: 509c 923e 7edb d7bd a010 79be 9f6d b13e
00000250: f783 413c 47fc 9cbb 4002 143e 693c 3e3e
00000260: da84 c8bd f77e 82be 34fd 273e dfe3 ecbd
00000270: 00d9 d13d 0fa8 64be b244 4ebc 0786 0bbe
00000280: 1ee5 273e d898 093b 7774 413e ff8f 033e
00000290: 5ed6 cd3e e4c4 b63d 2eef a53c d334 0a3e
000002a0: a5da 7dbe 3be2 6bbe 0b12 343e 9a35 763c
000002b0: 28a6 3c3d b47e 363e cbaf 96be 7864 833d
000002c0: c096 90be ecba 3c3e b443 433d 692c 393d
000002d0: e692 2d3e 6f97 4cbe 4918 62be 96a7 c63c
000002e0: 7baa 72be 4a92 93bc d3c1 70be db6e 1ebe
000002f0: fd95 3d3e c129 923d de40 3ebe 3dba 92bd
00000300: fd55 23bd ba37 61bd 8f84 5fbd d5d0 2ebd
00000310: 0708 c53d 90cb 5dbe 1295 8bbb cddf bd3d
00000320: 8a8f 7b3d 6946 f0ba 6c23 64bd a648 763d
00000330: 4ca8 7f3c 2a4b f4be 82c8 7abe 0a14 053e
00000340: fd7e 593d 5758 90bd ffbc 0c3e bba9 19be
00000350: 3c15 523d aee7 003e c77e acbd bec7 cc3d
00000360: 6370 173e 24d1 f43c 5350 103e 311b a03e
00000370: d712 5d3e 1a57 263e cf9c 14be 3cba 73bd
00000380: f543 f8bd eb43 893e 63d9 563e 2bee e1bd
00000390: db8e 913e 742f 853e 9a0a 373e f3c6 4bbe
000003a0: 19b6 21be 578d 953d e6f8 ca3d 88e5 cebd
000003b0: 356f 253e db01 893e 48dc 07be 7f2a e8bd
000003c0: 9645 353d 9147 3abd b0b7 183e 5a1b ac3d
000003d0: 37bb 2ebc 8155 713e 2288 44be 2084 273e
000003e0: 93a8 2f3e 1688 a8bc 6365 d4bd b877 a5bd
000003f0: a5ef 883e c803 bb3e 02dc efbd ff77 7bbe
0.24541493 0.07465908 -0.06806114 0.34027535 -0.060459916 0.21562655 -0.19808565 0.29777092
0.4786676 0.024108913 0.23102179 -0.38202778 0.13958526 -0.08509343 -0.14589651 -0.12572458
0.17707525 -0.07912799 -0.29538724 -0.00095856993 -0.02423327 -0.36245343 -0.39747614 0.031929154
0.015571472 0.018781058 -0.043929104 -0.17779645 -0.34398913 0.21614732 -0.018731872 -0.181596
0.35357547 0.21801838 0.18929909 -0.067636535 0.030689811 0.033746526 -0.30372334 0.0922925
0.3119842 -0.012996102 0.10711534 -0.15525259 0.18150352 0.023326866 0.013419333 0.13188341
-0.10096238 -0.36225012 -0.25238305 -0.028665848 -0.061850805 0.13609397 0.21887231 -0.119078234
0.07387844 0.1454711 0.1412561 0.07843857 0.38677794 0.44344455 0.13751537 -0.002461888
0.055986397 -0.1405605 0.037257608 -0.1382028 -0.1120074 0.019152088 0.108613096 0.1645592
-0.14426358 0.3041367 0.33623973 -0.2640805 0.041788243 0.10110071 -0.1519003 -0.030544015
0.07807874 -0.36860138 -0.18547133 -0.09222107 -0.07692717 -0.052407477 -0.12616034 0.020694647
0.20522565 0.22413015 0.25377437 0.2684499 -0.00336334 -0.17523721 0.19511688 -0.3166004
-0.20542563 -0.057237457 0.036197886 0.1299845 -0.23042263 0.37729174 0.054081716 0.27487436
0.1239921 0.054926384 -0.22084354 -0.029948147 0.1640296 -0.12284746 0.13812895 0.20231141
0.23473366 0.12950441 0.18808243 -0.04866484 -0.10838851 -0.206378 -0.050931394 0.18939848
-0.008439096 -0.27380717 -0.3687962 -0.38421318 0.10812617 -0.3820061 -0.37757105 0.045750182
-0.2338135 0.10609785 -0.29550964 -0.039688133 0.0022806765 -0.18422405 -0.2282145 0.08014609
-0.03418545 -0.007373226 0.13651702 0.012605343 -0.36786658 -0.2284854 -0.28332296 -0.037385825
0.28634882 -0.10539912 -0.24322748 0.34653947 0.011811248 -0.004790816 0.14453983 0.18577732
-0.097909644 -0.2548749 0.16405183 -0.115669005 0.102464676 -0.22329734 -0.01258962 -0.13625346
0.16395995 0.0020995643 0.18892084 0.12847899 0.40202612 0.08924273 0.020255651 0.13496713
-0.24790438 -0.23035519 0.17585008 0.015027428 0.046056896 0.17821771 -0.29430994 0.06415647
-0.28240013 0.1843068 0.04767199 0.04520837 0.16950569 -0.19979642 -0.22079577 0.024249833
-0.23697846 -0.018014092 -0.23511438 -0.15471976 0.18514247 0.0713687 -0.18579432 -0.071644284
-0.039876927 -0.054984786 -0.054569777 -0.042679626 0.09620672 -0.21659684 -0.004259714 0.09271202
0.061416186 -0.0018331531 -0.055697843 0.060127877 0.01560409 -0.47713596 -0.2449055 0.12995926
0.05309962 -0.070480995 0.13743971 -0.15006153 0.051289782 0.12588379 -0.08422618 0.09999035
0.14788966 0.029884882 0.14093141 0.31270745 0.21589218 0.16244164 -0.14512943 -0.05950378
-0.12122337 0.2680963 0.20981364 -0.11031755 0.28429303 0.26012766 0.17875138 -0.19900112
-0.15792121 0.07302349 0.09910755 -0.10102373 0.16155703 0.26759228 -0.13267624 -0.113362305
0.044255815 -0.045478407 0.14913821 0.084036544 -0.010664753 0.23567773 -0.19192556 0.16358995
0.1715415 -0.020572703 -0.103709005 -0.08079475 0.26745334 0.36526322 -0.11711885 -0.24557494

conv2.lin.weight f4 [1, 16]
00000000: bfba c6bd f943 5d3d 85ae 19bc e7e3 50bd
00000010: 46e3 c2be af5d 833e 946e 65bd 3345 ea3e
00000020: 0e4f a23e 596b 2fbe c3be 04bd 4b84 b7be
00000030: eb0f ac3e 99ec 3abe 6aa0 113e 3cd0 3b3e
-0.09703588 0.054019902 -0.009379988 -0.050998595 -0.3806402 0.25657412 -0.05601366 0.4575592
0.3170094 -0.17130794 -0.032408487 -0.3584312 0.33605894 -0.18254317 0.1422135 0.18341154
