saved_models/gnn_hd_32_od_1_lr_0.01.pth (torch, 8840 bytes, 3 tensors)

conv1.bias f4 [32]
000000 f0 41 82 3d ee 75 1d bd 7f b3 d5 bd 67 71 ba 3c
       0.06360233 -0.038442545 -0.10434627 0.022759153
000010 b8 58 0e be fc f5 be bc d2 2f 08 bd 3e 6f c5 3a
       -0.13901031 -0.023310654 -0.03324873 0.001506306
000020 b6 54 25 3e 19 74 a8 bd b2 56 42 bd 07 a4 1f 3d
       0.16145596 -0.08225269 -0.04744596 0.038974788
000030 43 cb ff bb 1a 1f 91 3c 2c 97 30 3c cc bb 31 3c
       -0.007806213 0.017715026 0.01077823 0.010847997
000040 37 72 63 3d 98 3c 68 bd 14 03 cd 3c ac be d5 3d
       0.055528846 -0.05669841 0.025025882 0.104367584
000050 b6 12 8f bd 9b d3 98 3d cd 5f c2 bd 4b 29 f3 bc
       -0.06985991 0.074622355 -0.09490929 -0.029682776
000060 75 6e 1f 3e 02 3b 9e 3d 92 88 30 3d 2e ea 07 bd
       0.1556948 0.077260986 0.043098994 -0.033182316
000070 9b ef 82 3d 25 10 8e bd b5 60 8c 3b 00 5c d3 3d
       0.06393357 -0.06936673 0.0042839893 0.10320282

conv1.lin.weight f4 [32, 48]
000000 67 b0 e0 3d f3 f3 02 be cc 92 65 bd 8b 57 f4 3d
       0.10971146 -0.12788372 -0.0560482 0.1193076
000010 c6 ac ea 3d 58 01 2d 3e 33 77 18 3e e5 be f8 3d
       0.11458735 0.16895044 0.14889221 0.12145785
000020 ad 22 69 3d 71 ac c6 bd f7 84 96 bd 0c 63 77 bd
       0.056917835 -0.09700859 -0.0734958 -0.060397193
000030 3f 09 25 3e d1 b2 60 3d f4 56 23 3e 66 33 7d bd
       0.16116808 0.054858033 0.15951139 -0.061816595
000040 b9 b8 96 bd a4 99 a5 3d e8 c8 d5 3d 40 27 23 3c
       -0.07359452 0.08085945 0.104387105 0.009958088
000050 e4 d6 a9 bd 12 f3 ba bd 3c 03 a2 3e 8c 6d 30 be
       -0.0829294 -0.09128393 0.31643093 -0.17229289
000060 61 fe ba bc 86 f6 8a 3e 4b 13 1c 3c 37 89 73 be
       -0.022826375 0.27141207 0.009526084 -0.23782812
000070 d0 72 70 3e a8 f0 46 3e 73 78 20 3d 48 f4 a7 bd
       0.23481297 0.1942774 0.03917737 -0.0820089
000080 f9 3a 6c 3d b0 97 c9 39 25 dc bd 3d 21 8c e5 bd
       0.05767343 0.00038450724 0.09270505 -0.11208368
000090 f6 c8 5d bd 27 f8 50 be 70 76 4b be 1f c9 4f bd
       -0.05414673 -0.20407163 -0.19869399 -0.050728913
0000a0 52 f5 db bc 30 be 26 bd 4e f9 7b be b1 8b 3d be
       -0.026850376 -0.04070872 -0.24606821 -0.1851032
0000b0 0f 96 24 be fb df 38 bd 24 b1 8d 3d b7 0a 2c be
       -0.16072868 -0.04513548 0.069185525 -0.16800962
0000c0 ed 2d a9 3d 59 0b 43 be 8f 38 6a 3e be 3a 16 be
       0.08260713 -0.19047298 0.22873138 -0.14670846
0000d0 37 0f 52 3e d6 3c 20 3e 51 e8 d7 bd ed 1d f4 3d
       0.20513617 0.15648207 -0.10542358 0.119197704
0000e0 55 57 ba bd 5e 4f 63 bd 3c 28 f1 bd de 14 51 be
       -0.090986885 -0.055495612 -0.11775252 -0.20418116
0000f0 b7 16 fe 3d 53 d1 46 be 5b ae 9c bd 69 29 8d 3d
       0.12406676 -0.19415788 -0.07650443 0.06892664
000100 23 c5 c4 bd 64 cf db 3d 6d d9 0c be d8 cf 14 b9
       -0.09607913 0.10732916 -0.13754816 -0.00014191808
000110 08 1d 7f 3e 8f 16 90 be ee be 9b bd b6 8d 18 3e
       0.24913418 -0.2814221 -0.07604776 0.14897808
000120 5f 24 1b bd b8 10 ac 3d 1c 3a 49 3d 9f b5 c2 3d
       -0.037876483 0.08401626 0.049127683 0.09507298
000130 7e ef 47 3e cc 8b 89 be c8 91 46 be 8d e6 70 3e
       0.19524953 -0.2686447 -0.19391549 0.23525448
000140 a6 9e 98 be f6 60 fe 3d 12 c4 49 be 82 b2 e1 3d
       -0.2980854 0.124208376 -0.19703701 0.11020376
000150 15 14 99 be 28 a9 a7 3d da 38 3e be 90 e4 3f 3e
       -0.29898134 0.08186561 -0.18576375 0.18739533
000160 dd 90 32 3e da 8c cd bd bc ee 83 be ab 23 83 bd
       0.17438073 -0.10036631 -0.25768077 -0.064032875
000170 76 08 90 3d 10 40 77 be 75 57 a1 3c 17 1e 03 be
       0.07032864 -0.24145532 0.019695023 -0.12804447
000180 ca d1 a3 3d cd 40 9c 3c b1 16 ee bd 7e 63 58 3e
       0.079989985 0.019073868 -0.11625422 0.21131703
000190 65 24 9d bd a1 3d a9 bd 83 53 ba bd c5 ff 53 3e
       -0.07672957 -0.08263708 -0.0909796 0.20703037
0001a0 3d b1 59 bd d1 0f 36 3e 98 a9 3c be e0 c0 26 3e
       -0.053147543 0.17779471 -0.1842407 0.16284513
0001b0 42 e7 94 bd 91 5e ad bd 5c 05 8a 3c c0 6c 6a 3e
       -0.072706714 -0.08465303 0.016848259 0.22893047
0001c0 c3 0c 58 3e 10 23 4b be b2 c8 36 3c 66 fb 61 3d
       0.21098618 -0.19837594 0.011156248 0.055171393
0001d0 8d 23 7f be f0 43 1d 3d 7d 0b b1 3d 7e 2f e4 bd
       -0.24915905 0.03839487 0.08644769 -0.11141871
0001e0 27 97 0a be b9 95 d8 bc c7 20 82 be 71 89 27 be
       -0.13534223 -0.02643858 -0.25415632 -0.16361023
0001f0 86 74 80 be 87 97 5e be b0 24 9d be b8 aa 74 be
       -0.250889 -0.2173749 -0.30692053 -0.23893249
000200 96 b2 42 be d5 46 ec bc df b9 74 be c9 08 1f be
       -0.19013438 -0.02884237 -0.23899029 -0.15530695
000210 85 95 7c 3d fa 32 79 be be 78 07 be a5 d5 8d bd
       0.06166603 -0.24335852 -0.13229653 -0.06925515
000220 89 2c ca bd a5 51 30 3d 60 c7 b4 3d 60 57 5d be
       -0.09871776 0.043046612 0.0882709 -0.21615362
000230 43 df 08 be 4d 62 b8 be 93 e5 a3 be 7f 58 52 3c
       -0.13366418 -0.36012498 -0.3201109 0.012838482
000240 18 ea 21 be bb 73 28 3e 4a 40 1f be 87 d6 9b bd
       -0.15811956 0.16450398 -0.15551868 -0.07609277
000250 a0 95 52 3d 80 18 88 bd a6 a9 8f bd ce ca 76 be
       0.051412225 -0.06645298 -0.0701478 -0.24100801
000260 1f 0f 99 bd a4 ac 83 bd 3f 8d d2 3c 65 b0 03 bd
       -0.07473587 -0.06429413 0.025702117 -0.032150645
000270 17 ad c9 bd 4e 0d 4e 3e 8f ef 23 3d 46 61 b6 3c
       -0.098474674 0.20122263 0.040023383 0.02226318
000280 2b c5 ee 3d 87 a1 30 3e 56 5a 57 3c 01 9f 32 3c
       0.116587006 0.17249118 0.013144096 0.010902167
000290 d3 6c af 3d 25 8f ef bd 17 95 df 3d c6 24 58 3e
       0.085656784 -0.116972245 0.109171085 0.21107778
0002a0 be f6 73 3d db a7 aa bd 3f f0 64 3e 19 46 20 be
       0.059561484 -0.08332797 0.22357272 -0.1565174
0002b0 dc 8a 4d bb 17 44 fd 3d 3c e2 28 bb 17 1a 34 3e
       -0.0031363284 0.12366503 -0.0025769612 0.17588077
0002c0 8d d4 e8 bd a4 9a a9 3d 03 c4 c6 3d 7c dc 14 3e
       -0.11368666 0.082814485 0.09705355 0.14537233
0002d0 74 df d6 3d 2c c7 37 3e 1d 92 77 be ef 41 3a 3e
       0.10491839 0.17947072 -0.24176832 0.18189214
0002e0 e1 aa 85 3d d3 99 94 3d 02 4f 9b 3d 95 f3 24 3e
       0.06526733 0.07255902 0.07583429 0.16108544
0002f0 80 4c 4c 3d af 6d ad bc 97 c7 d6 3c 6e 1a 36 be
       0.049877644 -0.021170465 0.026218219 -0.1778352
000300 97 32 3d bd b9 53 d6 bc e2 d4 e3 3d 99 bd ca 3d
       -0.046190824 -0.026162969 0.111245885 0.09899444
000310 a2 4e 88 3c b9 9d 6f bd 98 52 db bc 93 a8 83 3d
       0.016639058 -0.058500025 -0.026772782 0.06428637
000320 5a 03 0b 3d 52 fd 3b be 9c 0d 55 bb ac 76 1f be
       0.033938743 -0.18358353 -0.0032509333 -0.15572613
000330 9f de 29 be 49 ab 8d 3d 23 21 05 3d 13 e9 3a 3e
       -0.1658883 0.06917436 0.032502305 0.18252973
000340 43 84 2b ba d4 4b 20 3e f8 e1 bc 3d 62 25 31 3d
       -0.0006542841 0.15653926 0.092227876 0.04324854
000350 23 b6 92 bd b3 2a 04 be 75 29 ba 3a 27 da 9e 3d
       -0.07163646 -0.12906913 0.0014203029 0.07756453
000360 a6 a0 cb bd 65 54 17 3e 86 a4 b4 3c ee 32 a0 bc
       -0.09942751 0.14778288 0.022051107 -0.019555535
000370 65 5f 7f be 79 2e 99 be 6f bd af be 05 48 6f be
       -0.24938734 -0.29918268 -0.34324214 -0.23367317
000380 70 b6 a5 be 40 4f 96 be 15 54 46 be e0 21 71 bd
       -0.3236575 -0.29357338 -0.19368012 -0.058870196
000390 f6 c3 23 be 0d f8 a0 bc 17 ef a0 3c 53 6f 3d be
       -0.15992722 -0.01964953 0.019645257 -0.18499498
0003a0 80 33 c3 be 4b 60 9c be 86 87 19 be 93 23 80 3c
       -0.3812523 -0.30542216 -0.14993104 0.015641963
0003b0 09 a8 e1 bd 87 b7 95 be 8b db b8 be 94 61 f5 bd
       -0.11018378 -0.29241583 -0.36104998 -0.11981502
0003c0 c3 b8 ac bd a8 cd 22 bb 0a 16 31 be c1 6a 52 3d
       -0.08433678 -0.002484182 -0.17293563 0.05137134
0003d0 bf 39 d2 3a 70 8b 0d be 7c 5e 32 be 19 ed 4c 3e
       0.0016038938 -0.13822722 -0.17418855 0.2001232
0003e0 e4 11 d3 bd 4c a3 f4 bc c1 3f ce 3d 87 d3 bb bd
       -0.10306147 -0.029863022 0.10070754 -0.09171205
0003f0 80 08 75 be 67 dc 69 3c 6a bc 33 bd 5a bd e2 3c
       -0.23929024 0.014273739 -0.043880858 0.02767818

conv2.lin.weight f4 [1, 32]
000000 29 87 5b 3e 2e 67 1c 3b 55 28 29 bd 8c 4c 5b 3e
       0.21438278 0.002386521 -0.04129823 0.21415919
000010 90 6f 39 be 11 45 fc bd bd b9 71 3d 07 97 09 be
       -0.18108964 -0.12317861 0.059015024 -0.13436519
000020 bb f7 8b be c0 7a ff bc 58 56 24 be b0 69 dd 3d
       -0.2733744 -0.031186461 -0.16048563 0.10811174
000030 6a 13 fa bd 69 00 2a 3e 3c b0 65 3d 55 74 42 be
       -0.12210734 0.16601719 0.056076273 -0.1898969
000040 d5 4c a1 bd 1a 1a 05 3d 15 de cf 3d de 28 94 be
       -0.07875983 0.032495596 0.10149781 -0.2893743
000050 54 8f 3c 3e da da 0a 3e 78 b0 86 3e a0 34 0e 3e
       0.1841405 0.13560048 0.2630651 0.13887262
000060 a4 fb ad 3e 2e 7f 95 bd d5 c5 95 3e 27 18 8e 3e
       0.3398105 -0.07299648 0.29252496 0.27752802
000070 06 1b 72 be 9b 00 e6 bd a8 3d 24 3e 30 1e 87 be
       -0.23643121 -0.11230584 0.16039145 -0.2639022
