saved_models/polynomial_regression_deg_2_lr_0.001.pth (torch, 2182 bytes, 1 tensors)

output.weight f4 [1, 96]
00000000: 4fd7 673a f8ed e4bb f839 253c 99e7 0f3b
00000010: 37ca a33a bc4e 11bd 3cc5 70bd 0daa d938
00000020: 8bcc a33b 2e55 6438 e18d debb 6db8 88bd
00000030: 5065 c13c 8be2 103f da7f c23c d1c2 a639
00000040: 93ca aa3a e5d2 deba 39d2 a6b9 cfb2 7dbb
00000050: f15a 61bb 2b37 0d3d 7806 3c3e e9f1 eabc
00000060: eb96 603b cb45 e43d 8035 343d 1f21 043d
00000070: e5ae 13be e82b 6fbd ea52 d13d 7c00 f93d
00000080: 25f5 06be 2568 2fbe 9468 77be 5b92 6ebd
00000090: 1394 b4bc 76a9 25bc dd6b cd3b 87a1 2c3e
000000a0: c920 be3c 17d2 c5bc 29fe b43c 25b1 afbd
000000b0: a401 d1bc 3e35 42be f9a5 bfbd a2d5 133d
000000c0: 9258 47ba 0b60 15bb f13e 44bc 06cd 39be
000000d0: 2f9f 3939 43d5 003c bf6b a03a a722 dc3a
000000e0: 4287 ebbd 5929 8938 1b2f b33a b542 a63c
000000f0: d44f 713e 5996 2f3e a1de f8bb b2b0 3a3a
00000100: e98c ff3a 964b 983a 62d0 06bb ea08 693e
00000110: 32d7 fe39 13e9 51bb 7622 28bd 4604 453c
00000120: 155b 01b9 af53 5abd 41ee febd 951a ebbd
00000130: 7c07 7c3d a040 c3bc 9a3d c93c 47d7 e73b
00000140: e27c 863e 3b4e 863c 4852 b83d 75bd cabd
00000150: cbde f1bd 4caa f4bd 5bac 0fbd c31a 4abe
00000160: 6beb 67bd 19b3 233e 354a e73d 9863 613e
00000170: 2fd0 e7bd 9ac0 673d 3be5 2abd 2849 2ebe
0.0008844034 -0.006986376 0.010084622 0.0021958111 0.0012496178 -0.035475478 -0.058781847 0.00010379041
0.0049987487 5.4438766e-05 -0.0067918156 -0.066758014 0.02360788 0.5659568 0.023742605 0.00031807137
0.0013030343 -0.0017000107 -0.00031818615 -0.0038711315 -0.003438648 0.03447644 0.18361843 -0.028679805
0.0034269642 0.111461245 0.043996334 0.03225815 -0.14422186 -0.05839148 0.10220893 0.121582955
-0.13179453 -0.17129572 -0.24160987 -0.058245044 -0.022043264 -0.010111203 0.006268962 0.16858493
0.023208993 -0.02414803 0.02209385 -0.085787095 -0.025513478 -0.18965623 -0.09357829 0.036092408
-0.00076044456 -0.0022792842 -0.011977897 -0.18144616 0.00017702275 0.007863346 0.0012239142 0.0016794995
-0.11500408 6.540371e-05 0.0013670655 0.02029548 0.23565608 0.17147197 -0.007594899 0.00071216666
0.001949695 0.0011619206 -0.0020570983 0.22757307 0.00048606988 -0.0032029792 -0.04104849 0.012024945
-0.0001233633 -0.053302463 -0.12447787 -0.114796795 0.061530575 -0.023834527 0.024565507 0.0070752236
0.26267153 0.016394725 0.09000069 -0.09899417 -0.118100725 -0.11946544 -0.03507648 -0.19736771
-0.056620996 0.15986289 0.11293451 0.22010648 -0.11319005 0.056580164 -0.041722517 -0.17020094
