saved_models/polynomial_regression_deg_3_lr_0.001.pth (torch, 2374 bytes, 1 tensors)

output.weight f4 [1, 144]
00000000: 7ab9 c23c ce00 c7bb 9496 c23b fdc3 07bd
00000010: 145d 9dbd e8e9 91bb f590 ce3d 8d98 a03d
00000020: f7a4 093d 2302 7dbd 8222 1c3d 3c3e 3a3d
00000030: 2acb 57be cf21 3d3e d155 21bd 7912 90bc
00000040: d3c7 593c 6fbf fd3a 771f 2abb 6ba6 03be
00000050: 6686 61bd efa1 f83c df38 883e 2d0f 6c3d
00000060: 5260 863b afde 773d 3e3f d4bc cae4 86bd
00000070: 5cb1 0c3e 0c49 85bc 225f 9dbd 1da9 6e3e
00000080: 5277 283e 882e 01bd dee6 e7bd 8542 f0bc
00000090: 5d66 f7bd a0b3 05be b933 a03d e238 603e
000000a0: bec4 563c ea1a be3d 0c26 0abe 5665 1d3d
000000b0: 7465 f7bd 975a d839 79ec 7bbe d60b 29be
000000c0: 788b 92bc f159 ffbb acb7 7b3d 83c6 463e
000000d0: f770 1e3c 4e78 bdbc 0073 2c3e 85b9 593c
000000e0: 20da 84bd 1e84 08bc 2ea9 103e 9501 4cbd
000000f0: faea 963d 3765 8abd 5f6d 0ebb 7c3d f0bc
00000100: 755e 973c 32f0 cc3c 8b3c 893c a60f 6dbd
00000110: 8ab3 27bd 39e7 c6bb 5f6c ecbd 3b9b 64bd
00000120: 33f6 86bc 9ab1 bebd 13d2 443d 3db9 f03d
00000130: 782a dbbd edfc 56bd a72d 093e 10a7 c6bd
00000140: b73e 94bd 86f6 023d 79bb 233d 7b1f 7bbc
00000150: bb77 233e e75b cc3d ce26 fa3d 6ab6 10be
00000160: 474d cd3d 8003 06be 2529 683c e35c aebc
00000170: 72a2 b9bd e189 21be 70e3 efbd 6982 663d
00000180: 9ec3 47bc e68e e83b 4adf e1bc 6fb1 fa3c
00000190: c1a2 1b3d 7487 123d d746 32bd c942 1ebd
000001a0: a079 07bd 66c3 7e3c c1fa afbc d11c d23b
000001b0: 552c 063e 5b37 97bc 0d9a 1bbd 1591 273c
000001c0: 0454 a7bb 2c5f 3bbb ebff fe38 a26d 693d
000001d0: 28db 163d 85aa 1cbd a427 1e3e ecb7 0d3d
000001e0: eb8d eebb c48a 1d3e 238e 5a3c dc97 56bc
000001f0: ccd3 f63b 3e9c d53d d32e f8bb 426a babd
00000200: d3c0 42bd d25f 10bc 4f24 903d 19ff f73c
00000210: c8aa 21be feab 5d3d e23a 51be e1e7 9cbd
00000220: 26cb 01be 93f1 c73d b0ec 363e 7497 2d3d
00000230: e710 4bbc e304 7bbd 733c 1b3e 7315 e6bd
0.023770083 -0.006073094 0.0059383605 -0.033145893 -0.07683769 -0.0044529326 0.10086242 0.07841597
0.03360459 -0.061769616 0.038118847 0.045469508 -0.21073595 0.18469928 -0.03938848 -0.017586933
0.013292271 0.001935942 -0.0025958696 -0.12856452 -0.055059813 0.030350653 0.2660589 0.05763166
0.0041008377 0.060515102 -0.025909062 -0.06586607 0.13739532 -0.016270183 -0.07684161 0.23306699
0.16451767 -0.031538516 -0.11323331 -0.029328594 -0.12080071 -0.13056803 0.07822365 0.21896699
0.01310843 0.09282477 -0.13491076 0.03842672 -0.120798975 0.00041266225 -0.24601926 -0.16508421
-0.01788877 -0.0077927043 0.06145446 0.19411664 0.009670488 -0.023128655 0.16840744 0.01328886
-0.064869165 -0.00833228 0.14127037 -0.049806196 0.07369037 -0.067575864 -0.002173267 -0.029326193
0.018477658 0.025016878 0.016752502 -0.05787625 -0.040942706 -0.0060700444 -0.11544108 -0.0558121
-0.016474819 -0.093112186 0.048051905 0.117540814 -0.1070146 -0.052487303 0.13396321 -0.096998334
-0.072385244 0.031973384 0.03997371 -0.01532733 0.15963642 0.099784665 0.12214433 -0.14132085
0.10024505 -0.13087273 0.014169966 -0.021284526 -0.09064187 -0.15775253 -0.11713302 0.056276713
-0.012192635 0.007097113 -0.027572293 0.030602185 0.03799701 0.03577371 -0.04352459 -0.03863791
-0.033074975 0.015549516 -0.021481873 0.0064121266 0.13102849 -0.018459013 -0.03798871 0.010227461
-0.005106451 -0.0028590662 0.00012159332 0.05698932 0.036830097 -0.038248558 0.15444809 0.03459923
-0.0072801015 0.15384966 0.013339552 -0.0130977295 0.0075325724 0.104301915 -0.0075739413 -0.09102298
-0.047547173 -0.008811908 0.07038175 0.030273007 -0.15787804 0.054119103 -0.20432618 -0.07661415
-0.12675151 0.097628735 0.17863727 0.042380765 -0.012394167 -0.061283957 0.15159778 -0.1123456
