saved_models/polynomial_regression_deg_3_lr_0.001.pth (torch, 2374 bytes, 1 tensors)

output.weight f4 [1, 144]
0	0xbbb59def	-0.005542509
1	0xbd1c8b1e	-0.03821861
2	0x3d3f5f42	0.046721704
3	0x3c81da3a	0.015851129
4	0x3ad2aa48	0.0016072476
5	0xbd00bbb9	-0.031429026
6	0x3c6d7743	0.014493766
7	0x3cec65c1	0.028857114
8	0x3d6222c3	0.055208933
9	0x3d54c6ad	0.051947284
10	0xbdfeb2c3	-0.1243644
11	0xbe18d1d2	-0.1492379
12	0x3d428835	0.04749318
13	0x3ec0247f	0.37527844
14	0xbc67c0d6	-0.014145097
15	0xbc1b08a0	-0.009462506
16	0x3cb26a3b	0.02177917
17	0xbca78bdf	-0.020452438
18	0x3df0a129	0.11749489
19	0xbdaa8ed9	-0.08328027
20	0xbb9f8ab3	-0.004868829
21	0xbd4ccbbd	-0.049998987
22	0x3e0ef131	0.13959195
23	0xbd8f703d	-0.0700383
24	0x3dfbc6fa	0.12293811
25	0xbb874292	-0.004127809
26	0x3ddf9584	0.1091719
27	0x3dfde267	0.123966984
28	0xbe17e967	-0.1483513
29	0x3d812ccc	0.063073725
30	0x3d76015c	0.06005989
31	0xbd8c4d14	-0.06850639
32	0xbdb1767f	-0.086651795
33	0xbdcd87c7	-0.10035663
34	0x3e1707a5	0.1474901
35	0x3e248d7c	0.16069597
36	0xbbab8862	-0.005234764
37	0x3db0f792	0.0864097
38	0xbdce781f	-0.10081505
39	0xbda65538	-0.08121723
40	0xbd87339c	-0.066016406
41	0xbd84d6f2	-0.0648631
42	0xbd51a6fb	-0.051184636
43	0xbdb4b14b	-0.088228785
44	0xbdcadff6	-0.099059984
45	0xbe192e73	-0.14959125
46	0xbdef1d4a	-0.11675508
47	0x3cf8141c	0.030283026
48	0xba5b02ae	-0.00083545863
49	0xbb8f0f00	-0.004365802
50	0x3d1e5c7a	0.03866241
51	0xbd0a2098	-0.03372249
52	0xb8f96628	-0.00011892273
53	0xbd52a98a	-0.051431216
54	0x3d5b8e67	0.053602602
55	0x3a0fcfdf	0.00054859923
56	0x3d929b41	0.071585186
57	0x3a919383	0.0011106584
58	0x3c1f0c79	0.009707564
59	0xbd8a0bff	-0.06740569
60	0xbcb9660d	-0.02263167
61	0xbdb2b2b6	-0.08725493
62	0x3e132e62	0.14373162
63	0x3a8b1248	0.0010610307
64	0x3a5176aa	0.00079903996
65	0xba9b3097	-0.0011840042
66	0xbac7a2d5	-0.0015231023
67	0x3e1a5797	0.15072475
68	0xbc949b2c	-0.018140398
69	0x3cfb0764	0.030643173
70	0xbd2d4df3	-0.042310666
71	0xbe3c7f50	-0.18407941
72	0x3c7d42f8	0.015457861
73	0xbe1831f0	-0.148628
74	0xbdef8d2d	-0.11696849
75	0x3d9e5919	0.07731838
76	0x3e0dccde	0.13847682
77	0x3cb76160	0.0223853
78	0xbd23cf0f	-0.03999239
79	0x3dc55c8d	0.09636793
80	0x3e325b1f	0.17417572
81	0x3e230e3d	0.159234
82	0xbe7c0fa9	-0.24615349
83	0xbe181690	-0.14852357
84	0x3e1e8cb1	0.15483357
85	0xbd0780c6	-0.033081792
86	0xbdaf20f5	-0.08551208
87	0x3e05a30f	0.13050483
88	0x3d01c987	0.031686332
89	0x3d00712c	0.03135793
90	0x3d84ee09	0.06490714
91	0x3e1a24be	0.15053079
92	0xbd41cbbd	-0.04731344
93	0xb8f433ba	-0.000116444615
94	0x3e356114	0.17712814
95	0x3cf67298	0.03008394
96	0x3b42cd64	0.0029724473
97	0x3cb4a9c1	0.022053601
98	0xbd22990d	-0.03969674
99	0xbc70e30b	-0.014702569
100	0xba602808	-0.0008550887
101	0x3d677b95	0.05651434
102	0xbc72fae0	-0.014830321
103	0xbc698bb5	-0.0142545
104	0xbd5991eb	-0.053117674
105	0xbc2f7fbc	-0.010711607
106	0x3a31f024	0.0006787798
107	0x3c85fdbd	0.016356343
108	0x3e1f7873	0.15573291
109	0x3da707a6	0.08155756
110	0x3bb705e9	0.0055854213
111	0x3ba0cd35	0.004907275
112	0xbc280f45	-0.010257547
113	0x3c117bb5	0.008879592
114	0xbd763c95	-0.06011637
115	0x3e2568d2	0.16153267
116	0x3bcf3ac8	0.006324146
117	0xbc232f7e	-0.0099600535
118	0x3d3e3c93	0.046444487
119	0x3d8007da	0.062514976
120	0xbc065b42	-0.0082004685
121	0xbd8742bf	-0.06604528
122	0x3df62d40	0.120203495
123	0xbdb1748e	-0.08664809
124	0x3df6ce29	0.12051041
125	0x3cea1c53	0.02857796
126	0x3ba2ac68	0.0049644
127	0xbb8e5342	-0.004343421
128	0xbd8396fe	-0.06425284
129	0xbde3b89f	-0.11119198
130	0x3d47efb1	0.048812572
131	0xbd8ec2e3	-0.069707654
132	0xbdafba05	-0.08580402
133	0xbe0f6ea0	-0.14007044
134	0x3e17691f	0.14786194
135	0xbdad534f	-0.084631555
136	0xbbf55d3a	-0.00748792
137	0x3cb43c58	0.02200143
138	0xbcd9c305	-0.02658225
139	0xbd9937f8	-0.07481378
140	0x3dd1d225	0.1024516
141	0x3de11a2a	0.109913185
142	0xbdcf0766	-0.10108833
143	0xbdd623fd	-0.10456083
