saved_models/polynomial_regression_deg_1_lr_0.001.pth (torch, 1990 bytes, 1 tensors)

output.weight f4 [1, 48]
0.0035341964 -0.0007199738 0.00043470343 0.00054032117 -0.018796977 -0.035469048 -0.060875207 -0.00021215233
-0.0023608455 0.003750225 0.07801127 -0.0017318532 0.37274274 0.6306043 -0.022888629 0.00036555802
0.018589733 8.0989026e-05 0.021483136 0.035964075 -0.0015163935 0.034168366 0.16902238 0.022690063
-0.08127885 -0.23834966 -0.005799149 0.015946873 0.018785395 0.018623795 -0.075097196 -0.07073255
-0.07308161 -0.13540083 -0.13050094 -0.13400078 -0.013009111 -0.07969258 -0.0091128275 0.004884124
-0.05212532 -0.0249673 -0.0081568435 -0.006220476 0.055271506 0.08131252 0.07871859 0.08298826
00000000: fa9d 673b a0bc 3cba e8e8 e339 57a4 0d3a
00000010: 1efc 99bc fe47 11bd 4858 79bd 3575 5eb9
00000020: 6ab8 1abb 56c6 753b 5fc4 9f3d 5aff e2ba
00000030: 23d8 be3e 496f 213f ef80 bbbc 5ea8 bf39
00000040: 7f49 983c a7d8 a938 67fd af3c 114f 133d
00000050: b9c1 c6ba 21f4 0b3d 3414 2d3e 83e0 b93c
00000060: 8775 a6bd ef11 74be ca06 bebb 04a3 823c
00000070: d4e3 993c ee90 983c 8fcc 99bd 3adc 90bd
00000080: d0ab 95bd 84a6 0abe 0aa2 05be 8037 09be
00000090: 2b24 55bc dd35 a3bd f84d 15bc 000b a03b
000000a0: 5c81 55bd 3988 ccbc 48a4 05bc 22d5 cbbb
000000b0: 6064 623d 2e87 a63d 3637 a13d c0f5 a93d
