saved_models/tab_transformer_ed_32_nh_4_nl_2_lr_0.001.pth (torch, 86626 bytes, 27 tensors)

embedding.weight f4 [32, 48]
000000 08 f6 94 bd a6 a3 3f bd 77 ab aa bd 15 07 12 3d
       -0.07273489 -0.046786927 -0.083334856 0.035651285
000010 1f 61 0d be 24 80 16 3d f3 d2 48 3e e8 d7 49 3d
       -0.1380658 0.0367433 0.1961172 0.04927817
000020 f0 af 86 3c 5d 51 dc 3d 49 97 cf bd 9a a8 33 bd
       0.016441315 0.10757706 -0.10136277 -0.043861963
000030 a4 13 1b 3d 0c aa 18 bf e4 e7 31 bd 92 2e 69 bd
       0.037860528 -0.5963447 -0.04343404 -0.05692918
000040 fd 40 c4 3c 19 0f ab bc 1d 5a 91 3c 21 25 11 3e
       0.02395677 -0.020881223 0.017743165 0.1417432
000050 e1 48 5f bd e4 71 c1 bd 1b cf d6 be b2 75 aa 3d
       -0.054512862 -0.09445551 -0.41954884 0.0832323
000060 ba 0a c7 bd 5c d1 f2 bd b7 d4 4f be 96 ef 60 bd
       -0.09718843 -0.118563384 -0.20295988 -0.054915987
000070 3b fb ac 3d fe 36 93 bc be 2b 71 3c b4 3d 59 3d
       0.08446356 -0.017970558 0.014719902 0.05303736
000080 6e 32 8d bd c4 1d 1a 3e 8e 19 22 3e 70 8b 6f bd
       -0.06894384 0.15050417 0.15830061 -0.058482587
000090 dc 15 3c 3c 04 13 e1 bd 9e 04 49 be ca 02 86 bd
       0.011479821 -0.10989955 -0.19630668 -0.06543501
0000a0 b2 a3 d4 bd e5 b0 bc bd e6 67 90 bd da ec 97 bd
       -0.10382785 -0.092134275 -0.07051067 -0.07418223
0000b0 d8 83 32 3c 5c 70 31 3e 77 02 15 3e d6 98 77 3d
       0.010895692 0.17328018 0.14551722 0.06044849
0000c0 ca 5f 2c bc cb 80 46 bd ac 90 a0 bd 30 a6 4e bc
       -0.010520885 -0.04846267 -0.07840094 -0.012612864
0000d0 22 61 76 3d bf 9b 08 3e 40 61 3b bd eb 9b 32 bd
       0.060151227 0.13340662 -0.04574704 -0.043605726
0000e0 2c f1 1c 3e 87 d4 53 bd 21 57 2b 3e 21 ac 73 3b
       0.15326375 -0.051716354 0.16732456 0.0037181454
0000f0 e6 43 03 be bc 3f 86 be eb c2 cb bc f9 36 88 bc
       -0.1281887 -0.262205 -0.024873218 -0.016627776
000100 24 f9 82 3c bc 2a 98 bc 3f bc a4 bc 43 f8 68 3b
       0.01598794 -0.018575065 -0.020109294 0.0035548366
000110 61 cb c5 3d 64 84 4a bb 3d 22 d3 be 32 1a cb 3d
       0.09657932 -0.0030901665 -0.4123706 0.09917106
000120 5c 6e 0e be 2f 9d 7a be e9 c2 0a bd a1 d3 3a 3e
       -0.13909286 -0.24474023 -0.033877287 0.18244793
000130 be 6e fc 3d ee 6d 18 3e 5f 92 58 3e 69 ab a4 3e
       0.1232581 0.14885685 0.21149586 0.32162026
000140 15 28 85 3e 9f 59 6e 3e 72 3c 4c 3e 96 bf 81 3e
       0.26007143 0.23276375 0.19944933 0.2534148
000150 8a d6 9d 3e 46 c7 30 3d 5e 77 f7 3d 16 b0 0f be
       0.30827743 0.043158792 0.12083314 -0.14032015
000160 af eb 0a 3e 88 b7 20 3e 6e c9 87 3e 78 68 49 3e
       0.13566469 0.15695012 0.26520866 0.19668758
000170 dd 3f 77 bd 9e b8 5a 3c 05 d6 90 bd 59 db 9d 3d
       -0.06036364 0.01334968 -0.07072071 0.07707853
000180 87 ff 11 3d 8b 23 6d bd 3c 14 b3 bc 76 e8 a0 bc
       0.03564408 -0.057895225 -0.021860234 -0.019642096
000190 3c 6a 01 3a bc 92 ae bd 52 40 02 3e 37 78 f7 bc
       0.00049367896 -0.08524081 0.12719849 -0.03020869
0001a0 a7 a4 bd bd 1d 3b 9a bd bd 92 6c be c7 16 91 3c
       -0.092599206 -0.07530806 -0.23102851 0.017711056
0001b0 b5 b2 8d bd ab ac 41 3d e8 5a a1 bd e1 ef b5 bb
       -0.06918851 0.04728381 -0.07878667 -0.0055522774
0001c0 9d d2 79 3d a0 22 b7 bc a3 4d e1 bd d6 68 40 3e
       0.060991872 -0.022355378 -0.11001136 0.18789992
0001d0 e3 20 08 3e 80 b1 42 3e 3e ee bf 3e f4 e3 d9 3d
       0.13293795 0.19013023 0.37486452 0.10639182
0001e0 96 15 00 3e 1f b6 1a 3e 86 59 66 3d 5f c8 ec 3d
       0.12508234 0.15108536 0.05623772 0.11561655
0001f0 b5 81 77 bd 00 d3 3c 3d ef 3c fc 3d b9 29 7b 3e
       -0.060426433 0.046099663 0.1231631 0.24527635
000200 c4 a7 8a 3d c8 23 6a 3e 47 8d 8d 3e cd ad 91 3d
       0.0677028 0.22865212 0.2764685 0.07113228
000210 58 c1 67 3e dd 35 ab bd a6 11 bc bb 4f c1 2c bb
       0.22632349 -0.08359883 -0.0057394085 -0.0026360338
000220 56 bd 69 3e f4 3e 02 3e ac af 1e bd 2a 5b 26 3e
       0.22826132 0.12719327 -0.038741753 0.16245714
000230 8d 90 5a 3e ed 28 b1 bb 36 50 70 bb 93 87 60 bc
       0.21344204 -0.00540649 -0.0036668903 -0.013704198
000240 46 e5 bc 3d fb f7 2c 3d 32 75 c5 bd 2d 8c 02 bd
       0.09223418 0.04222868 -0.09641494 -0.031871963
000250 d1 2b 8d 3d 08 a3 5b bd 9a 8e 90 3c 41 5e 28 3d
       0.06893123 -0.053622276 0.017646123 0.041105513
000260 4b eb 77 3d 2a 32 1a 3c bf db a7 bd a2 ae 0e 3d
       0.060527127 0.009411374 -0.0819621 0.03483451
000270 a3 31 31 3e 32 33 91 3e fa 68 a5 3d 85 a9 f3 bc
       0.17304091 0.2835937 0.08076663 -0.02974392
000280 da f5 99 bc a0 3b 88 bb bc 64 8a 3d 01 d1 a3 bd
       -0.018793989 -0.0041574985 0.06757495 -0.07998849
000290 ee 90 02 3e 4f 7c 36 3e a3 59 ce bc c7 9c 26 be
       0.12750599 0.17820857 -0.025189226 -0.16270743
0002a0 62 aa de 3d 93 4f 67 3d 89 d5 39 be 9f 32 b9 bd
       0.10872342 0.056472372 -0.18147863 -0.09042858
0002b0 db 0f 05 be 67 a7 28 be b6 ed b1 be 31 4b 22 be
       -0.1299433 -0.16470109 -0.34751672 -0.15848996
0002c0 b6 f3 50 be 1f f0 ea bd a4 b0 86 be 71 ab 3c bd
       -0.20405468 -0.11471581 -0.2630664 -0.046061937
0002d0 95 8c 9b be 3e ca a0 be 1c be 47 be 99 86 bd be
       -0.30380693 -0.314043 -0.19506115 -0.37016752
0002e0 5c df 1f 3d 86 e9 4d be ca e1 71 be 6a 80 97 be
       0.03903137 -0.20108613 -0.23621288 -0.2959016
0002f0 92 66 a2 bd f6 16 62 be 28 15 76 be ad de f3 bd
       -0.0792972 -0.22079071 -0.24031508 -0.119077064
000300 69 ff 00 3e da 4a 69 bd 34 a3 0d bb 25 d8 04 bd
       0.12597431 -0.05695615 -0.002161217 -0.032432694
000310 c2 22 6f 3d 34 52 bf 3d 59 71 b2 3d 46 fe 21 bc
       0.058382757 0.09341851 0.087130256 -0.009887284
000320 d5 08 05 bd 9c ba 9f bd 15 d2 e6 bd 7f c3 0c 3d
       -0.032479126 -0.07799265 -0.11270539 0.034366127
000330 12 ce ef bc 60 52 73 bd ba a0 b7 bd 21 11 ae 3c
       -0.029273067 -0.05940473 -0.08966203 0.021248402
000340 07 55 cd bc fd ed 2d bd 2d e4 c6 bd 59 ac 3b 3c
       -0.025064958 -0.04246329 -0.0971149 0.011454665
000350 b2 36 03 bc fd b3 94 bd f6 28 b2 bd 4e 40 1b 3e
       -0.008008646 -0.072608925 -0.08699219 0.15161249
000360 47 45 00 3d 98 02 07 be c6 35 0e 3e e6 14 7a bc
       0.031316068 -0.13184583 0.138877 -0.015263772
000370 04 70 81 3e c8 71 e4 3c a4 69 a8 3e 09 89 a3 3e
       0.25280774 0.027886286 0.32893097 0.31940487
000380 c1 f2 d7 3e 55 b7 c7 3e 79 7f ed 3e 19 81 91 3e
       0.42177394 0.3900706 0.46386316 0.28418806
000390 75 3f ff 3e ae f5 af 3e e1 cc 91 3d 0c e6 17 3d
       0.498531 0.34367126 0.07119156 0.037084624
0003a0 8f c5 f2 3c 07 1b 76 3e 10 53 80 3e c3 d6 af 3e
       0.029635219 0.24033748 0.25063372 0.34343538
0003b0 62 3d f5 3e c4 5e 9f 3e 03 e4 aa 3e 03 76 9b 3e
       0.47898394 0.31126988 0.33377084 0.30363473
0003c0 4d 3e ae 3d 2e f8 13 be 2d fa 05 3e 49 66 43 3d
       0.08507977 -0.14450142 0.13083716 0.04770497
0003d0 85 f7 9c 3d 02 06 98 3d 6b a2 31 3c b4 a0 14 be
       0.07664398 0.07423021 0.010841946 -0.14514428
0003e0 61 a8 17 be 62 02 ec bd af f0 19 bc 7a 22 68 3d
       -0.14810325 -0.11523892 -0.009395762 0.056673504
0003f0 6a bb 38 be 27 8f 36 3e c4 18 1d 3e e1 a1 16 3d
       -0.18040243 0.17828046 0.15341479 0.036775474

embedding.bias f4 [32]
000000 63 72 04 bd 04 39 37 3e 77 64 e5 3d ca c2 52 be
       -0.03233565 0.17892843 0.11200803 -0.20582119
000010 f3 cb 9d 3e 67 07 03 3e d1 0a 12 3e 5b 25 23 3e
       0.30819663 0.12795793 0.14261939 0.15932219
000020 2c b9 44 bd 31 11 bf 3d 47 21 c2 3c b5 70 34 3e
       -0.048028156 0.09329451 0.023697508 0.1762112
000030 cb af 18 be 93 23 85 bd 1a da a7 bc 06 0d 7c 3e
       -0.1491081 -0.06500926 -0.020489741 0.24614343
000040 f5 60 09 bd 1b 0d 9e be ba db 63 3e 59 5d 68 be
       -0.03353973 -0.30869374 0.22251788 -0.2269186
000050 5e 8f 5f be f7 b0 7e bd f2 ce 89 bc 7b 61 c4 bd
       -0.21832034 -0.062180486 -0.016822312 -0.095889054
000060 e1 74 28 be 85 99 7b bd 1d ae 1d 3e 0c 04 70 3d
       -0.16450836 -0.061425705 0.1539845 0.05859761
000070 45 ef 4f 3d 8b e2 60 3d d1 a6 0b be 8b a9 5b bd
       0.050765295 0.05490355 -0.13637854 -0.053628486

transformer_encoder.layers.0.self_attn.in_proj_weight f4 [96, 32]
000000 db e4 14 3e 18 6d 66 bd c7 31 ed bd ad 2a d8 3d
       0.14540426 -0.056256384 -0.1158176 0.10555015
000010 ae ce 11 be 29 49 be 3c 06 3b d7 bd 05 77 59 bd
       -0.14238998 0.023228245 -0.10509305 -0.05309202
000020 c0 2d 8b bb 8c 75 22 3d d2 51 21 be 29 55 78 bd
       -0.004247397 0.039662883 -0.15753868 -0.06062809
000030 17 2c 63 3d 81 a9 18 be bf e8 c7 3c 5f bf 30 be
       0.05546197 -0.1490841 0.024402974 -0.17260502
000040 0f 41 ca 3d 42 80 08 bd d7 fb f1 bd c8 42 4a 3e
       0.0987569 -0.03332544 -0.11815613 0.19752038
000050 62 62 09 3e e3 2a 21 3e 10 b3 13 be 2a cb 07 3e
       0.13416436 0.15739016 -0.14423776 0.13261095
000060 23 11 56 3e 24 fc 78 3d 13 8a a8 bd 6f 88 15 3e
       0.20904975 0.060787335 -0.082294606 0.14602827
000070 27 04 5d 3e e7 9a 06 3d f9 38 f1 ba 79 c5 fb bd
       0.21583615 0.03286257 -0.001840382 -0.12293524
000080 3f b1 3d be 1f 44 cf 3d 55 bb 14 3d 31 84 4e be
       -0.18524645 0.10120415 0.036311466 -0.20167615
000090 08 41 2e 3e 08 c7 30 be bb 5c 3d bc 93 89 0d be
       0.17016995 -0.17263424 -0.011557753 -0.13822012
0000a0 bc d8 43 be 0b 41 7e bd c6 d1 36 be b0 f1 0f be
       -0.19125646 -0.06207375 -0.1785346 -0.1405704
0000b0 41 c6 45 3e 78 11 6c bd 77 dd 8d bd b2 d0 a4 bb
       0.19313909 -0.057633847 -0.06927007 -0.005029761
0000c0 a8 db 4e 3e a8 04 d2 3c c4 86 0b bd b7 42 26 be
       0.2020098 0.025636986 -0.03406407 -0.16236387
0000d0 38 b1 70 3d 31 95 36 3d f4 9e 9d 3d 9e 75 bc 3d
       0.05876276 0.044575874 0.076963335 0.09202121
0000e0 aa 64 0c 3e e6 a7 37 be 22 98 59 3e 4d 41 0c 3e
       0.13710275 -0.17935142 0.2124944 0.13696785
0000f0 60 b3 9d 3d 80 9a 2f 3e 49 70 2a be c4 1b a7 3d
       0.07700229 0.17148781 -0.16644396 0.08159593
000100 7a 15 47 be af 5a b7 bd f8 38 fe 3d f4 b8 96 3d
       -0.19441786 -0.089528434 0.1241321 0.07359496
000110 b2 27 fc bd 13 02 b2 bd ef 10 af 3d 3f 42 dd 3d
       -0.12312259 -0.08691802 0.08548152 0.10803651
000120 12 35 4d be 38 92 94 3d 1f 6b 55 3e 08 26 a0 3d
       -0.20039776 0.072544515 0.20841645 0.07819754
000130 0d 9f 81 3d 29 11 1b 3e cc ad d3 bd f6 4c 10 bd
       0.06329165 0.15143265 -0.103358835 -0.035229646
000140 a2 cc b4 3d 93 ad 15 3e 6d f6 ae 3d 85 20 d7 bd
       0.08828093 0.14616995 0.08543096 -0.105042495
000150 4c 12 12 3d 45 a8 49 3e 1e 0e 33 3e df 7e 43 bd
       0.03566198 0.19693096 0.17485854 -0.047728416
000160 54 96 2b be 31 ab 31 be 12 84 e4 3c 1f 0b 0b 3c
       -0.16756564 -0.1735046 0.027895007 0.008486538
000170 f0 89 a2 bd e0 0d 21 3d 7a d0 33 3e eb d0 85 bc
       -0.07936466 0.039319873 0.17559996 -0.016334971
000180 91 14 4b 3d 0f 5c 91 3c 8a fc cc bd 41 64 4b 3e
       0.04958016 0.017744092 -0.100091055 0.19862463
000190 1c 5c c5 bd aa b8 d4 3d fd 32 a9 bb 54 d5 48 3e
       -0.09636709 0.103867844 -0.005163549 0.19612628
0001a0 e9 90 7d bd d7 3e 57 be 6a 36 1a be b1 0d 1c 3e
       -0.061905775 -0.21020065 -0.1505982 0.15239598
0001b0 ec 09 40 bd 41 e1 25 be c9 e7 de 3d d2 3a 06 3e
       -0.046884462 -0.16199209 0.10884053 0.13108376
0001c0 70 19 b9 ba 66 44 6b 3d 43 ea 05 bd 9e ce a1 bd
       -0.0014121961 0.057438277 -0.032694113 -0.07900737
0001d0 ef 07 ca 3d d4 f0 56 3d 78 c1 52 3e de bc 19 3e
       0.098647945 0.052475765 0.20581615 0.15013453
0001e0 77 e3 15 3e 5e db 5c be 63 f0 3b be 97 a5 53 3e
       0.14637552 -0.21568057 -0.18353419 0.20668636
0001f0 12 81 c8 3d 5b 83 b0 3d 49 92 eb 3d 94 e9 b3 bd
       0.09790243 0.08618804 0.11502511 -0.08784786
000200 d9 c8 08 be 92 cc 75 bd 30 45 d1 bd ed 3e 27 be
       -0.13357867 -0.060009547 -0.102182746 -0.16332598
000210 e6 f4 4c 3e d6 a3 4b bd 24 b6 83 3d 55 a4 ba 3c
       0.20015296 -0.049716793 0.06431225 0.022783438
000220 4c 59 4f be 68 8d 1c 3e 25 6b 4d be 7b 87 28 be
       -0.20248908 0.15288317 -0.20060404 -0.16457932
000230 de c7 3b 3e 0a c5 86 bd b1 af 16 3e 88 c0 d6 3d
       0.18337962 -0.06580551 0.14715458 0.10485941
000240 b2 a6 bf bd bc 03 5d be 3b bc 11 bd 76 31 50 3e
       -0.093579665 -0.21583456 -0.0355799 0.20331368
000250 6f 97 0e bd 8a f1 6b bd cf 80 45 3e b4 f7 b7 3d
       -0.034812387 -0.057603396 0.19287418 0.089827925
000260 65 fd 24 3e 1f 33 a2 3c 06 f2 55 3d 0b b4 21 be
       0.16112287 0.019799767 0.052232765 -0.15791337
000270 a1 23 b3 3d 29 68 a7 3d 0b ba 00 3d a4 44 88 bd
       0.0874703 0.08174164 0.031427424 -0.06653717
000280 9f 32 b6 3d 6b 82 52 3e 8a 6f 02 3b 61 51 06 be
       0.08896374 0.20557563 0.0019902908 -0.13116981
000290 f3 3b 4a bb 02 b2 67 3d d1 0c 0e be ae ae c9 bb
       -0.0030858486 0.056566246 -0.13872077 -0.0061548566
0002a0 36 c3 85 3c 5a a8 78 bc e9 7b 2b be 77 19 0b be
       0.016328435 -0.015176857 -0.16746487 -0.13583933
0002b0 a5 fc 7a 3d e4 0f 60 3e c4 29 46 3d 90 77 58 be
       0.061276097 0.21881062 0.048379675 -0.2113936
0002c0 0a 16 33 be 2b 7d 11 3e c9 68 08 3e d9 59 25 be
       -0.17488876 0.14207904 0.13321222 -0.16147555
0002d0 77 c6 ba bd 42 47 dc bd d9 38 45 3e b2 29 05 be
       -0.091198854 -0.10755779 0.19259967 -0.13004187
0002e0 28 21 1b 3d 92 cf 07 be 4b 40 32 bb bb 8b cb 3c
       0.037873417 -0.13262776 -0.0027198966 0.024846902
0002f0 fd 91 ca 3c 69 e4 bc bd 36 40 53 be 40 7e 03 3e
       0.024727816 -0.09223253 -0.20629963 0.1284113
000300 a8 82 1d 3e 75 47 32 3e 0f 88 2f 3c fb fd e3 bc
       0.15381873 0.17410071 0.010713591 -0.027831068
000310 23 8c 81 3c e2 27 6b bd e9 01 ed bb 7f cc 1c be
       0.015813893 -0.057411082 -0.0072328937 -0.15312384
000320 cb 17 91 3d 5a fa 6b bd 73 d4 af 3d 7d f4 50 3e
       0.07084616 -0.0576118 0.08585443 0.20405765
000330 84 e4 61 bd 67 c4 be 3d 15 f1 cf bd 51 ed 87 bd
       -0.05514957 0.093148045 -0.101534046 -0.066370614
000340 a9 87 63 bd 3c 93 f7 3d 00 a1 47 be 55 60 54 3b
       -0.055549297 0.120886296 -0.1949501 0.0032406051
000350 ed 0b 95 bc e7 67 87 3c 1e af 55 3e 86 59 09 3d
       -0.018194163 0.016529037 0.20867583 0.03353264
000360 0e 49 a9 bd 95 36 58 3e 98 20 22 be 4f bc 57 3e
       -0.08265887 0.21114571 -0.15832746 0.21067928
000370 1a 93 45 bd 15 85 48 bd 39 ca 38 3d 0e fc 4c be
       -0.04823599 -0.048955042 0.04511473 -0.20018026
000380 b7 b4 92 bd ff a6 b7 3c bb b0 10 be fa a7 fc 3d
       -0.07163375 0.022418497 -0.14129917 0.123367265
000390 8f 7a c7 3d 1d f2 7d 3d 34 69 08 be 33 ef 2b 3e
       0.09740173 0.061998475 -0.13321382 0.16790466
0003a0 30 30 b4 3d 81 4f 87 bc ab 94 27 3e be fc 3e bd
       0.087982535 -0.016517403 0.16365306 -0.046627752
0003b0 79 1f 4d bd 8e 7d 05 3d 80 ea 3d 3e 6a aa 34 3d
       -0.050078843 0.03259044 0.18546486 0.044107832
0003c0 5e 72 e9 3d a2 d3 dd bc 49 1b 2b 3e 15 ca 57 be
       0.11398767 -0.027078453 0.16709627 -0.21073182
0003d0 9c 0a 33 3d f4 3a 0c be 7b 4b 04 be ee 99 52 bc
       0.04371129 -0.13694364 -0.12919419 -0.0128540825
0003e0 1d 0c 2a 3c 77 05 7a 3c a2 12 f2 bd bb ee 86 bd
       0.010378865 0.015260092 -0.1181996 -0.06588503
0003f0 10 4f 59 be e3 cb aa 3d ff 4e 9e bd 87 cd 65 bd
       -0.21221566 0.083396696 -0.07729911 -0.05610421

transformer_encoder.layers.0.self_attn.in_proj_bias f4 [96]
000000 d9 de ee bb 80 ea 1b bb d1 bb 43 bc 69 f6 a7 bb
       -0.007289749 -0.0023790896 -0.011946634 -0.00512581
000010 76 f7 f2 3a 0a 77 db bb 78 35 b9 ba c0 c0 37 bb
       0.0018536884 -0.00669754 -0.0014130315 -0.0028038472
000020 da 6e e7 ba 53 c0 f4 ba 2c a1 75 ba 6b 3d 91 bb
       -0.0017656938 -0.001867304 -0.0009370025 -0.0044323704
000030 bd cb ce bb 83 aa 0f 3b c6 43 32 3b 2d 64 30 3b
       -0.0063109086 0.0021921701 0.002720104 0.0026915178
000040 70 e7 4b ba c2 62 8c bb ae 83 94 3b ae 99 8a bb
       -0.00077783223 -0.004284234 0.004532299 -0.004229746
000050 b3 3d 91 3b c7 46 18 bb 34 5c 10 ba 73 63 ad bb
       0.004432404 -0.0023235546 -0.00055069034 -0.0052913963
000060 4d 55 b2 3b 1b ea c5 ba e3 0b 90 3b f2 cc c4 3b
       0.0054422976 -0.0015099676 0.0043959483 0.0060058767
000070 6f 55 aa 3b cb 8c b6 3a f1 23 13 bb 69 9e 58 bc
       0.0051981728 0.0013927458 -0.0022451843 -0.013221362
000080 3d 99 88 3c 95 6f db bb c3 54 8c bb 71 b1 cf 3b
       0.016674632 -0.006696651 -0.0042825653 0.0063382913
000090 6c c2 c7 bb 97 f2 16 3a a7 04 53 3c 8c d5 3d 3a
       -0.006096175 0.00057581946 0.012879527 0.0007241599
0000a0 5d ee 8a ba 04 ad 24 3b 0b f1 8b 3b 5d bc 3c 3b
       -0.0010599602 0.002512754 0.004270678 0.0028798797
0000b0 a4 f0 36 b9 37 1a 97 ba fd 45 b6 bb 0c 5e 33 ba
       -0.00017446518 -0.0011528198 -0.0055625425 -0.0006842322
0000c0 ad fa 85 bb 1b 37 a9 3b 64 ba 6c bb a2 c4 c6 bb
       -0.004088721 0.00516404 -0.003612184 -0.006065921
0000d0 71 b6 d0 3a f2 75 79 3a 18 6f fb 3b 0c 7f a9 3b
       0.0015923512 0.00095161714 0.0076731555 0.005172616
0000e0 5a 87 05 bc 69 fa 9e 3b c3 24 b4 bb 23 9e f2 ba
       -0.008149946 0.0048516286 -0.0054975464 -0.0018510263
0000f0 ff d0 2d bb 76 1d 71 bb 10 df 56 3c e9 9e a8 39
       -0.0026522276 -0.0036791242 0.013114706 0.00032161854
000100 d6 27 bf bb 22 e5 a8 ba 7a 88 35 bb ed 66 8f bc
       -0.0058336062 -0.001288567 -0.0027699755 -0.017505134
000110 34 63 1f 3d da 7e fe 3c d6 e7 3a 3c 8b 8b ba 3c
       0.038912967 0.031066347 0.011407813 0.022771617
000120 fa 11 9b bd f5 62 ac bd 78 d7 61 bd 13 49 db bc
       -0.07571788 -0.08417312 -0.055137128 -0.026768243
000130 92 89 89 3d 63 74 28 bd 22 31 b5 3b ea 63 ea bc
       0.067156926 -0.04112662 0.0055295387 -0.028612096
000140 11 18 37 bc 4c b5 d9 3c cb 7c 5b bd 3c 96 5c 3c
       -0.0111751715 0.026575707 -0.05358581 0.013463553
000150 b9 31 0a 3c f3 fa 5f bb 10 4c 24 3c 00 81 2c 3c
       0.008434706 -0.0034176677 0.0100279 0.010528803
000160 5f d3 db 3a b4 99 4e 3c 99 63 d4 3c 77 04 5f bd
       0.0016771368 0.012609888 0.025926398 -0.054447617
000170 70 1e 44 3c 53 4f 54 bb c2 e9 0b 3c cb 31 b6 3d
       0.0119701475 -0.0032395914 0.008539619 0.08896216

transformer_encoder.layers.0.self_attn.out_proj.weight f4 [32, 32]
000000 85 ea 6b 3d 19 0f 3c 3c 14 d9 7f 3d b4 d6 6a 3c
       0.057596702 0.011478209 0.06246288 0.014333416
000010 4f 56 73 bd 5f 07 98 3d cc 72 d1 bc 45 ce 53 bd
       -0.059408482 0.07423281 -0.025567435 -0.051710386
000020 aa 6f 4a bd 6d f3 e0 bd 8e f2 a8 bd 47 f6 40 3d
       -0.049422897 -0.1098393 -0.08249389 0.04710987
000030 fd 12 6e bd ee 39 d0 3c 3f 96 ea 3c be 37 a8 3d
       -0.058123577 0.025418248 0.028636096 0.08213757
000040 22 2c ba 3c 47 7b f2 bd be 9b 3e bd 90 3f 36 3b
       0.022726122 -0.118399195 -0.046535246 0.0027808882
000050 99 e0 62 be 9e 7d 5f 3e d1 6b d9 3d b6 8a 81 bd
       -0.2215599 0.21825263 0.106162675 -0.06325285
000060 0b 86 c3 bd 75 0e bb 3d 1a 33 00 bc 81 13 97 bd
       -0.09547051 0.09133617 -0.007824684 -0.07376767
000070 72 87 25 3d 5f 46 5a bd bb 1f 72 3d f0 32 73 3c
       0.040412374 -0.053289767 0.05911229 0.014843687
000080 f9 29 12 3e 85 48 0a be 0c eb fd bd 0c 77 21 bc
       0.14273824 -0.13504227 -0.12398347 -0.009855043
000090 e4 ca 52 bd 3f 3a cc bd 5d ef 15 3d 5a e0 7f bb
       -0.051463023 -0.09972047 0.036605228 -0.0039043636
0000a0 04 ee 15 3e 28 e4 24 3e 54 23 4a 3d 9a cd 34 3e
       0.14641577 0.1610266 0.049350098 0.17656556
0000b0 82 e2 5e be c8 a9 4e 3e e1 32 d9 bd b8 2e 15 bd
       -0.21766093 0.20181954 -0.106054075 -0.036421508
0000c0 ae 29 39 bc d3 2c 71 bd 7f 83 c5 3d e0 1f 97 3d
       -0.011301441 -0.05888064 0.096442215 0.073791265
0000d0 32 c5 b4 3d aa 6b f8 3c 06 f4 29 bd 8a 37 8b 3c
       0.088266745 0.030324776 -0.041492485 0.016994257
0000e0 a3 4c cf bc 02 ed a4 3d 95 a7 1d be e3 5c 14 be
       -0.025305098 0.08053018 -0.15395959 -0.14488558
0000f0 36 a6 86 bd 14 bb a8 bd d1 a7 1c bd 0c 1a 1c 3e
       -0.06574671 -0.08238807 -0.03824598 0.15244311
000100 19 4f 34 be a0 22 64 3e d6 83 ad 3e 24 78 33 3e
       -0.17608298 0.22278833 0.33889645 0.17526299
000110 df 73 20 be d1 a0 fa 3d a7 cc 72 be d7 28 58 3d
       -0.15669201 0.122377045 -0.23710881 0.052773323
000120 cf 2e cc 3b 88 32 21 3e 44 ba 72 be dd 2c 5d bd
       0.006231166 0.15741932 -0.23703867 -0.053997863
000130 da 3d 17 be c2 7c 93 3e 3e f1 00 3e 27 26 1c be
       -0.14769688 0.2880612 0.12592027 -0.15248929
000140 c4 1b 89 3e 24 70 ca 3d c7 b6 35 3e b5 b1 cb 3c
       0.26778996 0.098846704 0.17745505 0.02486501
000150 6c 2a 1f be e7 0d 9c bd 92 ec 78 bb d1 e0 76 3e
       -0.15543526 -0.07619839 -0.0037982804 0.24109198
000160 16 4e 5a 3e 0a 2f d6 bd ca 9a 1f be 0c e7 ca bd
       0.2131885 -0.10458191 -0.15586391 -0.0990735
000170 9a 31 1a 3e e1 6f e1 3d 2c 12 12 be 6c dc b6 bd
       0.15057984 0.11007667 -0.14264745 -0.08928761
000180 10 71 63 3d 5d 41 3b 3e cc b7 85 bd 2d e5 fb 3d
       0.055527747 0.18286653 -0.06529197 0.12299571
000190 76 e5 41 be 28 58 b8 3c ca 51 31 3e 17 fa e1 3d
       -0.18935189 0.022502974 0.17316356 0.11034029
0001a0 58 33 c9 3d 96 4a a8 3d 27 ec 92 3d 00 52 53 3e
       0.09824246 0.08217351 0.07173949 0.2063675
0001b0 28 74 cf 3d bd bf 90 bd 64 40 69 bd cb 4b 77 3e
       0.10129577 -0.07067821 -0.056946173 0.24150006
0001c0 12 be 0b be 24 99 1a be a3 23 20 3e 92 93 de bd
       -0.13646725 -0.15097481 0.15638594 -0.108679906
0001d0 72 90 d6 bd 20 11 46 3e d9 e8 d2 bc b0 d7 35 3d
       -0.104767695 0.1934247 -0.025745796 0.04439515
0001e0 84 26 27 be c0 49 58 bc a3 55 c8 bb 30 d4 10 bd
       -0.16323286 -0.013201177 -0.0061137243 -0.035358608
0001f0 50 7b 15 3e ad 9f 50 bd db 50 fc bd 4a ee 3b be
       0.14597821 -0.05093353 -0.123201095 -0.18352619
000200 19 71 36 3e 70 a1 22 bd ff b5 96 3e f3 f5 34 be
       0.17816581 -0.03970474 0.29435727 -0.17671947
000210 6e 78 88 3d 2a f7 09 bd 4f 10 b8 3c 9b 12 55 3e
       0.06663595 -0.03368298 0.022468714 0.20807879
000220 b5 bd a7 3d 9f ff 2d bd 6b 98 4a be c2 20 20 3e
       0.081904806 -0.042480107 -0.19784705 0.15637496
000230 d4 6f b3 bb a7 d8 82 3e a4 4f f9 bc 6a be 6f be
       -0.0054759774 0.25555918 -0.030433483 -0.23412481
000240 37 73 86 be 12 66 22 be c6 b4 13 be 0c 89 4b 3d
       -0.26259777 -0.15859249 -0.14424428 0.049691245
000250 3f b9 8c be 60 ac 63 3e 44 17 35 3e 22 1d 72 3d
       -0.27485082 0.22233725 0.17684656 0.059109814
000260 6a 13 28 3e b1 47 aa bd 11 bd ed bc c3 36 b8 bd
       0.16413656 -0.08314455 -0.029020818 -0.0899482
000270 ce 4c b1 3e 2f 4f 04 be 81 93 f5 bd 0e 2c 1d 3e
       0.3462891 -0.12920831 -0.11991025 0.15348837
000280 11 ee 35 bc ed 45 86 bd 36 a6 3a be 6b 3d bb bb
       -0.011104123 -0.06556306 -0.18227467 -0.0057141087
000290 05 1e 24 3e ca 1f 01 be 63 05 88 3d 0b 97 00 be
       0.16027077 -0.12609783 0.066416524 -0.12557618
0002a0 ba 16 95 be 2f 7b 88 3e d3 40 ef bd 14 f2 82 3e
       -0.29118901 0.26656482 -0.11682286 0.25575316
0002b0 89 2b 7d 3d 10 7e 87 be 2e 1f a1 3d a5 1a 50 3e
       0.061809096 -0.26463366 0.07867275 0.20322664
0002c0 bb d2 a1 3d 12 f0 c6 ba 6b 12 d5 bd 3a 5f 61 3e
       0.07901522 -0.0015177748 -0.104039036 0.22008982
0002d0 b5 fd 01 3e 4c 9b 54 be 4a 79 b5 bd 39 56 72 3d
       0.12694438 -0.20762366 -0.08861025 0.05916426
0002e0 e2 5f 98 be 2d 41 61 be 82 cd 56 3c e4 69 73 be
       -0.29760653 -0.21997519 0.01311052 -0.23770863
0002f0 97 67 5d 3e c0 6c c9 bd 44 d8 87 3d eb 72 19 bd
       0.21621548 -0.098351955 0.06633046 -0.03746311
000300 92 7b 64 3e 4c e0 20 be 1b 20 0d be a5 c3 85 3c
       0.22312763 -0.15710562 -0.13781779 0.016328642
000310 0b 7c b3 bd dd e6 a3 3e b2 d9 25 3e 73 bf d8 bd
       -0.08763894 0.32012072 0.16196325 -0.10583391
000320 ed bf 77 3c bc 03 0d be 22 79 0a be 85 6f 3c be
       0.015121442 -0.13770956 -0.13522771 -0.18401916
000330 b9 24 24 3e f8 52 06 be 53 76 13 3d 29 4b 4c 3e
       0.16029634 -0.13117588 0.036001515 0.19950546
000340 01 76 dc bd e6 86 6c be a4 35 e3 bd 4b 91 1d be
       -0.10764695 -0.23098335 -0.110942155 -0.15387456
000350 80 25 e8 bd c0 51 80 3e 52 6c b6 bd 81 54 07 3d
       -0.113352776 0.2506237 -0.08907379 0.033039574
000360 d9 df 16 3e 39 6d 5d 3e 0a f1 3f 3d ff bc 45 3c
       0.14733829 0.21623696 0.046860732 0.012068986
000370 77 cf 54 be 73 cb f0 3d bd d5 cd 3d 52 55 8f 3d
       -0.20782267 0.11757555 0.10050533 0.069986954
000380 f4 6b 9c 3d d6 ca 64 be 13 7b f2 bd aa 0e fd bd
       0.07637778 -0.22343001 -0.11839881 -0.123563126
000390 7e 84 40 be b5 c1 87 be f8 b9 70 bd 7f b6 33 3d
       -0.18800542 -0.26514974 -0.058771104 0.043875214
0003a0 58 3e 8a 3d 6c ba 68 be 6e 51 8a be ab dc 1a be
       0.067501724 -0.22727364 -0.2701525 -0.1512324
0003b0 db 07 4d be 8a 80 38 3e 08 7f 01 3e 83 78 0a be
       -0.20022528 0.18017784 0.12646115 -0.13522534
0003c0 05 4d 9d 3e b4 8b 9c bd e4 1b 12 be 00 92 a6 3d
       0.30722824 -0.07643834 -0.14268452 0.08133316
0003d0 51 97 62 bd ef ae 11 bd 8d 0b a5 bd c7 aa 46 3e
       -0.055320088 -0.03556722 -0.08058844 0.19401084
0003e0 62 86 a7 bd aa 87 3f 3e 34 a2 a8 3d 52 56 06 be
       -0.08179928 0.18704095 0.08234063 -0.13118866
0003f0 e6 96 47 3c 5e f6 e3 bd 22 ee 05 bc 77 18 a0 3c
       0.012181973 -0.11130975 -0.008174451 0.019542916

transformer_encoder.layers.0.self_attn.out_proj.bias f4 [32]
000000 f8 52 68 bb 68 55 2a 3d 8a ca 9d 3d 90 bb 0b bd
       -0.0035449844 0.041585356 0.07704647 -0.03411442
000010 0d 8d 84 3d 13 04 8e 3d b8 60 47 3d a0 07 bc 3c
       0.06472216 0.06934371 0.048676223 0.022952855
000020 65 91 22 bd 86 c4 7b 3d 8d 9b 57 3d 2a 7c aa 3d
       -0.03968944 0.061466716 0.05263858 0.08324464
000030 0a e7 a4 bc 86 f8 e5 bc f2 b7 cb 3a 92 b3 11 3d
       -0.0201297 -0.028072607 0.0015542491 0.035571642
000040 7c 28 1d bd c0 ba 9d bd ae 57 96 3d f4 cb a9 bd
       -0.038368687 -0.07701635 0.07340942 -0.08290854
000050 1e 94 99 bc a5 cc 09 bb f4 27 c8 3c 3b a3 74 bc
       -0.018747386 -0.0021026519 0.024433114 -0.014931495
000060 72 c9 1b bd 9e 98 77 3b c2 04 ae 3c ff da 72 bc
       -0.03803391 0.0037780176 0.021242503 -0.014822721
000070 3f de 79 bc 8f be 5d bb f8 f9 23 bd 0c fd 09 3d
       -0.0152507415 -0.0033835506 -0.04003331 0.03368859

transformer_encoder.layers.0.linear1.weight f4 [64, 32]
000000 34 b0 ae 3d 2c ed d9 bc 3c 4d 3d 3c 78 1c 43 3d
       0.08529702 -0.02660235 0.011554059 0.04763457
000010 04 13 05 3d 79 cc 7d bd 29 ac 09 bd 02 f8 08 be
       0.032488838 -0.06196258 -0.03361145 -0.13375857
000020 81 60 51 bc a3 aa 42 bd 15 a9 8f 3d 3e 11 7e bd
       -0.012779356 -0.047526013 0.07014672 -0.062028162
000030 bd 7d 92 bc 2d 9d f6 3d 65 9d 4c 3d 0d 16 c0 3d
       -0.017882222 0.12041698 0.04995479 0.09379206
000040 cd 16 fb bc 41 d8 84 bc 05 03 10 3e f5 5d 9a 3d
       -0.03065052 -0.0162164 0.14063652 0.07537452
000050 21 4c a9 bd 5e ab da 3d a3 0c 39 3e 88 e6 96 3d
       -0.082664736 0.10677217 0.18071227 0.07368189
000060 ee c0 1b 3e ad 46 49 3e 3b f7 07 be 1a de ae 3d
       0.15210316 0.19655867 -0.13277905 0.08538456
000070 b6 7b de bd bc 8b 06 3e 48 5f b3 3c 50 f4 89 3d
       -0.1086344 0.13139242 0.02189602 0.06736052
000080 09 d7 a5 bd 3c dd f1 3d 37 dd 21 bc 18 a6 01 be
       -0.08097655 0.11809775 -0.009879402 -0.12661016
000090 98 a5 9c bc bd 15 74 3d c1 52 30 be d4 93 9d 3d
       -0.01912193 0.059591044 -0.17219068 0.076942116
0000a0 9a 0b 8b 3d b6 30 c0 bd e0 a4 f7 bd 8e ba f1 bd
       0.06789322 -0.09384291 -0.12091994 -0.118031606
0000b0 02 5d 4a be bd 83 b4 3c b7 aa 15 3d de 2e 24 3e
       -0.19762042 0.022035474 0.03653976 0.16033503
0000c0 34 01 e1 3d 83 dd ae ba 8f be 42 be 0c 20 1c 3e
       0.109865576 -0.0013341162 -0.19018005 0.152466
0000d0 64 8b 37 3e 10 2f 15 bd 32 9a fb bc b6 fc 03 be
       0.17924267 -0.036421835 -0.030713174 -0.1288937
0000e0 5f de 0e be 91 d8 54 3e 30 c7 9e be c2 27 5c bd
       -0.13952015 0.20785739 -0.31011343 -0.053748854
0000f0 ed 2f c3 3d e9 39 63 3e ac d1 aa bc 5d 57 00 3e
       0.095306255 0.2219006 -0.020851932 0.12533326
000100 e2 dc 39 3e 69 78 64 3e 4a b0 c3 3d c0 1f be 3d
       0.18150666 0.22311558 0.09555109 0.092833996
000110 f0 3f 5a be dc 65 fa 3c ad b3 c7 3c 5e ac e2 bd
       -0.21313453 0.030566148 0.024377668 -0.11068033
000120 cb 91 b7 bd ea 43 28 be 1e 7b 5d bc 92 de 2f 3e
       -0.08963355 -0.16432157 -0.013518123 0.17174748
000130 d1 03 2e be ec ad f0 bd 85 c7 bd bd 7a 52 f4 3c
       -0.16993643 -0.11751923 -0.09266571 0.029824484
000140 80 aa c1 3b 5b b9 49 3e 7a 51 8c bd 49 1e 49 3e
       0.0059102178 0.19699614 -0.06851478 0.19640459
000150 ee a2 41 3e 8f 08 4b 3d f7 6f e6 3d 2b 4e 32 3e
       0.18909809 0.04956871 0.11251824 0.17412631
000160 d7 41 96 bc de 3b 73 be 5f 19 09 3d d4 67 61 3e
       -0.018341942 -0.23753306 0.03347146 0.22012264
000170 04 e7 8d bd 22 e9 67 3e c8 c1 81 3e 23 ae 1d 3e
       -0.06928828 0.22647527 0.25343156 0.15398459
000180 5a 0f da 3c 14 78 44 bd 02 6b b9 bc f1 87 06 3e
       0.026618648 -0.047966078 -0.022634033 0.13137795
000190 4f 52 c8 bd f4 8e fb 3c 9f 0a d1 bb 11 e5 0e be
       -0.09781324 0.030707814 -0.00637944 -0.1395457
0001a0 fd 7a 09 bc 91 d9 b7 3d e0 23 15 3c 8e f0 9d 3d
       -0.008391139 0.089770444 0.009102792 0.07711898
0001b0 6c 1c ea 3d aa 97 1f be 2a e2 99 3e 0b 6d 9c be
       0.11431202 -0.15585199 0.30055362 -0.30551943
0001c0 39 a7 83 be 80 6d 17 3d 4c 2c 09 3c f5 1c 2a 3d
       -0.25713518 0.03696966 0.008372378 0.04153152
0001d0 a9 57 a1 bd cf fa 89 3d 1c 51 45 be 44 43 17 be
       -0.07878048 0.06737291 -0.19269222 -0.14771754
0001e0 be d3 c5 bd 26 a5 a9 be ee 9d 07 3d 99 7e 59 be
       -0.09659527 -0.3313381 0.033109598 -0.212397
0001f0 e0 d1 4b 3e 67 0e 6a be de c0 89 3e dc 10 1b be
       0.1990428 -0.22857057 0.26904958 -0.1514315
000200 cf 02 47 3c 0c ed 1e 3e 51 2e a1 3d 70 6d 86 3e
       0.012146666 0.15520114 0.07870162 0.2625537
000210 04 90 26 be 69 a8 3a be f0 c1 a0 3d de d0 bd bd
       -0.16265875 -0.18228306 0.07849491 -0.09268354
000220 af 52 57 be bf 98 17 be 38 f9 cd bc 98 c7 bf 3d
       -0.21027635 -0.14804362 -0.02514325 0.09364241
000230 87 12 72 3e 19 f3 3b bd fa 7e 56 3e 4b 32 cf bd
       0.2363988 -0.045886133 0.20946875 -0.101170145
000240 ae 92 88 be 0f 72 27 bd 42 b4 0b 3e d6 bc be bc
       -0.26674408 -0.04088026 0.13642982 -0.023283403
000250 a9 55 79 3d ce 5a cb bd 88 d2 80 be a1 9f 50 be
       0.060872708 -0.09929429 -0.25160623 -0.20373394
000260 40 a1 17 be 65 e7 87 3e 1e 08 57 bc 0e ed 3f 3e
       -0.14807606 0.26543728 -0.013124494 0.18742773
000270 71 bb 27 3e 20 78 11 bd 57 08 3f 3e 71 4d 36 3e
       0.16380097 -0.03551495 0.18655525 0.17802979
000280 5f 53 f5 3d 24 89 8b bd 4f ab d1 bd 57 5e 4f 3e
       0.119787924 -0.06813267 -0.10237753 0.20250832
000290 0f 12 36 3c eb ec 5f 3e fc 39 c0 3d a7 48 29 be
       0.011112704 0.21867721 0.0938606 -0.16531621
0002a0 b5 cc 53 be 6d c0 fe bd 4a 9c b7 bd 6b 6e 1b bd
       -0.20683558 -0.12439046 -0.08965357 -0.0379471
0002b0 06 36 08 3e e1 41 14 be b0 0b 11 be a3 7a 4f bd
       0.13301858 -0.14478256 -0.14164615 -0.050654065
0002c0 d0 de 0c bd 53 e0 4e 3e 0a b4 4c 3d aa 8c 8c bd
       -0.034392178 0.2020276 0.049976386 -0.06862767
0002d0 ae 4e 83 3e a6 3f 32 3e 35 72 fd bc 88 68 b4 3d
       0.25645965 0.17407092 -0.030938247 0.08809
0002e0 02 ed f6 3d 85 86 41 3e 1f bd 22 3e cd 44 22 3e
       0.120569244 0.18898971 0.15892456 0.15846558
0002f0 3e 1a 1f 3e ea d2 21 3d 08 ee 46 bd f1 8d 62 3e
       0.15537354 0.039507784 -0.048566848 0.22124459
000300 0f 77 ff 3d 9e b2 63 3e b7 25 67 3d 6c d4 ac bd
       0.124738805 0.22236106 0.056432452 -0.08438954
000310 07 ab 08 be bf c7 56 be cf ee a5 bc b0 10 8d be
       -0.13346492 -0.20974635 -0.020255474 -0.27551794
000320 00 a9 18 be b9 83 2c bd 56 d8 94 3d 6c 3e 51 3e
       -0.14908218 -0.042117808 0.07267825 0.20433968
000330 7f 21 0f 3e 36 4b 7a 3e 71 fd e0 bd 59 e7 5f be
       0.13977621 0.24442753 -0.1098584 -0.21865596
000340 3b 78 e9 3d ce 99 2e 3e b8 43 77 3e 26 72 df bd
       0.11399885 0.1705086 0.24146926 -0.10910444
000350 53 e0 60 3e 8a ed 30 be 9a 60 94 bd 52 2e 05 bd
       0.21960573 -0.17278114 -0.07244988 -0.032514878
000360 2a 81 8e ba 90 a3 3b 3d 64 ef 58 bd b6 d1 9a bd
       -0.0010872234 0.045810282 -0.052962676 -0.075595304
000370 d5 a4 f6 3d 73 cf f6 bd e5 80 2b be b1 d3 b5 3d
       0.12043158 -0.120512865 -0.16748388 0.088782676
000380 ce 76 e2 3c 9b 6f 8b 3d 80 61 2f be a8 40 2b bd
       0.027644541 0.068083964 -0.17127037 -0.041809708
000390 e7 68 12 3d 5c 05 69 3d 0f 38 07 3c ff f1 b3 3c
       0.035744574 0.056889877 0.0082531115 0.021965979
0003a0 04 9e 49 3c c4 24 0c be 65 7b c8 3d c3 64 1c 3e
       0.01230574 -0.136859 0.09789161 0.15272813
0003b0 57 c8 63 3e c2 46 4e bd e1 fa 95 3c 00 d1 77 3d
       0.22244392 -0.05036045 0.018308105 0.060502052
0003c0 22 91 a9 3d aa 1f 5b 3d 5e 95 05 bd ac a7 65 bd
       0.08279635 0.053496994 -0.03261315 -0.056068107
0003d0 d1 d5 6b 3d dc 2a 01 3e 80 12 82 3b 91 01 64 bd
       0.057576958 0.12614006 0.0039694905 -0.055665556
0003e0 fd e6 b6 bc 03 4b 98 bd 29 8c 80 3e 90 ec c9 3c
       -0.02232694 -0.07436182 0.25106934 0.024648935
0003f0 88 5f 85 3d 79 15 51 be c8 56 a3 3d 10 dc d2 3d
       0.06512362 -0.20418347 0.079755366 0.1029588

transformer_encoder.layers.0.linear1.bias f4 [64]
000000 24 a2 90 bd a1 6e ac 39 1f 7a 2d bc f4 cd d7 bc
       -0.07062176 0.0003288882 -0.010588198 -0.026343323
000010 5e 6f 1f bd 3a b3 07 bd 53 d6 6f bc 3a 52 c5 bd
       -0.038924567 -0.03312991 -0.014638501 -0.09634824
000020 a0 a5 87 3d 76 fd 3a be ce 21 d4 3c 87 2f e7 3c
       0.06623387 -0.1826075 0.025895026 0.028220905
000030 3c 43 8e bd 4e f0 11 be 8c ef 75 3d aa 31 fa bc
       -0.06946418 -0.14251825 0.060042903 -0.03054126
000040 20 fb e0 bb 23 37 48 bd 43 2b c0 bc 5f f4 41 bb
       -0.006865874 -0.048880707 -0.023458129 -0.002959512
000050 30 d4 f8 ba b7 2d 16 be 0d cc 4d bd b1 50 47 bc
       -0.0018984135 -0.14665876 -0.050243426 -0.012165234
000060 61 37 67 3c d1 c9 15 3d 7b 19 76 3c d1 74 0b bc
       0.014112324 0.03656942 0.015020723 -0.008511738
000070 f0 42 7f bb a8 41 d5 bc bd c4 d1 bc 09 50 d1 bc
       -0.003894981 -0.026032284 -0.025606507 -0.025550859
000080 52 88 c5 bc c3 e4 9f bd c0 ab 54 bc 9f a0 a8 bd
       -0.024112854 -0.07807305 -0.0129804015 -0.08233761
000090 75 8a e3 bd 49 09 05 be b2 2e bc bd 9a f7 77 bd
       -0.11110393 -0.12991823 -0.09188594 -0.060538866
0000a0 91 af 4b bd ea 29 31 be 88 ce 21 be b9 19 04 be
       -0.04972798 -0.17301145 -0.15801442 -0.12900437
0000b0 97 1c c3 ba d3 89 2e bd 72 13 c3 bd 6a 35 4a bd
       -0.001488584 -0.04261191 -0.09525193 -0.049367346
0000c0 44 ab e2 bc 24 82 b1 bd 16 34 f1 bd 4a 1c a7 bd
       -0.027669556 -0.086674005 -0.11777513 -0.081596926
0000d0 21 2f de bc cd d9 aa bc d8 75 93 bc c0 fb 2a bd
       -0.027122082 -0.020855809 -0.018000528 -0.041743994
0000e0 e5 8e 65 3d 83 7b 42 bd 13 8f 71 bd aa 7b 5f 3b
       0.056044478 -0.04748107 -0.058974337 0.003410081
0000f0 f2 a9 48 bd dc 46 49 ba 36 13 ae bc f8 eb 48 3c
       -0.048990197 -0.00076781004 -0.021249395 0.012263291

transformer_encoder.layers.0.linear2.weight f4 [32, 64]
000000 8c 62 54 3d ea 65 1c bd a6 ed 8c bd b9 0f 5f be
       0.051851794 -0.03818313 -0.06881265 -0.21783341
000010 9b 72 03 3d 49 d6 10 be 75 26 10 be 4b 31 63 3d
       0.03209172 -0.14144243 -0.1407717 0.05546693
000020 14 d7 43 bd 4d cb c6 3c 81 d1 4d be 64 34 b3 3c
       -0.047812536 0.024266863 -0.2009945 0.021875568
000030 1a 2c 0c bc 41 19 6d 3d 7f 77 85 3d 19 42 84 bd
       -0.0085554365 0.057885412 0.06516933 -0.064579196
000040 de a9 03 3e f9 fd 8e 3d 49 d7 e9 3d 60 07 68 3c
       0.12857768 0.06982035 0.114180155 0.014161915
000050 65 df 48 bd c1 4a 67 bc a1 aa 94 3c 86 7a 48 be
       -0.04904117 -0.014116944 0.018147768 -0.19577989
000060 f8 c1 10 bd c6 89 e1 3c aa 4f f6 bc b5 6c 8d 3b
       -0.035341233 0.027531516 -0.030067284 0.0043159374
000070 ed a5 6d bd d6 7c f0 3c 05 e2 16 3d 46 9d 47 be
       -0.058019567 0.029356401 0.036836643 -0.19493589
000080 36 2b d9 bd 9a 6e 19 bd 5f 6c f2 3b 31 de a6 3d
       -0.10603945 -0.037458993 0.0073981727 0.081478484
000090 43 d7 f1 ba ce b0 69 bd 71 4d 3a 3d be 62 cc 3d
       -0.0018450994 -0.05705338 0.04548401 0.09979771
0000a0 78 cb 95 bc 3c ee ae 3c 9c 61 17 3d 3f 83 83 bc
       -0.018285498 0.021353833 0.036958322 -0.016053794
0000b0 cb ef 2c 3e 79 cb f5 3d 39 d6 51 3c 85 86 3c 3e
       0.16888349 0.120017 0.012807422 0.1841069
0000c0 e9 02 41 be e2 0f 7a be 3c 2c 11 3d 79 7c 31 bd
       -0.18848766 -0.24420121 0.035442576 -0.043331597
0000d0 f8 c9 33 3d f8 5f 1a be 84 ea 28 3e 82 b7 b4 3d
       0.043893784 -0.15075672 0.1649571 0.08824064
0000e0 58 f5 87 3c d1 20 2a be e2 18 c3 bc 5c f8 4d be
       0.016596481 -0.16614081 -0.023815576 -0.20114273
0000f0 f7 ba 9e 3d cf f4 e3 3d b3 02 88 bd e9 05 bf bd
       0.077505045 0.11130678 -0.0664114 -0.09327299
000100 72 b5 fe 3d e8 22 5d 3d 5e 73 4a bc fb 94 cb be
       0.12436952 0.053988367 -0.012356607 -0.397621
000110 02 23 11 be 86 46 79 3e ec 6a b9 3d 62 35 c6 3c
       -0.1417351 0.24343309 0.09053597 0.024195377
000120 c6 64 07 3e 11 fe 8b bc 59 9c 88 3d 6e 6c 9a bd
       0.13222036 -0.017088922 0.06670446 -0.075402126
000130 55 36 9a bd 0f 47 4e 3d d6 19 95 3e 6d de 2f 3c
       -0.07529894 0.050360736 0.29121274 0.010734183
000140 12 9d 0a 3e 2a 76 13 bd c3 e2 c2 3d 4b c3 4a 3e
       0.1353648 -0.036001362 0.095159076 0.19801061
000150 b5 aa ce bd e5 fb 3e bd 4f 50 1b be c9 76 5a be
       -0.100911535 -0.046626944 -0.15167354 -0.21334375
000160 d9 1d 26 be 1d 19 ef 3c 28 c7 4d bc fd cc 5e be
       -0.16222323 0.02918678 -0.01255969 -0.21757884
000170 7a be 3d 3e 13 d2 14 be 7b 2b c8 bd 18 6c 26 3c
       0.18529692 -0.14533262 -0.09773918 0.0101576075
000180 73 94 8e 3e b5 6d 9d 3d 56 f3 10 be fb 6c 59 3d
       0.27847633 0.076869406 -0.14155325 0.053082447
000190 5d 30 23 be 70 9b 23 3c 1a 27 db 3c 7c 1e ba bd
       -0.15936418 0.00998579 0.026752044 -0.09087846
0001a0 99 7c 94 3d 03 d3 0e 3e 7d 34 2c be 59 ea 29 3e
       0.072503276 0.13947682 -0.16816898 0.16593303
0001b0 08 9a 4c be aa 7e 29 be 20 ff ea bd 44 e9 7a bd
       -0.19980633 -0.16552225 -0.114744425 -0.061257616
0001c0 68 6d 1a 3e 22 38 91 bd 97 5c 37 bd 5a 0c a2 3c
       0.15080798 -0.070907846 -0.044766035 0.01978128
0001d0 e9 23 9a be 5c b1 c5 3d f4 1e 16 be 62 78 1c be
       -0.30105522 0.09652969 -0.14660245 -0.15280297
0001e0 a6 b4 3b 3e 91 6d 80 bc 41 67 d4 3c 79 2b 83 be
       0.1833063 -0.015677245 0.025928142 -0.25619105
0001f0 cc b9 10 3d 24 7c 60 be f3 0b 85 3c 1a e3 35 be
       0.03533344 -0.21922356 0.01624105 -0.17762414
000200 74 f6 21 be 29 1c 36 be 14 7a 4c bc 7d df 74 3c
       -0.1581667 -0.1778418 -0.012480278 0.014945862
000210 ab f9 fb 3d 1d cd 25 3e 8f 7b 50 3e f2 8c 5e 3e
       0.1230348 0.16191526 0.20359634 0.21733454
000220 e3 ee 3e 3c d5 e0 6d 3d 15 17 83 3d 62 7f 3c 3d
       0.011653635 0.058075745 0.06400887 0.04601992
000230 ed f1 0a 3e 9c fd c9 3a 7c 5e 80 bd 8e e3 f0 bd
       0.1356885 0.0015410664 -0.062680215 -0.117621526
000240 6f 8a 3a be a4 d9 0b 3e 72 19 18 be ea 58 5f bd
       -0.1821687 0.13657242 -0.14853457 -0.054528154
000250 86 df 9f bd d5 b8 75 be fd 07 33 3e 3b fa b8 bc
       -0.078063056 -0.23996289 0.17483516 -0.022580257
000260 ba 7c 26 be b9 67 ea 3d b3 53 be bd 7e d7 19 3e
       -0.16258517 0.11445565 -0.09293308 0.1502361
000270 48 e6 2a be bd 94 0e bd e0 ea f7 bd 42 43 fe 3b
       -0.16689408 -0.034809817 -0.12105346 0.0077594826
000280 df ee 39 3e 0a 25 2a be 0c 71 0f be 0d ee 98 3d
       0.18157528 -0.16615692 -0.14007968 0.074672796
000290 d6 9e 0f 3c 0e fb f5 3d c8 e2 4a 3d 0f 9d 28 be
       0.008765897 0.120107755 0.04953268 -0.16466163
0002a0 26 cf 0a 3e 75 52 1e bd 67 e4 9a 3d 4c 0a 95 3d
       0.13555583 -0.038652856 0.075630955 0.072773546
0002b0 90 3a 80 be 9e 4b 16 3d df 3d 9f 3d 16 32 56 3e
       -0.2504468 0.036693208 0.07775473 0.20917544
0002c0 23 66 02 be fc 10 7d 3d 4a 50 ab 3d f5 12 e9 bd
       -0.12734275 0.061783776 0.08364923 -0.11380569
0002d0 46 44 2a bd 94 d5 5b 3d f1 69 04 3d 2b 84 12 3d
       -0.041569017 0.05367048 0.032327596 0.035770576
0002e0 11 9a 9a 3d 48 0f 85 3d e2 e1 0f 3d 5c 01 a0 3d
       0.07548917 0.06497055 0.035127528 0.07812759
0002f0 45 95 85 bd b2 5f aa bd 38 24 3f 3c 5c a3 40 be
       -0.065226115 -0.08319034 0.01166635 -0.18812317
000300 9b 6f 90 bd 52 64 0b 3c 4e c0 bd bc 81 a2 b0 3d
       -0.07052537 0.008507805 -0.023162987 0.08624745
000310 7b 4a 0e 3e 64 38 ad bc 92 d6 2e 3e 23 99 4b 3e
       0.138956 -0.021145053 0.1707404 0.19882636
000320 b9 29 55 be 57 0a b4 bd 5e 3d 8e 3e 0c cf e3 3d
       -0.20816697 -0.08791035 0.27781194 0.111234754
000330 cb c4 15 3e 61 30 81 bd 20 27 58 bc fe 44 9c bd
       0.14625852 -0.06308056 -0.013192922 -0.07630347
000340 a8 d3 29 be 01 7b 14 be de 3e dd 3d 61 9f 59 3c
       -0.16584647 -0.14500047 0.108030066 0.013282628
000350 a2 29 df 3d 55 8f 0f be 16 ad db 3d e5 2e 5f be
       0.10896613 -0.1401952 0.10726373 -0.21795233
000360 8d ff 1e bd 9d 60 8a 3d 3a 26 3e be 3d 03 ae bd
       -0.03881793 0.06756709 -0.1856927 -0.084967114
000370 c6 74 34 bd e8 5f 87 bd 94 c7 8e 3d cc 8e c5 3c
       -0.044056676 -0.066100895 0.0697166 0.024115942
000380 94 73 38 be 78 c8 f5 3d 32 57 d0 bd 3f 6d 1d be
       -0.1801284 0.12001127 -0.10172881 -0.15373705
000390 4c eb 86 be 21 a2 08 3e 04 82 66 bd 84 99 3b be
       -0.26351392 0.13343097 -0.056276336 -0.1832028
0003a0 4f 31 56 bd 5f e4 28 be 29 63 40 bd cf 09 aa 3d
       -0.052293118 -0.16493367 -0.046969566 0.08302652
0003b0 bb 89 07 be e5 3d 69 3e 92 9e 89 bc f8 22 2c 3e
       -0.13236134 0.22777517 -0.016799245 0.16810215
0003c0 a3 ab a0 bd e3 8f bb bd 61 75 b6 bd f8 02 95 bb
       -0.07845237 -0.091583036 -0.08909107 -0.004547473
0003d0 f6 c2 72 3e 47 39 ed 3d c8 0d 3c be e9 c9 9c bc
       0.23707184 0.115831904 -0.18364632 -0.019139247
0003e0 18 13 25 bd 14 29 52 be fd 9e 12 3c 21 97 de bc
       -0.040301412 -0.20523483 0.008949039 -0.027171673
0003f0 81 4b 52 be b7 2d e7 bd aa 5f da 3d e0 f4 0b be
       -0.20536615 -0.11288016 0.10662778 -0.13667631

transformer_encoder.layers.0.linear2.bias f4 [32]
000000 75 2a a8 3a 76 d9 c1 3b 93 0c 10 bc 24 0d c9 3c
       0.0012830036 0.005915816 -0.00879206 0.024542399
000010 f5 92 0e 3c 4d 3f 05 3c f7 0c 72 3c 2f 84 91 bb
       0.0087020295 0.008132768 0.014773599 -0.0044408063
000020 1d 01 a8 b9 f6 70 c4 3c f4 52 cd 3d 14 7b d4 bc
       -0.00032044286 0.023979645 0.10025588 -0.025937594
000030 a4 19 18 3c 03 39 b9 3c 6f 0a b6 bc a3 f3 16 bc
       0.009283457 0.022610193 -0.022221772 -0.009213361
000040 dd 72 b1 3c 0e b2 4c 3c 59 a7 1d 3c 2f d8 06 3d
       0.021661216 0.012493623 0.009622418 0.032921012
000050 b5 39 3f 3c 4a 7f 23 bb cb e8 b6 3c 18 d5 b1 bd
       0.011671473 -0.0024947696 0.022327801 -0.086832225
000060 a0 c3 28 3d b8 f9 be 3c 5b 92 8a bc 5d 15 f2 3c
       0.041202188 0.023312435 -0.01691549 0.029551202
000070 a0 e0 05 3c 2a c8 9e bb b5 c8 9e 3c ea 62 16 3c
       0.008171231 -0.0048456388 0.019382814 0.009178856

transformer_encoder.layers.0.norm1.weight f4 [32]
000000 a4 03 95 3f 52 1c 96 3f 84 fb 7a 3f 38 ee 78 3f
       1.1641736 1.1727393 0.9804003 0.9723849
000010 69 91 95 3f 61 24 7a 3f 33 1b 71 3f bd 5f 88 3f
       1.1685001 0.9771176 0.9418213 1.0654217
000020 79 46 6c 3f 65 a6 4e 3f f7 1f 32 3f 39 6c 6f 3f
       0.9229503 0.8072265 0.69580024 0.9352451
000030 10 c3 74 3f 6a 89 4c 3f 57 75 5b 3f 1e 45 8f 3f
       0.9561014 0.7989718 0.8572592 1.1192968
000040 40 ee 61 3f d7 ab 97 3f ef 55 86 3f 36 de 85 3f
       0.88254166 1.1849316 1.0494975 1.0458438
000050 57 13 9a 3f ee 74 62 3f 69 fd 84 3f 80 36 67 3f
       1.2037152 0.8845967 1.0389835 0.90317535
000060 c6 9c 80 3f 24 16 64 3f e6 e6 82 3f 45 a2 67 3f
       1.0047843 0.89096284 1.0226715 0.9048198
000070 3a 72 7e 3f 3f e3 84 3f a1 be 65 3f cb f2 2b 3f
       0.99393046 1.038185 0.89744 0.6716735

transformer_encoder.layers.0.norm1.bias f4 [32]
000000 74 bc 04 3b a1 54 04 be af 68 f0 ba 83 8c 15 bd
       0.0020253928 -0.12922908 -0.0018341745 -0.036510956
000010 88 f1 34 3e d7 c6 86 bd 13 d1 d3 3a c1 63 53 bd
       0.17670262 -0.065808944 0.0016160331 -0.051608805
000020 66 05 93 bc e3 e2 0d bd 9c 50 b8 3e fb b5 fb 3c
       -0.01794691 -0.034640204 0.35999 0.030726423
000030 eb cc 3a bd 25 c3 f0 bc cc 3a c4 bd 21 3f df bc
       -0.04560558 -0.029389927 -0.09581527 -0.027251782
000040 99 15 c4 bd 43 5e 7d be a9 ac 2a bd a7 d8 2f be
       -0.09574432 -0.24742989 -0.041668568 -0.1717249
000050 29 6b 33 bd 8b 68 8f 3d ce 74 74 3c 35 3d df bd
       -0.043803368 0.07002362 0.0149204265 -0.10900346
000060 a0 44 fc 3c 7c 58 83 3d 94 a9 8c bd 28 a6 03 3d
       0.030794442 0.064133614 -0.06868282 0.03214088
000070 c7 1c 05 3d cf bb 46 bb b6 0e ee bc 7a ba 10 be
       0.032498147 -0.0030324345 -0.02905975 -0.14133635

transformer_encoder.layers.0.norm2.weight f4 [32]
000000 29 a1 8f 3f aa a7 8e 3f 26 62 74 3f 36 bd 86 3f
       1.1221057 1.1144917 0.9546226 1.0526493
000010 c0 86 95 3f 41 5c 7b 3f fa 27 70 3f 17 39 91 3f
       1.1681747 0.98187643 0.93811 1.1345547
000020 14 b3 74 3f 23 dd 66 3f fe a6 83 3f cf c3 6f 3f
       0.9558575 0.9018118 1.0285337 0.93658155
000030 d2 b6 82 3f 6f 50 60 3f d8 5c 57 3f 9d a8 86 3f
       1.0212042 0.8762273 0.84126043 1.0520207
000040 be f2 58 3f c4 8d 99 3f 7b 51 89 3f 06 15 87 3f
       0.84745395 1.1996388 1.0727991 1.0553291
000050 9b ad 9c 3f 99 7a 5f 3f 7d bc 7b 3f 07 18 81 3f
       1.224048 0.87296444 0.98334485 1.0085458
000060 0d fa 8b 3f 50 bd 51 3f ab da 69 3f e2 0b 80 3f
       1.0935684 0.8192949 0.91349286 1.0003626
000070 af 3d 6d 3f 51 26 74 3f 41 6d 51 3f 77 18 4b 3f
       0.92672247 0.95370966 0.81807333 0.79334205

transformer_encoder.layers.0.norm2.bias f4 [32]
000000 12 15 d3 3c 3b 4f 4b bd ad fb 83 ba 55 18 98 bd
       0.025766883 -0.049636107 -0.0010069512 -0.07426516
000010 43 93 42 3e 13 0a f3 bb 54 31 17 3c 0a ba d8 bc
       0.19001488 -0.0074169724 0.009228069 -0.026455898
000020 c7 ad 93 bc a9 f7 10 bd c4 6d 9d 3e 8f f5 91 3d
       -0.0180272 -0.035392437 0.30747807 0.07126915
000030 56 5d 8e bd 73 3b 31 bd 36 21 ab bd 02 4f d2 3b
       -0.06951396 -0.043269586 -0.08355944 0.00641811
000040 e5 60 04 be ab cf 88 be c3 e0 31 3d c2 f5 5f bd
       -0.12927587 -0.26720938 0.04342724 -0.054677732
000050 6c 21 2e bb 7b e3 bd 3d f7 96 ff 3c 90 fe 51 be
       -0.0026570214 0.09271904 0.031199915 -0.20507264
000060 f0 d6 e1 bd 62 de 6c 3d 0c 3a 92 bc 22 1d e5 3d
       -0.11027324 0.05782927 -0.017849945 0.11187197
000070 c2 ab 07 3b c7 18 8c 3c 5a 75 10 bd 89 41 aa bd
       0.002070174 0.017101659 -0.035268165 -0.08313281
