saved_models/tab_transformer_ed_32_nh_4_nl_2_lr_0.001.pth (torch, 86626 bytes, 27 tensors)

embedding.weight f4 [32, 48]
0.024941191 -0.0628667 0.111811794 0.01629038 -0.015415349 0.05842305 0.049254116 0.024855023
-0.041712448 0.10218465 -0.08864498 -0.040194105 0.117715515 -0.09041927 0.06538842 0.08774335
-0.040376578 -0.042299997 0.0024567822 -0.039093282 0.027227731 -0.06575029 0.21843643 -0.01840956
0.09532205 -0.1588941 0.29155535 0.23148498 0.27991986 0.15658315 0.16337927 0.13727386
0.1105448 -0.062365677 0.18880163 0.2402256 0.032910526 0.09982066 0.2098529 0.08446056
0.07054357 0.088897005 0.31912294 0.09431795 0.2776614 0.19788067 0.18265294 0.084650666
0.074308425 -0.05608844 0.17595237 0.20318535 -0.03855293 -0.029360045 -0.008178134 -0.26584667
-0.05129265 0.0405365 -0.20315313 -0.09631573 0.11915473 -0.29977527 -0.019960305 0.045448333
-0.13825431 -0.12989214 -0.07488121 0.03884803 0.07971348 0.08456861 -0.22768912 0.088589646
0.007365422 -0.13061935 0.2106033 0.26823232 -0.0017406723 0.041981384 0.117085904 0.092536114
0.1508836 0.13050583 0.31255352 0.05659949 0.2643265 0.2027456 -0.090709575 -0.003521508
0.25450492 0.12011049 -0.11192227 -0.18492492 0.30326623 0.3243733 0.18922155 0.17091046
0.10886992 0.1283527 -0.07041294 0.023529746 0.033843342 0.044009987 0.20779286 0.06587563
-0.08969259 -0.13864426 0.057798896 0.017458301 -0.113751456 -0.09250264 0.23530713 -0.07406649
-0.06920212 0.17711711 -0.153599 -0.031322412 -0.14206102 0.030196797 -0.26911417 -0.21295963
-0.17967749 -0.041889694 0.33408433 0.25094014 0.007256866 0.25574833 0.30843055 0.1899909
0.2358641 0.28178003 0.30356926 -0.057030424 0.091913894 0.3710845 0.19238044 0.27631584
0.14965297 0.3287125 0.27439407 0.15332086 0.024818668 -0.07329275 0.07853751 0.13006914
-0.11756162 -0.09644574 -0.036208764 0.05606333 -0.08165931 0.011143135 -0.011885963 -0.13124295
-0.023422547 0.06429355 -0.11181591 -0.05122407 -0.24144356 0.122848764 -0.16946732 0.0901725
-0.0041622547 -0.15302454 0.052870866 0.14976726 0.061216578 0.1726264 0.006399077 0.19090591
-0.06554937 0.03094126 -0.1647086 -0.02835759 -0.15056244 -0.17262995 0.027973907 0.17430136
-0.093652055 -0.14384465 -0.005628256 0.08658324 0.08892018 -0.10663035 -0.17251635 -0.15990491
-0.093217455 0.021433707 0.09721311 0.0046631503 -0.1720174 -0.11807893 -0.08488924 -0.21752125
0.011467711 -0.05757403 0.01640412 0.11055373 0.048043657 -0.2531777 0.02767524 -0.11389392
-0.045377158 -0.057736497 -0.08714003 -0.041065827 -0.28176793 -0.18375948 -0.09271591 0.034764647
0.053688273 0.058712333 0.10129001 -0.0955545 -0.14876376 0.17032418 -0.43497744 0.07714649
0.20205177 -0.03355239 0.0718754 0.1629824 0.25819874 0.2618486 0.24678889 0.36429465
0.34154952 0.16918524 -0.008857318 0.2944107 0.24924064 0.09746035 -0.08908213 0.26331702
0.089880794 0.21049832 -0.006939344 0.027474254 0.26715678 0.28448454 -0.053500347 0.11818355
0.040843036 -0.05923479 -0.02672739 0.009697049 0.026731232 0.0035940276 -0.21786433 -0.11817456
-0.12789366 -0.05991773 0.14694874 -0.067215234 0.062436342 -0.02880262 -0.040290076 0.013453646
00000000: 7851 cc3c 42c0 80bd 95fd e43d 6773 853c
00000010: a990 7cbc 024d 6f3d afbe 493d c39c cb3c
00000020: acda 2abd 3046 d13d 808b b5bd 93a2 24bd
00000030: d514 f13d bd2d b9bd 5dea 853d c9b2 b33d
00000040: e961 25bd c342 2dbd f701 213b 4720 20bd
00000050: b10c df3c 17a8 86bd cdad 5f3e a5cf 96bc
00000060: 3538 c33d 23b5 22be be46 953e 660a 6d3e
00000070: a851 8f3e 5557 203e e54c 273e 8591 0c3e
00000080: 5065 e23d 2773 7fbd 3755 413e b3fd 753e
00000090: 30cd 063d c66e cc3d aee3 563e a8f9 ac3d
000000a0: 2679 903d a20f b63d 1564 a33e c529 c13d
000000b0: a329 8e3e 3ba1 4a3e 5f09 3b3e 545d ad3d
000000c0: 042f 983d febc 65bd dc2c 343e d20f 503e
000000d0: ade9 1dbd 7a84 f0bc 95fd 05bc 0e1d 88be
000000e0: 3e18 52bd 9a09 263d 6007 50be 2e41 c5bd
000000f0: 6507 f43d 257c 99be cb83 a3bc 0828 3a3d
00000100: 8a92 0dbe 7202 05be 525b 99bd 1d1f 1f3d
00000110: d240 a33d 4f32 ad3d 5627 69be 7d6e b53d
00000120: a359 f13b 14c1 05be 64a8 573e bf55 893e
00000130: 4527 e4ba acf4 2b3d bcca ef3d 9383 bd3d
00000140: 3b81 1a3e 52a3 053e 0407 a03e ded4 673d
00000150: ce55 873e 8b9c 4f3e f1c5 b9bd 1ac9 66bb
00000160: 784e 823e 7dfc f53d 8137 e5bd f55c 3dbe
00000170: b645 9b3e 4214 a63e 4bc3 413e 2703 2f3e
00000180: 31f7 de3d e46e 033e a934 90bd 74c1 c03c
00000190: 519f 0a3d d143 343d a7c7 543e cde9 863d
000001a0: c0b0 b7bd c3f8 0dbe 89be 6c3d b604 8f3c
000001b0: 86f6 e8bd 0672 bdbd 5af4 703e 2cb0 97bd
000001c0: d7b9 8dbd 305e 353e 0e49 1dbe ee4b 00bd
000001d0: 7278 11be 465f f73c 55c9 89be 1712 5abe
000001e0: 60fd 37be 8794 2bbd 1a0d ab3e 3a7b 803e
000001f0: 01cb ed3b 72f1 823e 9cea 9d3e f98c 423e
00000200: 5c86 713e 7945 903e 6e6d 9b3e bc98 69bd
00000210: 5a3d bc3d cafe bd3e 61ff 443e 4579 8d3e
00000220: a13e 193e 014d a83e 617d 8c3e 2500 1d3e
00000230: 8550 cb3c 821a 96bd 46d8 a03d d830 053e
00000240: 26c4 f0bd 5885 c5bd a44f 14bd aaa2 653d
00000250: ff3c a7bd b291 363c 58bd 42bc 8d64 06be
00000260: a4e0 bfbc 56ac 833d bdff e4bd 55d0 51bd
00000270: fb3c 77be 2298 fb3d d788 2dbe 5cac b83d
00000280: 8663 88bb 77b2 1cbe 1f8f 583d 975c 193e
00000290: 3cbe 7a3d fac4 303e 59af d13b d77c 433e
000002a0: c03e 86bd 8678 fd3c 5fa9 28be 2d4e e8bc
000002b0: 0a2d 1abe e8c5 30be 8929 e53c 0e7c 323e
000002c0: a6cc bfbd 034c 13be 3c6d b8bb 8e52 b13d
000002d0: c91b b63d 0361 dabd 20a8 30be 1dbe 23be
000002e0: cbe8 bebd be95 af3c ab17 c73d 57cd 983b
000002f0: 5425 30be 5ed3 f1bd 69da adbd e4bd 5ebe
00000300: 11e3 3b3c bfd2 6bbd ef61 863c fe69 e23d
00000310: 6dc9 443d 82a0 81be 2fb7 e23c 3741 e9bd
00000320: 66dd 39bd 1b7d 6cbd 7976 b2bd a434 28bd
00000330: e343 90be 722b 3cbe d7e1 bdbd 6065 0e3d
00000340: 3ce8 5b3d 587c 703d 2371 cf3d 14b2 c3bd
00000350: 8755 18be 7669 2e3e 5db5 debe fbfe 9d3d
00000360: a9e6 4e3e 3b6e 09bd 6933 933d dce4 263e
00000370: a032 843e 0511 863e 3ab6 7c3e d484 ba3e
00000380: 94df ae3e e53e 2d3e 491e 11bc 00bd 963e
00000390: f038 7f3e 4b99 c73d b170 b6bd 7dd1 863e
000003a0: 6c13 b83d df8c 573e 7063 e3bb b011 e13c
000003b0: c6c8 883e f5a7 913e 2e23 5bbd 380a f23d
000003c0: 074b 273d 2ea0 72bd 66f3 dabc 5fe0 1e3c
000003d0: 75fb da3c c789 6b3b d417 5fbe 8105 f2bd
000003e0: 8ef6 02be 4b6c 75bd bb79 163e 24a8 89bd
000003f0: 40bd 7f3d 79f3 ebbc 3507 25bd ae6c 5c3c

embedding.bias f4 [32]
0.21245538 0.1661378 0.24223837 -0.01995779 0.18642183 -0.040733334 0.085280694 -0.07731662
0.07184991 -0.03507755 -0.090049796 -0.24839951 0.16001591 0.0063677514 -0.13699299 -0.13634087
-0.29696846 0.22864094 0.06766184 -0.07961253 -0.11400364 0.19401774 -0.0901628 -0.072903685
-0.028113184 0.24283288 -0.15129699 -0.3623764 0.08701128 -0.083499245 -0.06405211 0.054651696
00000000: e78d 593e 0720 2a3e 560d 783e 857e a3bc
00000010: 5de5 3e3e ffd7 26bd a5a7 ae3d 2d58 9ebd
00000020: 0c26 933d 7aad 0fbd 076c b8bd 715c 7ebe
00000030: 36db 233e 92a8 d03b e447 0cbe f19c 0bbe
00000040: 400c 98be da20 6a3e 4a92 8a3d e50b a3bd
00000050: be7a e9bd 96ac 463e 46a7 b8bd 874e 95bd
00000060: 9f4d e6bc 2fa9 783e 99ed 1abe 6689 b9be
00000070: f832 b23d a701 abbd c12d 83bd 75da 5f3d

transformer_encoder.layers.0.self_attn.in_proj_weight f4 [96, 32]
0.21164806 -0.13690902 0.21239461 -0.17885423 0.033855386 -0.1525951 -0.046143785 0.13178164
-0.103597 0.064772144 -0.0052959574 0.1727328 -0.13976517 -0.0065606073 0.14030178 0.17913099
0.032882005 0.064849414 -0.051370453 -0.14071299 -0.025896786 0.15616404 -0.10650029 0.034163654
0.021976683 -0.14788456 -0.03736659 0.13259009 -0.059072047 -0.16868722 -0.026307262 0.13950118
-0.17227675 -0.004681995 -0.11887117 0.10516467 -0.08409335 -0.13776863 -0.027246999 -0.20855258
-0.041096605 0.12311311 -0.03726715 0.08647423 0.083158344 0.0560346 -0.1982255 0.03599711
0.018733418 0.09955517 0.10383569 0.050417755 -0.20455867 0.07541074 -0.1840993 -0.069183975
0.039695133 -0.089923196 0.17877972 0.077304 -0.009281052 -0.042149417 0.003044508 -0.17573506
0.13411956 -0.0428003 -0.1967669 -0.13779289 -0.21087168 0.04071798 0.13609606 0.19182104
0.18528669 -0.069958866 0.14651501 0.13558424 0.1803908 0.096894994 -0.19152178 -0.17104642
0.06969271 -0.110010095 0.101510346 -0.0034824787 0.14210601 -0.20864445 0.060741052 0.002736413
0.1367466 -0.19448729 0.1925194 0.081193194 0.06603592 -0.030870985 0.08353141 0.11034884
0.19158714 0.19753964 -0.16537328 0.0014492837 -0.011251898 -0.17646693 -0.0767252 -0.16943243
0.108379066 0.11827479 0.12008327 -0.122425534 0.03762413 0.029457485 -0.11700255 0.09414528
-0.18337771 -0.10217119 -0.020534106 -0.13786256 0.07252266 -0.04421201 -0.09382916 -0.14115791
0.05523993 -0.14982094 0.06698171 -0.12130928 0.12027556 -0.0713522 -0.13165341 0.07919297
-0.16495767 -0.21382593 0.038058475 0.022480732 0.11601041 -0.07456521 0.19592252 0.15360555
0.15990598 0.023064835 0.022414476 0.053810842 0.1876366 -0.20456919 -0.07110121 -0.0031420174
0.081646696 -0.10975145 0.00044596422 -0.1888181 -0.16405545 -0.16820166 0.13202624 -0.17675897
-0.013803319 -0.0023252403 -0.17554666 -0.11856545 -0.17632009 -0.041368302 -0.096250676 -0.09222729
0.19910325 -0.18789244 0.13203607 0.19118705 0.19497022 0.17267968 0.025930202 -0.11652853
0.04988221 -0.20449123 0.057582363 0.04022065 -0.062357698 -0.084441595 0.03375191 -0.046327066
-0.060619485 0.1180701 -0.017714275 0.19629861 0.14460453 0.19591706 -0.16502155 0.13511565
0.07062285 -0.06869215 0.10461641 -0.10063288 0.11513747 -0.060315203 0.07012962 -0.15578687
0.044802427 -0.16383493 -0.017000463 0.032008287 0.1191074 -0.15890309 0.013326111 -0.16605893
0.18044733 0.16724625 -0.011717587 0.22078025 0.07601769 0.033807196 -0.187778 0.12557594
0.100222446 0.06913647 0.06980181 -0.0398951 -0.10927887 0.110956766 -0.045388352 -0.039731532
-0.06357286 -0.08259115 0.13494177 -0.20018712 -0.053709716 -0.13183726 0.022328516 -0.1251376
-0.08084793 -0.12935174 -0.06872049 0.13430317 0.04402166 0.16983408 -0.1819084 -0.037546325
0.16687052 -0.15843819 0.120789625 -0.1731634 0.035128087 -0.1222509 0.04517225 0.1000035
0.07344957 0.015328375 -0.07089314 0.13155825 0.11091605 0.05614032 -0.17798793 -0.14982271
0.03940662 -0.16052532 -0.048492372 0.1515493 0.09575903 0.0422627 -0.0008668757 -0.05859828
00000000: 45ba 583e e131 0cbe f97d 593e 9025 37be
00000010: f2ab 0a3d e441 1cbe 4401 3dbd c4f1 063e
00000020: aa2a d4bd 42a7 843d b689 adbb dee0 303e
00000030: 9a1e 0fbe 5dfa d6bb 45ab 0f3e 1d6e 373e
00000040: 48af 063d c5cf 843d d369 52bd 1117 10be
00000050: 7f25 d4bc 77e9 1f3e d31c dabd 30ef 0b3d
00000060: 7208 b43c 0d6f 17be b60d 19bd b2c5 073e
00000070: 88f5 71bd 58bc 2cbe 5482 d7bc 66d9 0e3e
00000080: 5169 30be 6c6b 99bb ba72 f3bd 9360 d73d
00000090: 2239 acbd 3813 0dbe 1935 dfbc cf8e 55be
000000a0: ea54 28bd ba22 fc3d 70a5 18bd 6719 b13d
000000b0: ec4e aa3d 8984 653d a0fb 4abe b571 133d
000000c0: d376 993c 95e3 cb3d cea7 d43d d982 4e3d
000000d0: d477 51be f270 9a3d 8784 3cbe 54b0 8dbd
000000e0: 5d97 223d a729 b8bd 0812 373e 8f51 9e3d
000000f0: 8e0f 18bc dea4 2cbd 5e86 473b e4f3 33be
00000100: a356 093e 5e4f 2fbd 437d 49be 9419 0dbe
00000110: bfee 57be e6c7 263d c45c 0b3e bc6c 443e
00000120: cbbb 3d3e 9846 8fbd 0808 163e 98d6 0a3e
00000130: 5eb8 383e e270 c63d 491e 44be cb26 2fbe
00000140: 0dbb 8e3d f94c e1bd a8e4 cf3d 4c3a 64bb
00000150: 3d84 113e e4a6 55be 9ccb 783d 6455 333b
00000160: 4d07 0c3e ad27 47be ce23 453e 9e48 a63d
00000170: d73d 873d 26e5 fcbc 8412 ab3d 93fe e13d
00000180: 6b2f 443e d547 4a3e 9d57 29be e4f5 bd3a
00000190: e159 38bc bfb3 34be 1a22 9dbd b27f 2dbe
000001a0: d8f5 dd3d 0e3a f23d 38ee f53d 3dba fabd
000001b0: c21b 1a3d d350 f13c 089f efbd 3ecf c03d
000001c0: 5ec7 3bbe 213f d1bd 2437 a8bc d82b 0dbe
000001d0: c386 943d a717 35bd 8129 c0bd b38b 10be
000001e0: 4443 623d a96a 19be b52d 893d 0071 f8bd
000001f0: 0853 f63d 1a21 92bd 27d0 06be ed2f a23d
00000200: aaea 28be 2ff5 5abe 34e3 1b3d 8329 b83c
00000210: de96 ed3d a5b5 98bd ea9f 483e c64a 1d3e
00000220: 65be 233e 77f2 bc3c 909e b73c c268 5c3d
00000230: cf23 403e 967a 51be 839d 91bd 4eea 4dbb
00000240: 6236 a73d 5ec5 e0bd 4ed0 e939 8859 41be
00000250: 27fe 27be 0e3d 2cbe e331 073e 4e00 35be
00000260: 5127 62bc 0f63 18bb 81c2 33be 71d2 f2bd
00000270: 418d 34be cf71 29bd 131f c5bd a9e1 bcbd
00000280: b9e1 4b3e e066 40be 7734 073e 8ac6 433e
00000290: 46a6 473e f1d2 303e 936b d43c 83a6 eebd
000002a0: 4a51 4c3d 2666 51be 7cdb 6b3d 69be 243d
000002b0: c96a 7fbd b7ef acbd 713f 0a3d 73c1 3dbd
000002c0: 234c 78bd bdce f13d 871d 91bc 8102 493e
000002d0: 3613 143e 7b9e 483e 69fb 28be c25b 0a3e
000002e0: b6a2 903d 78ae 8cbd 2141 d63d 9d18 cebd
000002f0: 32cd eb3d 130d 77bd 1ea0 8f3d 9886 1fbe
00000300: c082 373d 58c4 27be 8e44 8bbc 1f1b 033d
00000310: 95ee f33d 7eb7 22be c355 5a3c 5a0b 2abe
00000320: 2fc7 383e 9a42 2b3e 1ffb 3fbc 3814 623e
00000330: 2aaf 9b3d 6a79 0a3d e048 40be fb96 003e
00000340: 6d41 cd3d 6c97 8d3d 40f4 8e3d 0b69 23bd
00000350: 9acd dfbd 4d3d e33d 23e9 39bd 88bd 22bd
00000360: 7d32 82bd 8d25 a9bd 2d2e 0a3e dafd 4cbe
00000370: b8fe 5bbd 5900 07be 4bea b63c 1224 00be
00000380: 9993 a5bd c874 04be 54bd 8cbd c586 093e
00000390: 0e50 343d fce8 2d3e 3246 3abe 2dca 19bd
000003a0: 1be0 2a3e 9f3d 22be 8d60 f73d bf51 31be
000003b0: 78e2 0f3d ae5e fabd 8a06 393d a3ce cc3d
000003c0: ba6c 963d dd23 7b3c 6c30 91bd 35b7 063e
000003d0: f427 e33d 64f3 653d 7842 36be 206b 19be
000003e0: d668 213d c060 24be f09f 46bd bd2f 1b3e
000003f0: 4f1d c43d a71b 2d3d 0b3f 63ba c004 70bd

transformer_encoder.layers.0.self_attn.in_proj_bias f4 [96]
0.0023125457 -5.895595e-05 -0.0054246294 -0.0036049818 0.004926177 -0.0027691054 -0.010813449 0.0068768347
0.004434052 0.0028664882 0.003187281 -0.0009837215 -0.0028300139 -0.0026596827 -0.005110987 0.00011175995
0.0055006305 0.005249833 -0.005848298 0.006506581 0.0012079545 0.0078178225 0.005007216 -0.002710221
-0.001856083 -0.0025908393 0.0028500708 -0.00032305854 0.003112832 0.00057203963 0.0024924865 0.002861407
0.0033268805 -0.0034899488 0.0027119261 -0.012171525 0.005318781 0.0024950115 -0.0022601595 -0.0025977907
-0.0045203744 0.0005866679 -0.003908461 0.006772255 -0.0022352592 -0.00032917532 -0.0059933746 -0.0034008308
-0.009204371 0.0026108527 0.006453692 0.0043693804 -0.011314945 -0.0031132041 0.009889616 -0.0022474392
0.00010036607 -0.00012491574 0.0041334447 0.00057377154 -0.00040713348 0.0007810689 -0.005427111 -0.001284859
0.016474836 -0.02231641 -0.04110866 0.009259866 0.0057487716 0.049724467 -0.02120374 -0.0011935526
0.04690942 -0.054676853 -0.0137471985 -0.0120517835 -0.055529054 -0.05182122 0.018594164 -0.022346314
0.028943045 0.0096719125 0.010098361 0.061753165 -0.026511148 0.01027661 -0.0386594 -0.026141228
-0.02185747 0.0062721614 -0.07034323 -0.057730686 -0.013196216 -0.017103072 0.056960315 0.059800245
00000000: 148e 173b 7847 77b8 17c1 b1bb 8f41 6cbb
00000010: c56b a13b e179 35bb e42a 31bc 1257 e13b
00000020: 864b 913b b1db 3b3b b4e1 503b 37f0 80ba
00000030: c177 39bb 124e 2ebb 117a a7bb ab60 ea38
00000040: a23e b43b cb06 ac3b 14a3 bfbb 2835 d53b
00000050: 3a54 9e3a 5316 003c 9213 a43b f79d 31bb
00000060: d047 f3ba 12cb 29bb 41c8 3a3b 2f60 a9b9
00000070: a800 4c3b eef4 153a fc58 233b 7186 3b3b
00000080: cb07 5a3b a0b7 64bb 92ba 313b 136b 47bc
00000090: 2b49 ae3b 5983 233b 2f1f 14bb b23f 2abb
000000a0: a61f 94bb 9eca 193a 8c12 80bb cbe9 dd3b
000000b0: 6d7d 12bb 2a95 acb9 1264 c4bb 79e0 5ebb
000000c0: eecd 16bc d71a 2b3b 7e79 d33b 052d 8f3b
000000d0: 5262 39bc e606 4cbb 0e08 223c c649 13bb
000000e0: a07b d238 d0fb 02b9 d971 873b 2869 163a
000000f0: 8874 d5b9 a6c0 4c3a e8d5 b1bb b768 a8ba
00000100: 3cf6 863c e7d0 b6bc 8e61 28bd b1b6 173c
00000110: 3160 bc3b e2ab 4b3d 77b3 adbc fb70 9cba
00000120: 1824 403d d6f4 5fbd ee3b 61bc d874 45bc
00000130: 6f72 63bd 7d42 54bd ca52 983c 9e0f b7bc
00000140: f719 ed3c f176 1e3c 9973 253c e3f0 7c3d
00000150: e82d d9bc 3a5f 283c 5259 1ebd 2126 d6bc
00000160: 700e b3bc b486 cd3b 1d10 90bd 0377 6cbd
00000170: f134 58bc be1b 8cbc 384f 693d 1af1 743d

transformer_encoder.layers.0.self_attn.out_proj.weight f4 [32, 32]
0.03744602 -0.103821516 0.26432762 0.34052405 -0.20732643 0.23582399 -0.16015895 0.08267927
-0.061703466 -0.22631015 0.11065004 -0.13218784 0.18742272 -0.04207964 -0.11803091 -0.096119255
-0.10673213 -0.17261499 0.210022 0.25082147 0.12098475 0.011180113 -0.17723626 0.07591489
0.0489705 0.26463538 -0.16410019 0.19900647 0.16106004 -0.115424715 0.1330881 0.20470385
0.11946979 -0.06659359 0.119640924 -0.22406542 0.104642816 -0.32095015 -0.1583082 0.101195045
0.04955896 -0.13032031 -0.16272488 0.21630566 -0.07652883 -0.13086231 -0.22423413 -0.078251615
0.156588 0.22284208 0.14999071 -0.12265175 0.2458041 -0.17330672 -0.267906 0.28899482
0.092809826 -0.101419136 -0.15662405 -0.070263416 -0.063947305 -0.16414845 -0.11073985 0.12123232
0.024065124 0.14640084 0.3287544 -0.14368519 0.24857609 0.102081485 0.0746157 -0.007748738
-0.0825886 0.07950335 -0.22211719 -0.1274976 -0.20582934 -0.37790063 -0.114145026 0.08535607
0.14794914 0.13184892 -0.007003464 0.3045665 -0.14856489 -0.10925985 0.08926144 -0.19472353
-0.07731126 0.08598963 -0.04431975 -0.3185372 -0.24267042 -0.11013875 0.05861056 0.11450575
0.013996436 0.15188344 0.066828124 -0.2864952 -0.08197771 -0.048251774 -0.14011139 -0.073675774
-0.26669365 0.080613576 -0.15761253 -0.31133437 -0.1604288 0.16442867 0.26923317 0.08280581
0.3060612 -0.15647335 0.017147504 -0.21740718 0.09618387 -0.14273626 -0.25692073 0.13626246
0.265393 -0.15345214 0.12417992 0.22859654 -0.19441925 -0.2575321 -0.06342935 0.2896226
-0.006770287 0.31372666 0.007373972 0.19936639 -0.25532404 0.18996783 -0.14962132 0.15727949
-0.15794778 0.15086135 0.07964949 -0.14103602 0.020260006 -0.03593129 0.1560408 0.017123526
0.12208027 0.0036671183 0.0325603 0.1250386 -0.10569567 0.24229929 0.14103507 0.3375847
-0.02539112 -0.0114657935 -0.12966178 0.21960083 -0.097323336 -0.068348035 -0.017122557 -0.18416622
-0.19056685 -0.26089764 -0.040458754 -0.23636423 -0.1759319 -0.27316648 -0.33410293 0.07084229
0.18631594 0.013993563 0.21746427 0.08601901 -0.065955855 -0.10217391 0.18336046 0.10628855
0.22430734 0.17599565 -0.23570995 -0.32312045 0.3131348 -0.24852374 -0.24658842 -0.1255046
0.22438012 0.108196646 -0.24160348 0.23634781 0.12544481 -0.19362798 0.2598494 -0.27433553
0.030902322 0.3757381 0.19984375 -0.277488 0.2160155 0.194138 -0.31351677 -0.10480459
0.023987686 -0.10985572 -0.12188101 0.021087086 -0.021277484 0.04465246 -0.016857972 -0.07122731
0.13035418 -0.1414588 0.001193191 0.09897288 0.12700164 0.08743106 -0.1401256 0.21744385
-0.016778156 0.17572011 -0.2602914 -0.043922465 0.036222305 0.087692 -0.24272138 -0.002650748
-0.09526273 -0.062256586 -0.1720334 0.10930717 0.006697294 0.13796194 0.0056225685 0.101233855
-0.023034455 0.052957285 -0.00067936454 -0.04302219 -0.0011923746 0.109757245 0.058194067 -0.019745918
-0.10567328 -0.23412077 -0.21721728 -0.17225389 0.028288865 -0.0011430238 0.3189494 -0.09684072
-0.0614331 -0.08641928 -0.12325727 0.021703292 -0.03587233 0.03991407 -0.12762722 -0.2613629
00000000: ff60 193d 60a0 d4bd f355 873e 2b59 ae3e
00000010: 614d 54be d87b 713e b500 24be c053 a93d
00000020: c6bc 7cbd d9bd 67be 7d9c e23d 405c 07be
00000030: beeb 3f3e b35b 2cbd 31ba f1bd 2cda c4bd
00000040: 6096 dabd fcc1 30be 0210 573e ac6b 803e
00000050: dac6 f73d cb2c 373c 6c7d 35be 4479 9b3d
00000060: 4a95 483d 4a7e 873e e109 28be 5ac8 4b3e
00000070: ecec 243e cb63 ecbd 3f48 083e e39d 513e
00000080: 94ac f43d 3862 88bd 4d06 f53d 6871 65be
00000090: f94e d63d 9453 a4be 8b1b 22be 593f cf3d
000000a0: 56fe 4a3d b072 05be 5aa1 26be 3b7f 5d3e
000000b0: 26bb 9cbd c500 06be a29d 65be 6242 a0bd
000000c0: 9b58 203e b730 643e 2a97 193e d730 fbbd
000000d0: 12b4 7b3e 5177 31be fa2a 89be 21f7 933e
000000e0: 1413 be3d d6b4 cfbd 0e62 20be 44e6 8fbd
000000f0: cef6 82bd 8816 28be 93cb e2bd a748 f83d
00000100: 3924 c53c 1aea 153e 7f52 a83e 3622 13be
00000110: bb8a 7e3e 1910 d13d 1ed0 983d 20e9 fdbb
00000120: 3624 a9bd a7d2 a23d b072 63be bb8e 02be
00000130: edc4 52be 317c c1be dec4 e9bd 2acf ae3d
00000140: fb7f 173e 6703 073e 507d e5bb 24f0 9b3e
00000150: 6521 18be a1c3 dfbd b4ce b63d 9b65 47be
00000160: 5e55 9ebd 551b b03d a088 35bd 4f17 a3be
00000170: 987e 78be 6d90 e1bd a011 703d fe81 ea3d
00000180: 4f51 653c 5587 1b3e 2fdd 883d 80af 92be
00000190: eee3 a7bd a7a3 45bd 5c79 0fbe 53e3 96bd
000001a0: 128c 88be bb18 a53d 2e65 21be 3867 9fbe
000001b0: 7347 24be fd5f 283e eed8 893e 1896 a93d
000001c0: 0eb4 9c3e 8d3a 20be ec78 8c3c fd9f 5ebe
000001d0: 0dfc c43d 7429 12be 1d8b 83be 6388 0b3e
000001e0: 97e1 873e 8f22 1dbe 0b52 fe3d 3615 6a3e
000001f0: d715 47be 3fdb 83be 3fe7 81bd 6a49 943e
00000200: 49d9 ddbb c8a0 a03e 5ca1 f13b b426 4c3e
00000210: d5b9 82be ed86 423e 5536 19be e00d 213e
00000220: 10bd 21be 667b 1a3e 461f a33d bf6b 10be
00000230: 50f8 a53c b02c 13bd 29c9 1f3e a346 8c3c
00000240: 3805 fa3d 0954 703b f35d 053d 1e0a 003e
00000250: f976 d8bd 4e1d 783e 7f6b 103e e7d7 ac3e
00000260: 0a01 d0bc 06db 3bbc 0fc6 04be 0adf 603e
00000270: 7551 c7bd 0efa 8bbd 9b44 8cbc 1296 3cbe
00000280: f523 43be 6094 85be 14b8 25bd 7709 72be
00000290: 7e27 34be 7adc 8bbe 8a0f abbe c315 913d
000002a0: 9bc9 3e3e 4245 653c f4ae 5e3e bc2a b03d
000002b0: dd13 87bd 8e40 d1bd d8c2 3b3e d0ad d93d
000002c0: d3b0 653e 3438 343e f35d 71be 0b70 a5be
000002d0: 3453 a03e 027d 7ebe ad81 7cbe 4784 00be
000002e0: e7c3 653e 3496 dd3d e766 77be 2905 723e
000002f0: 9b74 003e 6a46 46be fb0a 853e b575 8cbe
00000300: de26 fd3c bf60 c03e d7a3 4c3e e812 8ebe
00000310: 2b33 5d3e 1dcc 463e 4585 a0be caa3 d6bd
00000320: d381 c43c 09fc e0bd c09c f9bd d3be ac3c
00000330: 1e4e aebc 7fe5 363d bb19 8abc a0df 91bd
00000340: 917b 053e 93da 10be d964 9c3a 4bb2 ca3d
00000350: b80c 023e 0e0f b33d 167d 0fbe 9aa9 5e3e
00000360: 5872 89bc f9ef 333e ea44 85be 0be8 33bd
00000370: d75d 143d dd97 b33d f48b 78be 2cb8 2dbb
00000380: 1b19 c3bd c300 7fbd 8629 30be 70dc df3d
00000390: f974 db3b e545 0d3e 863d b83b b253 cf3d
000003a0: c1b2 bcbc bde9 583d 6217 32ba 0938 30bd
000003b0: 7449 9cba 68c8 e03d e75c 6e3d 31c2 a1bc
000003c0: 3c6b d8bd 5bbd 6fbe 356e 5ebe 5363 30be
000003d0: 0dbe e73c 84d1 95ba 564d a33e 6d54 c6bd
000003e0: 46a1 7bbd 97fc b0bd 4f6e fcbd 1acb b13c
000003f0: ddee 12bd f07c 233d b6b0 02be 5cd1 85be

transformer_encoder.layers.0.self_attn.out_proj.bias f4 [32]
0.08443079 0.010485271 0.14743474 0.020008273 0.022292014 0.019026954 0.056022253 0.045107767
-0.059446648 0.019848214 -0.06283436 -0.022833372 0.008151035 -0.07903583 -0.05491667 -0.061460152
-0.009480609 0.013489785 0.094424136 -0.046971142 -0.036555264 0.05713885 -0.04204645 -0.06441268
0.041777197 0.058730666 -0.069100566 -0.13025728 -0.006213703 0.04907674 -0.026761362 -0.011350594
00000000: 0dea ac3d 6aca 2b3c 22f9 163e 64e8 a33c
00000010: be9d b63c 6ade 9b3c 9777 653d ecc2 383d
00000020: 547e 73bd b998 a23c 4daf 80bd 0d0d bbbc
00000030: eb8b 053c 8add a1bd 4df0 60bd a4bd 7bbd
00000040: 8e54 1bbc 4204 5d3c 7161 c13d d064 40bd
00000050: f9ba 15bd 6d0a 6a3d e638 2cbd ccea 83bd
00000060: 911e 2b3d 918f 703d 9984 8dbd 2a62 05be
00000070: 529c cbbb b104 493d a53a dbbc d8f7 39bc

transformer_encoder.layers.0.linear1.weight f4 [64, 32]
-0.12718014 -0.26002246 0.011005998 0.12603718 -0.20149979 -0.059057195 0.082935594 -0.24285737
-0.15321396 0.14832963 0.20592488 0.006500422 0.02814429 0.020755127 0.057976715 -0.046993937
0.01292974 0.12636466 0.11835469 0.11684908 0.055828772 -0.06643315 0.25154766 0.16888994
-0.068044685 -0.13088866 0.051338147 0.08377591 -0.030303277 -0.16054468 0.101395905 0.1357437
0.08644481 0.091814786 0.027114024 -0.0564876 -0.20995295 -0.00014358351 -0.09708615 0.0077884854
-0.08297932 0.15931329 0.17675446 0.00036338763 0.06261377 0.057947166 0.05386422 0.12692918
0.024404753 -0.1356577 0.06484594 0.20827188 -0.103992835 -0.18978493 -0.1085816 -0.021249598
-0.17708145 -0.2174264 -0.0071348953 -0.0007337645 0.025369149 0.070749216 -0.11140856 0.11638074
0.038111217 -0.029575337 0.04753538 -0.25429448 -0.016474707 0.034012455 -0.068650566 -0.0010071736
-0.02790084 0.15264215 0.10888251 0.14274527 0.131883 0.07750384 -0.0793046 0.0020215532
0.06527596 -0.18768792 -0.1415449 0.15853733 0.235244 -0.14386708 0.2426705 0.17440614
0.19496517 -0.2307615 0.076671004 -0.06888304 0.169852 0.07701582 -0.1854061 -0.19262178
-0.14233091 -0.14222668 -0.2880227 -0.12395942 -0.32361624 0.14311048 0.10432477 0.013549811
0.0686878 0.036849353 -0.08193452 -0.06258512 -0.15275377 0.13840353 -0.05980991 0.10244372
0.28027865 0.1408551 -0.0957784 -0.076880366 0.13413851 0.048789367 -0.040623594 -0.25335136
-0.0029865599 -0.00027599448 -0.24682288 0.27947512 -0.106968924 -0.018680468 0.22094905 0.18317805
-0.20670119 -0.087728314 0.047267552 -0.12807478 0.15091954 -0.078922294 -0.058784287 0.13808157
-0.30436784 -0.105914086 0.09584923 0.2444626 -0.12644647 -0.12290503 0.021943906 -0.20166667
-0.04464299 -0.09386162 -0.0027095573 0.1276903 0.2073236 0.1444465 -0.0042654127 -0.054705277
0.18318982 0.008808684 -0.07219354 0.12240191 -0.25750428 -0.0663286 0.045937143 -0.087371156
-0.16481403 0.0644496 0.017473295 0.042930998 0.05068506 0.18938683 -0.105790645 0.054160576
-0.1244619 0.02115428 -0.19498315 0.087859355 -0.054875955 -0.10608654 -0.006542073 -0.08152645
-0.10777773 -0.03377462 -0.050308987 -0.08131671 -0.116682656 -0.24499767 0.24843666 -0.037729606
0.04407657 -0.0064019435 -0.027986966 -0.0028983762 -0.093951836 0.16995062 -0.14291029 -0.15590335
0.075309865 -0.11609501 -0.26764557 0.23376477 -0.30393195 0.21045722 -0.022493487 -0.13028614
-0.11404206 0.099601194 0.041061953 0.114561915 -0.08432673 -0.048023988 -0.086836144 0.2024248
0.16261919 -0.1012621 -0.021882467 -0.16433857 -0.060086787 -0.1325687 0.031195013 0.06813113
-0.061203055 0.11076692 0.08906514 0.1715822 0.16037852 0.09172805 -0.15213092 -0.012992063
-0.12360764 0.20095941 0.05309682 0.17982675 -0.20583804 -0.054506037 0.043536182 -0.051535793
0.011917652 0.2177851 -0.013731002 -0.11217226 0.021353755 0.095293954 0.14677723 -0.084678076
0.10659712 -0.019553894 -0.10565848 0.17522542 0.19396837 -0.069407746 -0.0034232237 -0.21103244
-0.13139653 0.14438012 -0.0493804 0.1028058 0.122311965 0.07594173 -0.11164214 0.2646192
00000000: 833b 02be aa21 85be 8052 343c e40f 013e
00000010: f655 4ebe f5e5 71bd 23da a93d 9aaf 78be
00000020: 1fe4 1cbe b9e3 173e f9dd 523e 7e01 d53b
00000030: db8e e63c a806 aa3c fe78 6d3d b77c 40bd
00000040: 43d7 533c bd65 013e f263 f23d 924e ef3d
00000050: b6ac 643d 1a0e 88bd dbca 803e 7cf1 2c3e
00000060: 035b 8bbd ad07 06be f347 523d b492 ab3d
00000070: 943e f8bc d365 24be a8a8 cf3d 6600 0b3e
00000080: fa09 b13d 6409 bc3d 3b1e de3c 8b5f 67bd
00000090: e8fd 56be e88e 16b9 1ad5 c6bd 8d36 ff3b
000000a0: 10f1 a9bd 0623 233e 1fff 343e 1085 be39
000000b0: a63b 803d 025a 6d3d baa0 5c3d b9f9 013e
000000c0: 7aec c73c dae9 0abe f3cd 843d 3945 553e
000000d0: 32fa d4bd fb56 42be 0860 debd a313 aebc
000000e0: d754 35be 07a5 5ebe d7cb e9bb 1a5a 40ba
000000f0: f6d2 cf3c f7e4 903d 2c2a e4bd 0759 ee3d
00000100: 821a 1c3d fa47 f2bc 75b4 423d e332 82be
00000110: f7f5 86bc a550 0b3d ab98 8cbd 2303 84ba
00000120: 4d90 e4bc 394e 1c3e cbfd de3d d12b 123e
00000130: 560c 073e 55ba 9e3d 736a a2bd 097c 043b
00000140: 67af 853d 4331 40be 25f1 10be 9c57 223e
00000150: cee3 703e e451 13be 9e7e 783e 8697 323e
00000160: f3a4 473e be4c 6cbe b005 9d3d 8d12 8dbd
00000170: afed 2d3e 78ba 9d3d 19db 3dbe a53e 45be
00000180: 32bf 11be dfa3 11be b677 93be 70de fdbd
00000190: 07b1 a5be 8e8b 123e 3aa8 d53d 0700 5e3c
000001a0: 30ac 8c3d 59ef 163d 49cd a7bd a12c 80bd
000001b0: 7c6b 1cbe a8b9 0d3e 3cfb 74bd 03ce d13d
000001c0: af80 8f3e 523c 103e 7727 c4bd 7473 9dbd
000001d0: 9b5b 093e 5cd7 473d ed64 26bd 45b7 81be
000001e0: 29ba 43bb 5ab3 90b9 23bf 7cbe 5d17 8f3e
000001f0: 8612 dbbd c807 99bc 7840 623e 0793 3b3e
00000200: 7aa9 53be e7aa b3bd 9f9b 413d 0926 03be
00000210: a78a 1a3e 03a2 a1bd cbc7 70bd 4165 0d3e
00000220: 1ad6 9bbe 7ce9 d8bd 9a4c c43d 6754 7a3e
00000230: 2f7b 01be a2b5 fbbd b5c3 b33c b581 4ebe
00000240: 91db 36bd 853a c0bd d492 31bb 3fc1 023e
00000250: a34c 543e c9e9 133e e0c4 8bbb a412 60bd
00000260: 1d96 3b3e 4c52 103c 35da 93bd daad fa3d
00000270: 9ad7 83be 4ad7 87bd 9628 3c3d a6ef b2bd
00000280: 02c5 28be 27fe 833d 2824 8f3c 6ad8 2f3d
00000290: 239b 4f3d 9fee 413e c4a8 d8bd 7bd7 5d3d
000002a0: e1e5 febd be4b ad3c aaa9 47be 9bef b33d
000002b0: 9cc5 60bd e643 d9bd e35e d6bb 57f7 a6bd
000002c0: 92ba dcbd 4257 0abd cc10 4ebd 6089 a6bd
000002d0: 51f7 eebd abe0 7abe 2e66 7e3e 5c8a 1abd
000002e0: a289 343d 65c7 d1bb ec44 e5bc aff2 3dbb
000002f0: d269 c0bd 8907 2e3e 1357 12be 21a5 1fbe
00000300: 0f3c 9a3d 38c3 edbd d708 89be 0860 6f3e
00000310: f89c 9bbe 1982 573e 4344 b8bc bb69 05be
00000320: e28e e9bd b6fb cb3d 9430 283d 709f ea3d
00000330: 7eb3 acbd cdb4 44bd 26d7 b1bd 7248 4f3e
00000340: a585 263e 8162 cfbd dc42 b3bc 5f48 28be
00000350: 901d 76bd 17c0 07be af8c ff3c 5588 8b3d
00000360: 0eb0 7abd c4d9 e23d c967 b63d 3fb3 2f3e
00000370: 443a 243e eadb bb3d 35c8 1bbe a9dc 54bc
00000380: 0126 fdbd 4ec8 4d3e 0d7c 593d 8124 383e
00000390: 35c7 52be b941 5fbd ff52 323d 3217 53bd
000003a0: 4142 433c 0f03 5f3e fff7 60bc 92ba e5bd
000003b0: 12ee ae3c 7a29 c33d c54c 163e b36b adbd
000003c0: 974f da3d 7d2f a0bc 7963 d8bd 4b6e 333e
000003d0: a59f 463e a625 8ebd 2a58 60bb e318 58be
000003e0: d08c 06be 62d8 133e 1a43 4abd d98b d23d
000003f0: b27e fa3d 5687 9b3d a2a4 e4bd 2b7c 873e

transformer_encoder.layers.0.linear1.bias f4 [64]
-0.12758799 -0.022195881 -0.016228959 -0.01580579 -0.0032166291 -0.033858437 -0.0071138167 -0.0032039606
0.010980247 -0.018513154 -0.017360885 -0.082104154 0.05628636 0.02397785 0.016535146 -0.08278037
-0.012529049 -0.03579664 -0.0035625026 0.0025929715 -0.029533012 -0.030073503 -0.1009562 -0.18730849
-0.00025940884 -0.15156928 0.035857063 -0.018095654 -0.12595524 0.011590261 -0.044415955 -0.1143313
-0.05688011 -0.03367074 0.049860567 -0.0016693629 0.0701146 -0.010211795 0.028891312 -0.02778251
-0.0051952326 -0.08686005 -0.17197897 -0.09000742 0.021844845 -0.021144174 -0.02222035 -0.06454702
-0.06385172 -0.019346908 -0.023516918 -0.028490623 0.008517559 -0.029838193 -0.10236453 -0.16634785
-0.06747748 0.027885763 -0.09118676 -0.0917733 -0.013936583 0.021345316 -0.01327877 0.036932718
00000000: 6da6 02be 23d4 b5bc 98f2 84bc 257b 81bc
00000010: 15ce 52bb 25af 0abd 051b e9bb 8af9 51bb
00000020: 7ee6 333c e6a8 97bc 6a38 8ebc 3926 a8bd
00000030: 878c 663d 326d c43c b774 873c c188 a9bd
00000040: a446 4dbc 7f9f 12bd e078 69bb d8ee 293b
00000050: 37ef f1bc b55c f6bc 20c2 cebd cccd 3fbe
00000060: 4401 88b9 fa34 1bbe dbde 123d 563d 94bc
00000070: 69fa 00be 14e5 3d3c 81ed 35bd 8726 eabd
00000080: 1efb 68bd 54ea 09bd 983a 4c3d 86ce daba
00000090: 3e98 8f3d 5f4f 27bc 79ad ec3c 2598 e3bc
000000a0: c53c aabb afe3 b1bd 411b 30be cf55 b8bd
000000b0: f6f3 b23c 8c36 adbc 7407 b6bc 3a31 84bd
000000c0: b1c4 82bd 687d 9ebc 8da6 c0bc 2b65 e9bc
000000d0: 3b8d 0b3c 3a6f f4bc 7fa4 d1bd 1757 2abe
000000e0: a231 8abd af70 e43c 20c0 babd a4f3 bbbd
000000f0: 4456 64bc 5fdc ae3c 338f 59bc c346 173d

transformer_encoder.layers.0.linear2.weight f4 [32, 64]
0.0888462 -0.15140343 0.16734222 -0.03051055 -0.1751161 0.11518762 0.09837955 0.069299854
-0.24366358 -0.12404356 -0.1869216 -0.16340949 0.060446024 0.06675407 0.09236871 -0.10527907
-0.02167583 -0.08234276 0.10928489 -0.116978355 0.028399926 -0.08682437 0.12252347 0.29553136
-0.0005261445 -0.120589666 -0.0004451442 0.15800893 0.051802825 -0.18225631 0.058763828 -0.032194518
0.15522143 -0.11628189 -0.038914774 -0.045175545 -0.15359908 -0.16735855 0.15191042 -0.09664971
0.16231692 -0.02278179 0.17532848 0.07282383 -0.13198169 0.0064522265 -0.24653095 -0.003219259
0.2863541 0.18353395 0.04758347 -0.17763795 0.25059015 0.21416126 -0.06819877 -0.23514313
0.042206846 0.18546872 0.32482538 -0.20043485 -0.1441583 0.02269026 0.11680511 -0.05254798
0.2673439 0.03466793 0.19049728 0.19017923 0.06533913 -0.023068137 -0.14241785 -0.15756059
0.053435978 0.01271092 -0.036855433 -0.20824306 0.10842598 0.15379792 -0.059370138 0.07698825
0.13310747 -0.1335017 0.09264345 0.21965335 -0.07726543 -0.116644464 0.030243667 -0.22385821
-0.057627507 -0.17148171 0.041932058 -0.11467235 -0.099613875 -0.19093503 0.17024775 0.18398608
0.077027805 -0.0045581846 0.027495308 -0.015404204 -0.17005748 -0.067614585 -0.19485164 0.21278556
-0.04378463 -0.12042781 0.08481857 -0.024582297 0.118705265 0.09962018 -0.11293862 0.016804326
-0.110789314 -0.04293991 0.1778392 0.13306512 -0.11040176 -0.056249145 -0.15443389 0.07668147
0.2125034 0.21244965 -0.059214495 -0.09527683 -0.14188291 -0.007469655 -0.05261315 0.055097897
-0.05508907 0.037412066 0.19746341 -0.21567073 0.21134369 -0.2062134 0.06870114 -0.13486756
0.17347318 -0.03201705 0.19398266 0.16238092 0.016449915 0.104995176 0.18278642 0.1494619
0.2659339 -0.02890164 -0.18357751 -0.12525614 0.17000152 -0.07115729 0.28104767 -0.16353057
-0.1616884 0.21657893 -0.23453815 -0.09623897 -0.054552495 -0.038282253 -0.14778715 0.15066108
-0.04519925 0.17100036 -0.06479228 -0.2190855 -0.20847958 0.23044607 0.024832914 0.03805747
-0.13059437 0.14964983 0.3818412 0.3070896 -0.108002014 0.15404883 -0.0020459825 0.310867
-0.077264756 0.055166285 -0.034628324 -0.21252353 -0.09782411 0.011859388 0.18043904 -0.12615022
-0.034478363 0.21008702 -0.06412523 0.039387804 -0.27444178 0.069856584 -0.20123513 0.03879788
0.06459864 -0.0542862 0.1839818 -0.20455925 0.10111874 0.20057586 -0.19502747 -0.017346796
0.09209348 0.00094175996 0.09436606 0.13318019 0.044934038 -0.0024244674 0.093588285 -0.15285915
0.10168997 -0.09824319 -0.038022112 -0.17250729 -0.03155025 -0.15742221 -0.18371215 0.15330459
-0.09419539 0.085661665 0.05242175 0.012428727 0.23298186 -0.05004176 -0.12877731 0.15824668
-0.06330884 -0.18706669 0.022759162 0.2158943 -0.19890817 0.017739186 -0.12765162 0.04014346
-0.2046974 -0.14356324 0.17900187 -0.054205798 0.089839175 0.03576118 -0.16632962 0.15017925
-0.14132118 0.11910288 -0.24781242 -0.094955154 0.107367575 -0.14904316 -0.186901 -0.0715416
0.14572915 0.15867491 -0.20243467 -0.10693455 -0.19363712 0.033885993 -0.09907 0.020257698
00000000: fff4 b53d 8009 1bbe c25b 2b3e 43f1 f9bc
00000010: a351 33be 7de7 eb3d 387b c93d 15ed 8d3d
00000020: f282 79be 8d0a febd 6068 3fbe d154 27be
00000030: 4096 773d 5cb6 883d ce2b bd3d 8e9c d7bd
00000040: 8391 b1bc 52a3 a8bd c2d0 df3d 5992 efbd
00000050: f6a6 e83c fad0 b1bd 96ed fa3d e34f 973e
00000060: f6ec 09ba b7f7 f6bd 3e62 e9b9 18cd 213e
00000070: 332f 543d 66a1 3abe 57b2 703d 66de 03bd
00000080: 5ef2 1e3e 3325 eebd 1965 1fbd fe09 39bd
00000090: 1449 1dbe 0a60 2bbe 688e 1b3e 48f0 c5bd
000000a0: 6836 263e e0a0 babc 4f89 333e a924 953d
000000b0: 3526 07be 336d d33b 9c72 7cbe 34fa 52bb
000000c0: 019d 923e 53f0 3b3e e2e6 423d b9e6 35be
000000d0: 5a4d 803e 174d 5b3e ccab 8bbd 5cc9 70be
000000e0: 16e1 2c3d 83eb 3d3e 834f a63e cb3e 4dbe
000000f0: 3c9e 13be ede0 b93c 8437 ef3d 8d3c 57bd
00000100: 4de1 883e f6ff 0d3d b811 433e 58be 423e
00000110: 86d0 853d 64f9 bcbc fcd5 11be 9057 21be
00000120: afdf 5a3d 7641 503c b9f5 16bd ab3d 55be
00000130: 710e de3d 347d 1d3e 1a2e 73bd 04ac 9d3d
00000140: 534d 083e abb4 08be d9bb bd3d cfec 603e
00000150: 563d 9ebd 4be3 eebd 91c1 f73c 163b 65be
00000160: d20a 6cbd e798 2fbe f3c0 2b3d 56d9 eabd
00000170: 5c02 ccbd 7984 43be 6d55 2e3e d966 3c3e
00000180: c1c0 9d3d d35c 95bb d73d e13c ea61 7cbc
00000190: 8c23 2ebe 8479 8abd 3087 47be 75e4 593e
000001a0: 8357 33bd dba2 f6bd 5cb5 ad3d d060 c9bc
000001b0: bf1b f33d aa05 cc3d 5d4c e7bd 3aa9 893c
000001c0: 82e5 e2bd c2e1 2fbd 7b1b 363e 3942 083e
000001d0: 511a e2bd 8165 66bd eb23 1ebe 2d0b 9d3d
000001e0: 7e9a 593e 678c 593e e68a 72bd 8020 c3bd
000001f0: c149 11be 02c4 f4bb e380 57bd 55ae 613d
00000200: 14a5 61bd 653d 193d d933 4a3e cad8 5cbe
00000210: 7b6a 583e 9b29 53be 2fb3 8c3d b91a 0abe
00000220: f4a2 313e 4f24 03bd 64a3 463e 2f47 263e
00000230: f9c1 863c b607 d73d 5d2c 3b3e 8a0c 193e
00000240: 7d28 883e 22c3 ecbc befb 3bbe 2543 00be
00000250: e114 2e3e eaba 91bd 7be5 8f3e 8f74 27be
00000260: a591 25be dec6 5d3e c52a 70be f018 c5bd
00000270: 7072 5fbd dacd 1cbd 8455 17be e646 1a3e
00000280: d922 39bd b81a 2f3e d1b1 84bd f357 60be
00000290: ac7b 55be 0efa 6b3e 656e cb3c 26e2 1b3d
000002a0: 88ba 05be ce3d 193e b180 c33e d93a 9d3e
000002b0: 2930 ddbd fabe 1d3e e415 06bb f629 9f3e
000002c0: fc3c 9ebd 0bf6 613d 6ed6 0dbd c59f 59be
000002d0: 0258 c8bd e14d 423c 03c5 383e 862d 01be
000002e0: 2f39 0dbd 0d21 573e 1754 83bd 1b55 213d
000002f0: a283 8cbe f810 8f3d 9510 4ebe 87ea 1e3d
00000300: 4b4c 843d 355b 5ebd ba65 3c3e fb77 51be
00000310: 5817 cf3d c263 4d3e 48b5 47be de1a 8ebc
00000320: 829b bc3d 71e0 763a fe42 c13d 6360 083e
00000330: c10c 383d d0e3 1ebb 37ab bf3d 1c87 1cbe
00000340: d542 d03d ba33 c9bd 13bd 1bbd c0a5 30be
00000350: d63a 01bd 4a33 21be 0a1f 3cbe e1fb 1c3e
00000360: 83e9 c0bd 626f af3d 30b8 563d dca1 4b3c
00000370: cc92 6e3e 97f8 4cbd 33de 03be 6b0b 223e
00000380: 11a8 81bd 698e 3fbe 6c71 ba3c 6513 5d3e
00000390: 95ae 4bbe c551 913c 1bb7 02be 786d 243d
000003a0: 329c 51be 3e02 13be 444c 373e e606 5ebd
000003b0: 9afd b73d 517a 123d 5052 2abe 97c8 193e
000003c0: 80b6 10be 36ec f33d 8ac2 7dbe d977 c2bd
000003d0: 88e3 db3d c59e 18be fa62 3fbe 6784 92bd
000003e0: 063a 153e ad7b 223e 094b 4fbe 8000 dbbd
000003f0: cf48 46be 0acc 0a3d 36e5 cabd 79f3 a53c

transformer_encoder.layers.0.linear2.bias f4 [32]
-0.02174504 0.01360775 0.02740802 -0.039565224 -0.017401006 0.06383599 0.011904939 0.030332737
0.0023042024 -0.006790219 0.00075658236 0.009107861 0.015479843 -0.015204035 0.020133207 -0.010461152
-0.07004017 0.1343789 -0.00067477475 0.00566764 0.0025458313 -0.011661667 -0.007947831 0.0019989272
-0.01678576 0.0486874 0.033532705 0.03495002 0.011491777 -0.035626356 0.016135529 0.004713004
00000000: a722 b2bc 0af3 5e3c c986 e03c 250f 22bd
00000010: 8e8c 8ebc 72bc 823d ef0c 433c 5c7c f83c
00000020: 1a02 173b 7c80 debb 6255 463a 2339 153c
00000030: 2b9f 7d3c 581a 79bc 65ee a43c 4065 2bbc
00000040: 3871 8fbd 9f9a 093e 5ee3 30ba 9cb7 b93b
00000050: f6d7 263b 9410 3fbc 9f37 02bc 6f00 033b
00000060: 4a82 89bc 706c 473d 9759 093d c127 0f3d
00000070: 0248 3c3c f1ec 11bd a82e 843c 8b6f 9a3b

transformer_encoder.layers.0.norm1.weight f4 [32]
0.91116357 1.0244831 1.231961 0.8813495 1.1158382 0.91507745 0.6135544 0.99479693
1.1493852 0.579634 1.1766807 1.1801604 0.9198624 0.96367383 1.0124726 0.9444179
1.0092635 0.96295637 0.8726654 0.7145894 1.028205 1.110188 0.95018524 0.8991209
0.9148727 1.1132014 0.9982341 1.0919563 0.94821984 0.8533819 0.78705436 0.95803726
00000000: 0442 693f 4322 833f e6b0 9d3f 1fa0 613f
00000010: c9d3 8e3f 8442 6a3f e711 1d3f 03ab 7e3f
00000020: 0e1f 933f e562 143f 799d 963f 7f0f 973f
00000030: 1a7c 6b3f 54b3 763f b498 813f 5fc5 713f
00000040: 8c2f 813f 4f84 763f 0067 5f3f 55ef 363f
00000050: 399c 833f a41a 8e3f 573f 733f ca2c 663f
00000060: 1935 6a3f 627d 8e3f 458c 7f3f 39c5 8b3f
00000070: 89be 723f 3c77 5a3f 657c 493f ee41 753f

transformer_encoder.layers.0.norm1.bias f4 [32]
0.12952165 -0.07802296 0.19511348 0.0137476 -0.0106138745 0.016504766 0.06096257 0.009472985
-0.036636658 -0.023498893 0.00093037914 -0.07532683 -0.08860464 -0.036466517 -0.005023119 -0.014831367
-0.0027342404 0.1797779 -0.018127386 0.06802536 0.009158064 -0.0052768732 -0.06578808 0.03251791
0.064594515 0.12369976 0.06950584 -0.1423538 -0.003836917 0.12127605 -0.07910071 -0.12021916
00000000: 53a1 043e 80ca 9fbd d4cb 473e 9d3d 613c
00000010: d1e5 2dbc 0135 873c e3b3 793d 9434 1b3c
00000020: 5210 16bd c080 c0bc b0e4 733a f444 9abd
00000030: 5976 b5bd ea5d 15bd fa98 a4bb 43ff 72bc
00000040: f130 33bb b317 383e e27f 94bc e150 8b3d
00000050: b40b 163c 9fe9 acbb e7bb 86bd 8031 053d
00000060: 214a 843d 4d56 fd3d 1459 8e3d 32c5 11be
00000070: c974 7bbb 945f f83d 8eff a1bd 7735 f6bd

transformer_encoder.layers.0.norm2.weight f4 [32]
0.97094184 1.0249923 1.1189514 0.9155406 1.0670238 0.9231684 0.87161636 0.9459349
1.0976647 0.8090321 1.1165587 1.1681392 0.96909523 0.89805245 1.029836 0.9895008
0.91494375 1.1097678 0.85854393 0.77553844 1.0369073 1.0269928 1.0186138 0.92294014
0.9557585 1.1794059 0.9660517 1.185503 0.8637733 0.81972134 0.9628051 0.816055
00000000: a58f 783f f332 833f cd39 8f3f de60 6a3f
00000010: 3c94 883f c454 6c3f 4022 5f3f ca28 723f
00000020: 4780 8c3f ba1c 4f3f 65eb 8e3f 9685 953f
00000030: a016 783f c4e6 653f abd1 833f ed4f 7d3f
00000040: c139 6a3f df0c 8e3f 89c9 5b3f b089 463f
00000050: 61b9 843f 8074 833f f061 823f ce45 6c3f
00000060: 97ac 743f c6f6 963f 2a4f 773f 90be 973f
00000070: 3f20 5d3f 42d9 513f 657a 763f fbe8 503f

transformer_encoder.layers.0.norm2.bias f4 [32]
0.0917681 -0.07194285 0.19472277 -0.0143054435 0.0035777441 0.004103941 0.11647958 -0.10085193
-0.040385623 0.0008647765 0.022599362 -0.08281454 -0.09860517 -0.038418133 0.03301473 -0.028185455
-0.10000292 0.2556841 8.1326625e-06 0.038526796 -0.016497482 -0.05369196 -0.19480419 0.044957273
0.037288755 0.20171523 -0.008785165 -0.114359386 -0.013669038 0.14348467 -0.0010493916 -0.10919105
00000000: eaf0 bb3d c656 93bd 6865 473e 6161 6abc
00000010: 9678 6a3b 5a7a 863b d98c ee3d 758b cebd
00000020: 656b 25bd 2bb2 623a 4c22 b93c ab9a a9bd
00000030: 82f1 c9bd 555c 1dbd 743a 073d 2fe5 e6bc
00000040: 55ce ccbd 07e9 823e 8571 0837 46ce 1d3d
00000050: ba25 87bc 1aec 5bbd c07a 47be 1e25 383d
00000060: 18bc 183d 708e 4e3e a7ef 0fbc 4135 eabd
00000070: 1af4 5fbc a5ed 123e bd8b 89ba 8f9f dfbd

transformer_encoder.layers.1.self_attn.in_proj_weight f4 [96, 32]
0.2112833 -0.1396278 0.21522628 -0.1785752 0.03196957 -0.15288574 -0.044023786 0.13037468
-0.10366176 0.063922815 -0.004700495 0.17409861 -0.1393176 -0.007873726 0.14084238 0.17631944
0.03462942 0.06597584 -0.051354613 -0.14101006 -0.026765915 0.15757486 -0.10659196 0.034588832
0.021333039 -0.1469133 -0.036627136 0.13179256 -0.05950274 -0.16533214 -0.028421365 0.13629647
-0.17316237 -0.0016400822 -0.12718116 0.11154211 -0.0781794 -0.13409825 -0.02870914 -0.19517037
-0.049310442 0.12023004 -0.049613312 0.09810312 0.08153643 0.05049368 -0.1931435 0.04206536
0.009147838 0.093853585 0.11166949 0.051852647 -0.19285615 0.08037241 -0.1736017 -0.06812676
0.042616654 -0.098777555 0.17735203 0.08135252 -0.022132976 -0.046732817 0.0037540575 -0.18602838
0.12998006 -0.045713667 -0.2065205 -0.12816067 -0.22198571 0.041692905 0.13168383 0.18983707
0.19182774 -0.060533423 0.1503727 0.1319732 0.18038513 0.10199842 -0.19165131 -0.16439569
0.06811643 -0.114225894 0.09354382 0.00018440539 0.1467468 -0.21846823 0.059133563 -0.004224593
0.13154843 -0.20163694 0.19146371 0.08960314 0.068611935 -0.035424646 0.08387314 0.11841754
0.18530712 0.19977592 -0.1740075 0.010244725 -0.015228139 -0.1760266 -0.08034657 -0.16581546
0.11052981 0.12575614 0.11806064 -0.11745943 0.03683442 0.029308464 -0.11496111 0.09891376
-0.188617 -0.108009756 -0.02011462 -0.1360698 0.07940321 -0.04794278 -0.088918544 -0.14688584
0.052541904 -0.15570915 0.06643239 -0.116021715 0.11840103 -0.07535691 -0.13238677 0.08314922
-0.16615765 -0.21120302 0.03801255 0.019597799 0.12466659 -0.0751845 0.20092595 0.16615231
0.15758406 0.020460075 0.014606296 0.06086709 0.18322128 -0.20702317 -0.06721134 -0.0019900023
0.07813923 -0.111611575 0.009590423 -0.1896277 -0.15867944 -0.16522814 0.13810405 -0.17114046
-0.008369674 -0.0070098736 -0.17912382 -0.12225845 -0.1853937 -0.04321907 -0.097984925 -0.09918249
0.19785596 -0.1872247 0.13070454 0.19537617 0.20181891 0.17365308 0.027484331 -0.11136238
0.044142734 -0.20788334 0.049576797 0.042501595 -0.06449677 -0.087111816 0.033611402 -0.039695207
-0.0664138 0.11605557 -0.013393251 0.19451317 0.14837517 0.19936387 -0.16221112 0.13353714
0.06987491 -0.070480645 0.10339402 -0.100081 0.109748214 -0.06649707 0.070469916 -0.15813962
0.04227409 -0.16612823 -0.022899369 0.03817215 0.10667956 -0.15577304 0.004537028 -0.17790413
0.19101028 0.17546974 -0.0034416667 0.21058558 0.08225418 0.03672635 -0.19364956 0.128145
0.10117068 0.0666661 0.06290489 -0.04029207 -0.11296736 0.10531516 -0.05026745 -0.0490541
-0.07270188 -0.08152007 0.13909262 -0.19132918 -0.04399713 -0.13750653 0.026201004 -0.11472875
-0.079634145 -0.12877834 -0.06827238 0.1338093 0.048279457 0.16905306 -0.17896281 -0.031798616
0.16308302 -0.16171014 0.116631955 -0.1647618 0.03263492 -0.12387447 0.047468927 0.09907309
0.072122164 0.017546326 -0.06759324 0.1334692 0.115954906 0.058552094 -0.17210165 -0.1430353
0.039221097 -0.1635757 -0.048345663 0.14948955 0.08746068 0.048043028 -0.0032723665 -0.06513484
00000000: a65a 583e 97fa 0ebe 4764 5c3e 6bdc 36be
00000010: 86f2 023d 148e 1cbe 4952 34bd f180 053e
00000020: 9e4c d4bd f7e9 823d 9c06 9abb e846 323e
00000030: 46a9 0ebe cd00 01bc fc38 103e 158d 343e
00000040: 94d7 0d3d 571e 873d 3759 52bd f164 10be
00000050: 3144 dbbc 4e5b 213e e34c dabd 05ad 0d3d
00000060: a0c2 ae3c 7170 16be 5606 16bd a1f4 063e
00000070: 25b9 73bd d44c 29be ecd3 e8bc 4d91 0b3e
00000080: 7a51 31be 07f8 d6ba c73b 02be 3170 e43d
00000090: 851c a0bd 0d51 09be 6e2f ebbc beda 47be
000000a0: bff9 49bd 2b3b f63d 5437 4bbd 4aea c83d
000000b0: 92fc a63d 76d2 4e3d 69c7 45be ba4c 2c3d
000000c0: d0e0 153c 4f36 c03d f9b2 e43d 7163 543d
000000d0: 157c 45be 4a9a a43d a5c4 31be 0b86 8bbd
000000e0: cd8e 2e3d e34b cabd c59b 353e 269c a63d
000000f0: 3750 b5bc e96a 3fbd a206 763b 397e 3ebe
00000100: 7e19 053e 413e 3bbd 1c7a 53be 8d3c 03be
00000110: 3950 63be 2ec6 2a3d 20d8 063e a664 423e
00000120: 7e6e 443e e5f1 77bd 4dfb 193e fc23 073e
00000130: e1b6 383e 8ce4 d03d 3e40 44be 5857 28be
00000140: a080 8b3d 44ef e9bd e793 bf3d f25c 4139
00000150: cb44 163e 23b6 5fbe 0936 723d 746e 8abb
00000160: a2b4 063e ea79 4ebe 100f 443e da81 b73d
00000170: 6a84 8c3d 6f19 11bd aec5 ab3d e584 f23d
00000180: 26c1 3d3e 0f92 4c3e 062f 32be 7ed9 273c
00000190: 727f 79bc 5140 34be be8c a4bd 87cb 29be
000001a0: 745d e23d 38c6 003e c7c9 f13d 928e f0bd
000001b0: b0df 163d 4e18 f03c bb70 ebbd 4c93 ca3d
000001c0: d124 41be 3834 ddbd 6ac7 a4bc e255 0bbe
000001d0: 269e a23d a65f 44bd ed1a b6bd 3e69 16be
000001e0: 2e36 573d 3872 1fbe b40d 883d cb9c edbd
000001f0: 3d7c f23d b954 9abd 6690 07be 234a aa3d
00000200: 3b25 2abe 9b45 58be 0cb3 1b3d 908b a03c
00000210: 3251 ff3d 55fa 99bd 88bf 4d3e d523 2a3e
00000220: b75d 213e e39b a73c 3f4f 6f3c c54f 793d
00000230: 5c9e 3b3e e2fd 53be 19a6 89bd b36a 02bb
00000240: 7607 a03d 9c94 e4bd 2621 1d3c c42d 42be
00000250: dd7c 22be 9131 29be 266b 0d3e 723f 2fbe
00000260: f520 09bc 15b3 e5bb 3c6c 37be a362 fabd
00000270: d9d7 3dbe 7b06 31bd 52ac c8bd 3020 cbbd
00000280: c19a 4a3e d5b7 3fbe 69d7 053e b110 483e
00000290: 9ea9 4e3e 1dd2 313e d226 e13c f611 e4bd
000002a0: 03cf 343d 5fdf 54be 0a11 4b3d 2716 2e3d
000002b0: e216 84bd ae67 b2bd 1cac 093d 7197 22bd
000002c0: f503 88bd 8bae ed3d 5e6f 5bbc 762e 473e
000002d0: a9ef 173e 0b26 4c3e ac1a 26be f6bd 083e
000002e0: 941a 8f3d 2858 90bd 3ec0 d33d 44f7 ccbd
000002f0: acc3 e03d 9e2f 88bd 8852 903d 5aef 21be
00000300: 9927 2d3d 851d 2abe 7597 bbbc 665a 1c3d
00000310: d07a da3d f882 1fbe 59ab 943b 802c 36be
00000320: 3398 433e 57ae 333e 968d 61bb bfa3 573e
00000330: e174 a83d 5f6e 163d 124c 46be 7138 033e
00000340: 9332 cf3d 3c88 883d 47d4 803d 4c09 25bd
00000350: 6e5b e7bd 79af d73d 3ee5 4dbd f4ec 48bd
00000360: b9e4 94bd fff3 a6bd 4c6e 0e3e cceb 43be
00000370: 5636 34bd 83ce 0cbe 7da3 d63c e8f6 eabd
00000380: 3a17 a3bd 78de 03be 64d2 8bbd 4e05 093e
00000390: aec0 453d 3f1c 2d3e 0742 37be 443f 02bd
000003a0: 3cff 263e 5897 25be bcdc ee3d 51b7 28be
000003b0: 32ac 053d e6b1 fdbd c76e 423d d5e6 ca3d
000003c0: c9b4 933d 50bd 8f3c 536e 8abd 26ac 083e
000003d0: c479 ed3d 52d4 6f3d 6a3b 30be d877 12be
000003e0: 4da6 203d 6380 27be 1a06 46bd ca13 193e
000003f0: 961e b33d c4c8 443d 3375 56bb 6a65 85bd

transformer_encoder.layers.1.self_attn.in_proj_bias f4 [96]
0.002334851 -0.011854871 -0.008455356 -0.0096944105 -0.0027613046 -0.0068161846 -0.0057062786 0.0015644178
0.006893869 0.0038828698 0.0045014024 -0.0043868558 -1.2258128e-05 -0.00616995 -0.0086603435 0.0045891176
0.0016565084 0.0077507696 -0.009554491 0.004959654 0.001323745 0.0098314565 -0.0063983607 -0.004268031
-0.00012389156 -0.000104050625 0.0010350299 6.5533495e-05 0.011887886 -0.0020568576 -0.0058466275 -0.0027441515
-0.0025795097 0.0020153872 0.010751977 -0.0027287013 0.0018803788 -0.006738482 -0.0034959002 0.006970666
0.00079400267 -0.00033721028 -0.003720979 0.0059634903 -0.0007423014 0.0017428264 -0.0051481323 -0.010064997
-0.005873683 0.0014537467 0.0068833963 -0.0029279634 -0.013577549 0.0020734973 0.008518609 0.0022006012
0.0014325764 -0.00045384627 0.0024696183 0.0003387025 0.0009953949 0.00452476 -0.0007032604 0.0032482347
-0.036630347 -0.08414672 -0.13759297 -0.050159458 -0.0033504004 -0.092246585 0.05170504 -0.05800568
0.032657687 -0.017756853 0.09217099 -0.057053752 -0.047637608 -0.022674505 -0.082786314 -0.011756548
-0.040142585 0.0031632863 0.048875324 -0.07802937 -0.08662987 0.029280793 -0.15855788 0.08423242
0.19253336 -0.08439315 -0.008778312 0.058781464 0.08369403 0.08049685 -0.029325332 -0.014996131
00000000: 4d04 193b ef3a 42bc 5588 0abc 4ed5 1ebc
00000010: 01f7 34bb 4d5a dfbb bcfb babb 270d cd3a
00000020: f7e5 e13b bf77 7e3b 8080 933b 9dbf 8fbb
00000030: 42a8 4db7 4b2d cabb 1de4 0dbc 4f60 963b
00000040: 331f d93a 2bfa fd3b 718a 1cbc 9884 a23b
00000050: 8381 ad3a 1e14 213c 57a9 d1bb d7da 8bbb
00000060: e3e8 01b9 c135 dab8 d7a9 873a 076f 8938
00000070: 68c5 423c 58cc 06bb 1195 bfbb 39d7 33bb
00000080: fe0c 29bb 9614 043b 0f29 303c 03d4 32bb
00000090: 0b77 f63a 7cce dcbb 791b 65bb 2f6a e43b
000000a0: 9e24 503a 99cb b0b9 abdb 73bb 6269 c33b
000000b0: 0197 42ba 8d6f e43a aab1 a8bb a8e7 24bc
000000c0: 0678 c0bb a58b be3a 1d8e e13b 13e3 3fbb
000000d0: 5e74 5ebc 83e3 073b a391 0b3c f637 103b
000000e0: 4ac5 bb3a 37f2 edb9 52d9 213b e193 b139
000000f0: e977 823a 7044 943b 025b 38ba 56e0 543b
00000100: b409 16bd 1e55 acbd 2ce5 0cbe 0174 4dbd
00000110: 6492 5bbb c7eb bcbd aac8 533d 5d97 6dbd
00000120: 11c4 053d d276 91bc 25c4 bc3d 32b1 69bd
00000130: a71f 43bd e2bf b9bc df8b a9bd 899e 40bc
00000140: 8d6c 24bd 234f 4f3b 7e31 483d ddcd 9fbd
00000150: 006b b1bd 46de ef3c ff5c 22be 0c82 ac3d
00000160: 7727 453e 51d6 acbd e9d2 0fbc d5c4 703d
00000170: c767 ab3d 88db a43d ae3b f0bc 55b2 75bc
